Autoencoder RealBlur_J Dataset/autoencoder_model_full5.pth (torch, 785318 bytes, 16 tensors)

encoder.0.weight f4 [16, 3, 3, 3]
0	0x00055867	4.9089e-40
1	0x000566c5	4.96044e-40
2	0x00055dbe	4.92806e-40
3	0x00055b0a	4.91836e-40
4	0x00055a91	4.91667e-40
5	0x00055840	4.90836e-40
6	0x0005596e	4.91259e-40
7	0x00055c32	4.92251e-40
8	0x00055db4	4.92792e-40
9	0x00056029	4.93673e-40
10	0x80056eb8	-4.98896e-40
11	0x80055db3	-4.9279e-40
12	0x00056780	4.96306e-40
13	0x80056889	-4.96678e-40
14	0x80055783	-4.90571e-40
15	0x00056dc0	4.98548e-40
16	0x80056859	-4.9661e-40
17	0x80055d6e	-4.92694e-40
18	0x00056d10	4.98302e-40
19	0x800557b6	-4.90642e-40
20	0x800563f0	-4.95028e-40
21	0x0005701d	4.99396e-40
22	0x80055fc8	-4.93537e-40
23	0x800568cc	-4.96772e-40
24	0x00056d67	4.98424e-40
25	0x80056378	-4.9486e-40
26	0x800559f1	-4.91442e-40
27	0x3d99916a	0.07498439
28	0x3d9f1d23	0.07769229
29	0x3db84145	0.08996824
30	0x3da65cbf	0.08123159
31	0x3da9a0ef	0.08282649
32	0x3dd216d5	0.10258261
33	0x3d07cb44	0.033152834
34	0x3e00c511	0.12575175
35	0x3dd6c529	0.10486824
36	0xbcd68646	-0.026187073
37	0xbd60b221	-0.054857377
38	0x3ca524b0	0.020159096
39	0xbda8ef56	-0.08248775
40	0x3c6dd832	0.014516877
41	0xbd5f1ced	-0.054470945
42	0xbd896863	-0.06709363
43	0xbc7b3dc9	-0.015334555
44	0xbcbeb795	-0.023280898
45	0x3e28295b	0.16422026
46	0x3e46ef9e	0.19427344
47	0x3e639d3c	0.22227949
48	0x3e208d96	0.15679011
49	0x3e40817b	0.18799393
50	0x3e61faf6	0.2206839
51	0x3dff2a9f	0.12459301
52	0x3e3fba8f	0.1872351
53	0x3e6a7237	0.22895132
54	0x00056394	4.949e-40
55	0x00056e1b	4.98676e-40
56	0x00056186	4.94162e-40
57	0x00056250	4.94445e-40
58	0x00055c21	4.92227e-40
59	0x00055bbb	4.92084e-40
60	0x00056614	4.95796e-40
61	0x00056979	4.97014e-40
62	0x00055c01	4.92182e-40
63	0x80055857	-4.90868e-40
64	0x800559ba	-4.91365e-40
65	0x80056eed	-4.9897e-40
66	0x8005581c	-4.90785e-40
67	0x80057558	-5.01272e-40
68	0x80056e0d	-4.98656e-40
69	0x80057687	-5.01697e-40
70	0x8005763e	-5.01595e-40
71	0x8005674e	-4.96236e-40
72	0x00055c55	4.923e-40
73	0x000572cd	5.0036e-40
74	0x00056f2d	4.9906e-40
75	0x80057e10	-5.044e-40
76	0x00057845	5.02322e-40
77	0x0005591e	4.91147e-40
78	0x80057622	-5.01556e-40
79	0x0005772c	5.01928e-40
80	0x0005629b	4.9455e-40
81	0x3e98f8c7	0.29877302
82	0x3eb47de4	0.35252297
83	0x3ead1793	0.33807048
84	0x3eb71ca6	0.35764045
85	0x3ecf67df	0.40508935
86	0x3ec7a74f	0.38994834
87	0x3eb04215	0.34425417
88	0x3ece6253	0.4030939
89	0x3ec6cd4e	0.3882851
90	0x3da04b95	0.07826916
91	0x3deca97b	0.11555763
92	0x3dd054c8	0.10172421
93	0x3ddee385	0.1088324
94	0x3e17dd48	0.14830506
95	0x3e0312b5	0.12800105
96	0x3df7762a	0.12083085
97	0x3e1bfe65	0.15233763
98	0x3e0e0519	0.13869132
99	0xbddd94fa	-0.10819431
100	0xbdbbe241	-0.09174014
101	0xbdca3687	-0.098736815
102	0xbdc63b92	-0.09679331
103	0xbd9ff492	-0.0781032
104	0xbdb31729	-0.08744652
105	0xbdae00d4	-0.08496252
106	0xbd863011	-0.06552137
107	0xbd9962e7	-0.07489567
108	0xbcabd9e2	-0.020977918
109	0xbdc62ae4	-0.096761495
110	0x3d4d89f3	0.050180387
111	0x3db6632e	0.08905636
112	0xbbdce4e1	-0.0067411517
113	0xbd94696a	-0.07246669
114	0xb9ffb33f	-0.0004877094
115	0xbdb54d98	-0.088526905
116	0x3d4ce0de	0.050019138
117	0x3d129df5	0.03579517
118	0x3e40756f	0.18794797
119	0x3d0327b8	0.0320203
120	0x3ddbe305	0.1073666
121	0x3d419697	0.047262754
122	0x3dbc0ea0	0.09182477
123	0x3e392980	0.18082237
124	0x3de24f1d	0.11050246
125	0x3e0c8c1b	0.13725321
126	0x3bf083d3	0.0073399334
127	0xbe2e7d75	-0.17040046
128	0xbe1267e7	-0.14297448
129	0xbd997bc9	-0.07494313
130	0xbe149228	-0.14508879
131	0xbe120ff5	-0.142639
132	0xbe0b9a79	-0.13633145
133	0xbdfd84de	-0.12378858
134	0xbdcac2db	-0.09900447
135	0x3d33ae79	0.043867562
136	0x3de4ca83	0.111714385
137	0x3dbd553c	0.09244773
138	0x3d69f447	0.057117727
139	0x3d9f92f7	0.07791703
140	0x3dc6b0d4	0.09701696
141	0x3da71d96	0.0815994
142	0x3dc3935e	0.095495924
143	0x3daf7e19	0.08568973
144	0xbc38d6b5	-0.011281659
145	0xbbffee8d	-0.00781042
146	0x3ca86405	0.020555506
147	0xbd476b74	-0.04868646
148	0x3d22e577	0.039769616
149	0x3c4903c7	0.012268967
150	0x3c1da8c1	0.009622754
151	0x3cf18a12	0.029484782
152	0x3d7e53c0	0.06209159
153	0xbc0a0cb2	-0.008425878
154	0x3d24214d	0.04007082
155	0x3c8a20e2	0.016861383
156	0xbd238561	-0.039922122
157	0xbcd25001	-0.025672914
158	0x3d383533	0.04497261
159	0x3c8f24e2	0.017473642
160	0x3d2e42a7	0.042544033
161	0xbd04b77f	-0.032401558
162	0x80056085	-4.93802e-40
163	0x80056398	-4.94905e-40
164	0x800560cb	-4.939e-40
165	0x80055cf1	-4.92519e-40
166	0x80055c36	-4.92257e-40
167	0x8005602c	-4.93677e-40
168	0x80055bcb	-4.92107e-40
169	0x800560c9	-4.93897e-40
170	0x8005573f	-4.90475e-40
171	0x800560fb	-4.93968e-40
172	0x80056312	-4.94717e-40
173	0x80055e92	-4.93103e-40
174	0x80055f7e	-4.93434e-40
175	0x800558eb	-4.91075e-40
176	0x80055d2a	-4.92598e-40
177	0x80056444	-4.95146e-40
178	0x800558b5	-4.91e-40
179	0x80055919	-4.9114e-40
180	0x80055780	-4.90567e-40
181	0x800558bd	-4.91011e-40
182	0x80055b25	-4.91874e-40
183	0x80055c69	-4.92328e-40
184	0x80055863	-4.90885e-40
185	0x80056087	-4.93805e-40
186	0x80056169	-4.94122e-40
187	0x80055bcb	-4.92107e-40
188	0x8005620a	-4.94347e-40
189	0x3ca4e6f0	0.02012965
190	0x3d05d746	0.032676004
191	0x3d98b262	0.07455899
192	0xbcb3f303	-0.021966463
193	0x3d322d1f	0.043500062
194	0x3d068861	0.032844905
195	0x3d08736b	0.033313196
196	0x3d9f370e	0.07774173
197	0x3d61e2aa	0.055147804
198	0x3e0d209e	0.13781974
199	0x3e396030	0.18103099
200	0x3e28eab1	0.16495778
201	0x3e1e7e6a	0.1547791
202	0x3e15f1e9	0.14643063
203	0x3e4e71cf	0.20160602
204	0x3e14d9c4	0.14536196
205	0x3e6c0f3e	0.2305269
206	0x3e2e04ef	0.1699407
207	0x3e16f538	0.14741981
208	0x3e4c3a95	0.19944222
209	0x3e4ff8ac	0.20309705
210	0x3e02f907	0.12790309
211	0x3e569f20	0.20959139
212	0x3e5b30ac	0.21405286
213	0x3e28f787	0.16500674
214	0x3e8102c6	0.25197428
215	0x3e6adb99	0.22935332
216	0x3e680721	0.2265897
217	0x3e97e3aa	0.2966588
218	0x3e904a14	0.28181517
219	0x3e9b52e7	0.30336687
220	0x3ec820e1	0.39087585
221	0x3ebab7d9	0.3646839
222	0x3e9eda4f	0.3102593
223	0x3ec67376	0.38759965
224	0x3ebd6f8c	0.36999166
225	0x3ea8f9e6	0.33003157
226	0x3ed54db7	0.41660854
227	0x3ec70bc3	0.3887616
228	0x3ed5d7d1	0.41766217
229	0x3ef8f37b	0.4862326
230	0x3eee3253	0.4652277
231	0x3ed73bcc	0.4203781
232	0x3eff2192	0.498303
233	0x3ef50d64	0.4786178
234	0x3df15b53	0.11784997
235	0x3e4243c6	0.18971166
236	0x3e2a353f	0.16621874
237	0x3e3757e7	0.17904626
238	0x3e775041	0.24151708
239	0x3e68aa75	0.22721274
240	0x3e3d3bc2	0.18479827
241	0x3e823cb7	0.25436947
242	0x3e74eb3b	0.23917858
243	0x3e90fec1	0.28319362
244	0x3ea83cb4	0.32858813
245	0x3ea082c5	0.3134977
246	0x3e98e0ae	0.29858917
247	0x3eb791ed	0.3585352
248	0x3ea1fe9f	0.31639573
249	0x3e8e4585	0.27787414
250	0x3eb3361a	0.35002214
251	0x3ea8baba	0.3295496
252	0xbe2c96c9	-0.16854395
253	0xbe05c61e	-0.13063857
254	0xbe0bdbf4	-0.13658124
255	0xbe1eef63	-0.15521006

encoder.0.bias f4 [16]
0	0x00055f10	4.9328e-40
1	0xbdf10c76	-0.11769955
2	0x00055c26	4.92234e-40
3	0x3da2e9d4	0.079547554
4	0x3f1f46f2	0.6221763
5	0xbefb300f	-0.49060103
6	0x00055915	4.91134e-40
7	0xbd8fa877	-0.07014554
8	0xbdc945dd	-0.098277785
9	0x3e1d7011	0.15374781
10	0x3f26ab79	0.65105397
11	0xbd8bc62b	-0.06824907
12	0xbab1edf4	-0.0013574944
13	0x3f14dc9c	0.58149123
14	0x3f271e8d	0.6528099
15	0x3e858160	0.26075268

encoder.2.weight f4 [32, 16, 3, 3]
0	0x00055a44	4.91559e-40
1	0x8006b4d8	-6.15887e-40
2	0x00056def	4.98614e-40
3	0x8005cccc	-5.32645e-40
4	0x80057dc2	-5.04291e-40
5	0x00059456	5.1239e-40
6	0x000563d5	4.9499e-40
7	0x8005641d	-4.95091e-40
8	0x8005705e	-4.99487e-40
9	0x0006180e	5.59642e-40
10	0x000581fb	5.05806e-40
11	0x000592f3	5.11893e-40
12	0x00055bab	4.92062e-40
13	0x00057150	4.99826e-40
14	0x0005815a	5.0558e-40
15	0x00059287	5.11742e-40
16	0x00057a33	5.03014e-40
17	0x00056b07	4.97572e-40
18	0x00067db3	5.96105e-40
19	0x80064560	-5.759e-40
20	0x80069600	-6.04823e-40
21	0x000668fd	5.88676e-40
22	0x8005eeff	-5.44913e-40
23	0x800573f2	-5.00771e-40
24	0x8005da9e	-5.37603e-40
25	0x8006c04f	-6.2e-40
26	0x0006a1c0	6.09038e-40
27	0x80055777	-4.90554e-40
28	0x8005646a	-4.95199e-40
29	0x00064b52	5.78033e-40
30	0x00056763	4.96266e-40
31	0x00056a77	4.9737e-40
32	0x00056832	4.96556e-40
33	0x00056c08	4.97932e-40
34	0x00056a32	4.97273e-40
35	0x00056147	4.94074e-40
36	0x800591e6	-5.11516e-40
37	0x800565b4	-4.95662e-40
38	0x8005850f	-5.0691e-40
39	0x00057e11	5.04402e-40
40	0x0005b073	5.22476e-40
41	0x00056a7d	4.97378e-40
42	0x0005aae2	5.20479e-40
43	0x00056e63	4.98777e-40
44	0x8005b57b	-5.2428e-40
45	0x8005ad76	-5.21404e-40
46	0x0005bd13	5.27005e-40
47	0x0005b312	5.23416e-40
48	0x80060f75	-5.56558e-40
49	0x00060d97	5.55888e-40
50	0x00059e99	5.16072e-40
51	0x0006cc18	6.24228e-40
52	0x0005b273	5.23193e-40
53	0x0005ed17	5.44229e-40
54	0x0006924c	6.03494e-40
55	0x00066759	5.88087e-40
56	0x00064d1e	5.78677e-40
57	0x000678de	5.94372e-40
58	0x80063002	-5.68235e-40
59	0x0005d52e	5.35652e-40
60	0x0006b360	6.1536e-40
61	0x800629ab	-5.6596e-40
62	0x80064616	-5.76155e-40
63	0x80055f2a	-4.93316e-40
64	0x8005694e	-4.96954e-40
65	0x8005619c	-4.94193e-40
66	0x800562d4	-4.9463e-40
67	0x80056df9	-4.98628e-40
68	0x00064be3	5.78236e-40
69	0x0005675a	4.96253e-40
70	0x0005582e	4.9081e-40
71	0x00055ee8	4.93223e-40
72	0x00056382	4.94874e-40
73	0x00055e41	4.9299e-40
74	0x000564d6	4.9535e-40
75	0x00055c00	4.92181e-40
76	0x000557c9	4.90669e-40
77	0x000561b5	4.94228e-40
78	0x000563ae	4.94936e-40
79	0x00055dd9	4.92844e-40
80	0x00056151	4.94088e-40
81	0x80055dd7	-4.92841e-40
82	0x80056074	-4.93778e-40
83	0x80057541	-5.0124e-40
84	0x800574a7	-5.01024e-40
85	0x80056d32	-4.9835e-40
86	0x80057a0d	-5.02961e-40
87	0x800562b8	-4.94591e-40
88	0x80056c70	-4.98078e-40
89	0x800560aa	-4.93854e-40
90	0x000579e4	5.02904e-40
91	0x00056d08	4.9829e-40
92	0x00056ac1	4.97474e-40
93	0x00057e40	5.04467e-40
94	0x8005cba2	-5.32227e-40
95	0x8006d0ab	-6.25869e-40
96	0x800563b5	-4.94946e-40
97	0x80055fc6	-4.93535e-40
98	0x8005746f	-5.00946e-40
99	0x00056038	4.93694e-40
100	0x00055b7c	4.91996e-40
101	0x0005600a	4.9363e-40
102	0x8006678a	-5.88156e-40
103	0x8005b782	-5.25008e-40
104	0x80056562	-4.95547e-40
105	0x80055b86	-4.9201e-40
106	0x8005619a	-4.9419e-40
107	0x80055abc	-4.91727e-40
108	0x8005dec9	-5.39098e-40
109	0x80062d8f	-5.67356e-40
110	0x80061516	-5.58577e-40
111	0x80062be2	-5.66755e-40
112	0x800699e0	-6.06213e-40
113	0x800695a5	-6.04695e-40
114	0x0005acd0	5.21171e-40
115	0x8005c9f9	-5.31632e-40
116	0x8006210c	-5.62868e-40
117	0x80059829	-5.13762e-40
118	0x00061099	5.56967e-40
119	0x0005910e	5.11213e-40
120	0x00057278	5.00241e-40
121	0x00056fe5	4.99318e-40
122	0x00056208	4.94344e-40
123	0x00058514	5.06917e-40
124	0x00055c99	4.92395e-40
125	0x000581ac	5.05695e-40
126	0x8005b4f9	-5.24098e-40
127	0x800641b3	-5.74581e-40
128	0x8005fe07	-5.50305e-40
129	0x80056b40	-4.97652e-40
130	0x80057a1f	-5.02986e-40
131	0x8006dc4a	-6.30038e-40
132	0x8005c718	-5.30599e-40
133	0x80055e05	-4.92905e-40
134	0x8005ae7d	-5.21772e-40
135	0x0005fefa	5.50646e-40
136	0x000696aa	6.05061e-40
137	0x8006776f	-5.93858e-40
138	0x00056f85	4.99183e-40
139	0x80068756	-5.99562e-40
140	0x00068986	6.00347e-40
141	0x00058ca1	5.09626e-40
142	0x8006690d	-5.88698e-40
143	0x00063a76	5.71985e-40
144	0x0005d421	5.35275e-40
145	0x0005e2fc	5.40604e-40
146	0x00056037	4.93693e-40
147	0x0005c10d	5.28431e-40
148	0x000604c0	5.52717e-40
149	0x000597d2	5.1364e-40
150	0x8006cccd	-6.24482e-40
151	0x80061eb6	-5.6203e-40
152	0x0005b89a	5.254e-40
153	0x3b81c742	0.003960521
154	0x3b5cfda3	0.0033720515
155	0x3b941d4b	0.0045200936
156	0x3b8fa568	0.0043837316
157	0x3b883c72	0.0041575963
158	0x3bad442d	0.005287668
159	0x3b683ddb	0.003543726
160	0x3b73d4e3	0.0037205748
161	0x3badb319	0.005300891
162	0x8006253d	-5.64372e-40
163	0x8005c1b8	-5.2867e-40
164	0x0005fd42	5.50029e-40
165	0x00064cdb	5.78584e-40
166	0x8005fc91	-5.49781e-40
167	0x80067851	-5.94174e-40
168	0x0005f394	5.46557e-40
169	0x0006db89	6.29767e-40
170	0x0005fc6d	5.49731e-40
171	0x3bf29dd0	0.0074040666
172	0x3bd12b40	0.0063833296
173	0x3bdf7640	0.0068195164
174	0x3bee9c8c	0.0072818454
175	0x3bd3a397	0.0064587104
176	0x3bdebd74	0.006797487
177	0x3bcf3a61	0.006324098
178	0x3bbbd233	0.005731845
179	0x3bd1de7e	0.006404697
180	0x3c25bc91	0.0101157585
181	0x3c26de5e	0.010184852
182	0x3c1ef11d	0.009701041
183	0x3c249063	0.01004419
184	0x3c251ee5	0.010078167
185	0x3c1d4d64	0.009600971
186	0x3c22078c	0.009889495
187	0x3c2159ce	0.009848071
188	0x3c192097	0.009346149
189	0x3b925de5	0.0044667595
190	0x3b93a4ac	0.0045057144
191	0x3bae8436	0.0053258194
192	0x3ba89874	0.005145127
193	0x3baca368	0.005268503
194	0x3bc55509	0.0060221
195	0x3b965d4f	0.00458876
196	0x3b9d9b19	0.004809749
197	0x3bbaa0a2	0.0056954185
198	0x000567cc	4.96413e-40
199	0x0005659d	4.9563e-40
200	0x80055809	-4.90759e-40
201	0x00056173	4.94136e-40
202	0x00056ada	4.97509e-40
203	0x80055824	-4.90796e-40
204	0x00058014	5.05123e-40
205	0x0005737f	5.0061e-40
206	0x80055a53	-4.9158e-40
207	0x3bc82e42	0.00610903
208	0x3bb0d788	0.005396787
209	0x3bcee6f0	0.006314151
210	0x3bd4153a	0.006472257
211	0x3bc86cea	0.006116499
212	0x3be5e699	0.007016015
213	0x3bb3892d	0.005478999
214	0x3bb3b238	0.005483892
215	0x3be05ac5	0.006846758
216	0x3be53ebe	0.006996005
217	0x3bc6edd5	0.0060708323
218	0x3bddc047	0.006767306
219	0x3beb289b	0.0071764714
220	0x3bd76f45	0.0065745437
221	0x3becb21a	0.00722338
222	0x3bc79337	0.0060905474
223	0x3bbe5fa9	0.0058097434
224	0x3be26d17	0.006909977
225	0x3bc720dc	0.006076915
226	0x3bae3a11	0.0053169806
227	0x3bc1027b	0.0058901883
228	0x3bc5fd41	0.006042153
229	0x3bb2dd59	0.0054585156
230	0x3bc37f9c	0.00596614
231	0x3bb23f5f	0.0054396833
232	0x3ba5b0e4	0.0050564874
233	0x3bbf1c09	0.0058321995
234	0x3bfdd3f0	0.007746212
235	0x3c01b2cf	0.007916166
236	0x3c084cad	0.008319062
237	0x3c056135	0.008140852
238	0x3c0ab7ea	0.0084667
239	0x3c128261	0.008942218
240	0x3c06303b	0.00819021
241	0x3c0d1cb2	0.0086127985
242	0x3c166bc8	0.0091809705
243	0x3bd66bae	0.006543598
244	0x3bc11a33	0.005893016
245	0x3bddae0d	0.0067651332
246	0x3be45d1e	0.0069691082
247	0x3bdb7edd	0.006698473
248	0x3bf85ffd	0.007579802
249	0x3bc23a51	0.005927362
250	0x3bc4ec6a	0.006009628
251	0x3bf1fa5d	0.007384582
252	0xb2076f1e	-7.883299e-09
253	0xb2040419	-7.684343e-09
254	0xb2012385	-7.5168645e-09
255	0xb20f1edf	-8.330715e-09

encoder.2.bias f4 [32]
0	0x800558a5	-4.90977e-40
1	0x3c27259e	0.01020184
2	0x3e7e532d	0.24836417
3	0x3c704828	0.014665641
4	0x3c8cf4d9	0.017206596
5	0xbc568a29	-0.013094463
6	0x00055973	4.91266e-40
7	0x3d5dc01a	0.05413828
8	0x3e7f2b9b	0.24918978
9	0x3e85bfe5	0.26122966
10	0x3e19843a	0.14991847
11	0xbc148e64	-0.009067152
12	0x00056289	4.94525e-40
13	0x80055f19	-4.93292e-40
14	0x00055f58	4.9338e-40
15	0xbdf4bdca	-0.11950262
16	0x3e5cc2a5	0.21558626
17	0x00056101	4.93976e-40
18	0x3cab881a	0.020938922
19	0x3d1dc316	0.038516127
20	0x3e4ec3c5	0.20191868
21	0x3a9ea01b	0.0012102159
22	0xbc6d0a75	-0.014467825
23	0x0005641d	4.95091e-40
24	0x3d2b16f1	0.041769926
25	0x00055eac	4.9314e-40
26	0x80055fd1	-4.9355e-40
27	0xbc93ef3d	-0.018058414
28	0xbcae904f	-0.021309046
29	0xbc7f6f9a	-0.015590573
30	0xbc2aebed	-0.010432226
31	0xbc440c48	-0.011965819

encoder.4.weight f4 [64, 32, 3, 3]
0	0x0005b8b5	5.25438e-40
1	0x0004ccad	4.40766e-40
2	0x80032c1c	-2.9133e-40
3	0x00061462	5.58325e-40
4	0x000428d2	3.81986e-40
5	0x00049e49	4.24124e-40
6	0x00038b17	3.25403e-40
7	0x8005e020	-5.39578e-40
8	0x0004d2b1	4.42924e-40
9	0x3a4b8790	0.0007764036
10	0x3b226983	0.0024782128
11	0x3b076e9e	0.0020665298
12	0x3a2bc7a2	0.000655288
13	0x3b303d64	0.002689206
14	0x3b9356c6	0.004496428
15	0xbb0edf53	-0.0021800592
16	0xba6ec8de	-0.0009108911
17	0x3b47d76e	0.0030493396
18	0x3d119981	0.035546783
19	0x3d7bc43a	0.061466433
20	0x3d9ca5bf	0.07648801
21	0x3d3f1e96	0.04666003
22	0x3d94a30a	0.0725766
23	0x3dad58b6	0.08464186
24	0x3d4916b8	0.049093932
25	0x3d945861	0.072434194
26	0x3dac30e3	0.08407762
27	0xbb6a35e8	-0.0035737697
28	0x3c3bf027	0.011470831
29	0xbc6a4f0d	-0.014301074
30	0xbc98e7fb	-0.018665304
31	0x3c3e37e2	0.011610003
32	0xbc2c23f0	-0.010506615
33	0xbc9ae079	-0.018905865
34	0x3c755f5f	0.0149763515
35	0x3bdcde5b	0.006740374
36	0x3a81aa1d	0.0009892617
37	0x3b7ae8ac	0.0038285656
38	0x3b7535a3	0.0037416003
39	0xba341ad9	-0.00068704557
40	0x3a83c15c	0.0010052132
41	0x3c3092c8	0.010777183
42	0xbb9d84e3	-0.004807101
43	0xbbe8eab5	-0.0071080574
44	0x3c0383fe	0.008027075
45	0xbcc1b2ad	-0.02364477
46	0xbca01fdc	-0.019546442
47	0xbc8da95e	-0.017292675
48	0xbd48adcc	-0.04899387
49	0xbd3b7f3e	-0.045775644
50	0xbc5eec8c	-0.013606202
51	0xbd97c08c	-0.07409772
52	0xbda3da3b	-0.080006085
53	0xbcecb17a	-0.028893221
54	0x00063469	5.69814e-40
55	0x0004b271	4.31355e-40
56	0x80028495	-2.31232e-40
57	0x0005070c	4.61705e-40
58	0x0004f014	4.53466e-40
59	0x0004d55b	4.4388e-40
60	0x8005b9b3	-5.25794e-40
61	0x0006c27f	6.20785e-40
62	0x0004df49	4.47442e-40
63	0xbb951d26	-0.004550594
64	0x3bb9b2a4	0.0056670476
65	0x3bede61c	0.007260097
66	0xbb8545d5	-0.0040671625
67	0x3bcbf947	0.0062247845
68	0x3c888303	0.016664034
69	0xbbb0c8ea	-0.0053950446
70	0x3ace4dcf	0.0015739742
71	0x3c9acc5f	0.01889628
72	0xba8a4650	-0.0010549519
73	0x3cbebe0b	0.023283979
74	0x3d12f3ce	0.03587704
75	0x3bee303d	0.007268934
76	0x3d080266	0.033205412
77	0x3d1fcc17	0.039012995
78	0x3c3f60a1	0.011680753
79	0x3d22355d	0.039601672
80	0x3d2e7082	0.042587765
81	0x39e502a7	0.0004368026
82	0x3cc160f4	0.023605801
83	0x3d251871	0.040306512
84	0x3c196828	0.009363212
85	0x3d040e37	0.03224012
86	0x3d2a099b	0.041513067
87	0x3c7e8ff5	0.015537252
88	0x3d25a56f	0.040440973
89	0x3d376347	0.044772413
90	0xba82038f	-0.0009919273
91	0x3c5df0ed	0.013546211
92	0x3c96b584	0.0183971
93	0x3be21a6c	0.0069001224
94	0x3ccecd2a	0.025244314
95	0x3cc5ee8c	0.0241616
96	0x3bee71e2	0.0072767595
97	0x3ccb6698	0.024829194
98	0x3cd1585b	0.025554826
99	0x3b3423b9	0.0027487113
100	0x3c2bf781	0.010496021
101	0xba94a831	-0.0011341629
102	0xbc919c10	-0.017774612
103	0xbbcd8c68	-0.0062728412
104	0x3a8c89e5	0.0010722248
105	0xbc9ee1be	-0.019394752
106	0xbc0f71ee	-0.00875519
107	0x3be76458	0.0070615225
108	0x0005d256	5.34632e-40
109	0x0006c577	6.2185e-40
110	0x000484b0	4.14941e-40
111	0x0005e7aa	5.42283e-40
112	0x0005d419	5.35264e-40
113	0x0004f3cd	4.54801e-40
114	0x00068e6e	6.02107e-40
115	0x00066844	5.88416e-40
116	0x0005330b	4.77488e-40
117	0x0005d364	5.3501e-40
118	0x8005700f	-4.99377e-40
119	0x00059a93	5.14628e-40
120	0x0005b4b1	5.23997e-40
121	0x0005bbf6	5.26605e-40
122	0x8005b47b	-5.23922e-40
123	0x00059019	5.1087e-40
124	0x00068463	5.98504e-40
125	0x8005b985	-5.2573e-40
126	0x0005f5ec	5.47398e-40
127	0x00063b6b	5.72328e-40
128	0x8006840c	-5.98382e-40
129	0x80069c49	-6.07078e-40
130	0x80058239	-5.05893e-40
131	0x000637f8	5.71091e-40
132	0x80067db9	-5.96114e-40
133	0x00055d4c	4.92646e-40
134	0x8005f4a9	-5.46945e-40
135	0xbba2f3c7	-0.004972908
136	0xbbb32ae1	-0.005467758
137	0xbc60bbdb	-0.013716663
138	0xbb2d6bc1	-0.0026461931
139	0x39c125ba	0.00036839937
140	0xbae7d2b4	-0.0017686696
141	0xb86c1d60	-5.6294142e-05
142	0xb9f6997d	-0.00047035134
143	0x3b64a7f8	0.0034890156
144	0x3b8d65eb	0.004315128
145	0x3cd053e7	0.025430633
146	0x3d0752d3	0.03303797
147	0x3c67f9d6	0.014158687
148	0x3d1c2b13	0.038127016
149	0x3d25562d	0.040365387
150	0x3c80e810	0.015735656
151	0x3d1dbe5f	0.03851163
152	0x3d26256b	0.04056303
153	0x80058e08	-5.10129e-40
154	0x00029c75	2.39797e-40
155	0x00066b4b	5.89502e-40
156	0x8005b962	-5.2568e-40
157	0x0005cfa5	5.33666e-40
158	0x800604bc	-5.52711e-40
159	0x00059009	5.10848e-40
160	0x0003320e	2.93463e-40
161	0x00060cd4	5.55615e-40
162	0x3c378c1b	0.011202837
163	0x3d2bb74a	0.041922845
164	0x3c2f5d7c	0.010703441
165	0xbc03002e	-0.007995648
166	0x3d3e0984	0.046395794
167	0x3cd9c26f	0.026581971
168	0xbcbc7cff	-0.023008822
169	0x3d09f89c	0.033684358
170	0x3d1e750b	0.03868584
171	0x3b1cce63	0.0023926727
172	0xbbf7107a	-0.007539806
173	0x3cc5b407	0.024133695
174	0x3c4a76f1	0.012357459
175	0xbcaf3a83	-0.021390205
176	0x3cddcead	0.02707609
177	0x3c7fe519	0.015618586
178	0xbcdd4a11	-0.027012857
179	0x3c3a3b52	0.011366682
180	0x3b946b63	0.004529403
181	0x3ccbe689	0.024890201
182	0x3d0e689f	0.034767743
183	0x3c56b487	0.0131045645
184	0x3d087abf	0.033320185
185	0x3d2223d3	0.039584946
186	0x3c9333e6	0.017969083
187	0x3d19ea43	0.037576925
188	0x3d20491d	0.039132226
189	0x3c828c25	0.015935967
190	0x3caf3a54	0.021390118
191	0x3ca9250e	0.020647552
192	0x3c18c4c5	0.009324257
193	0x3c95f3e9	0.018304782
194	0x3cb4e2f4	0.022080876
195	0x36ea3b04	6.9806138e-06
196	0x3c040451	0.00805767
197	0x3c8ad855	0.016948858
198	0x3c5bf7f7	0.013425819
199	0x3bc091cd	0.005876756
200	0x3d017c84	0.031612888
201	0xbc4b0e9b	-0.012393619
202	0xbd2cbc84	-0.04217197
203	0x3cc65517	0.024210496
204	0xbd131e93	-0.03591783
205	0xbdac8e86	-0.08425622
206	0xbc00cc16	-0.007861158
207	0x80032ec3	-2.92281e-40
208	0x80034438	-2.99979e-40
209	0x00017cb9	1.36578e-40
210	0x8000f3c0	-8.7441e-41
211	0x00037752	3.1831e-40
212	0x80038f6f	-3.26961e-40
213	0x0005e665	5.41827e-40
214	0x00048b2e	4.1727e-40
215	0x80010f00	-9.7216e-41
216	0xbbdc0233	-0.0067141294
217	0x3c3d24de	0.011544434
218	0xbc83e894	-0.016102113
219	0xbc6868f9	-0.014185184
220	0x3caa9db8	0.02082716
221	0xbc248737	-0.010042003
222	0xbc95a754	-0.018268265
223	0x3ca65125	0.020302365
224	0x3b56bca8	0.0032766256
225	0x8005b378	-5.23559e-40
226	0x80058fe8	-5.10801e-40
227	0x00060290	5.51932e-40
228	0x800698c2	-6.05812e-40
229	0x8005a1c0	-5.17202e-40
230	0x00059d66	5.15641e-40
231	0x80068fac	-6.02553e-40
232	0x0005c75a	5.30691e-40
233	0x8005978d	-5.13544e-40
234	0x80065dfc	-5.84728e-40
235	0x800601d0	-5.51663e-40
236	0x8005bf4a	-5.27799e-40
237	0x00064a80	5.77739e-40
238	0x000602cb	5.52015e-40
239	0x8005b490	-5.23951e-40
240	0x00059179	5.11363e-40
241	0x00058d40	5.09848e-40
242	0x00063c9d	5.72757e-40
243	0x3c12a289	0.008949884
244	0x3c7edbe7	0.0155553585
245	0x3cdce8b9	0.02696644
246	0xbd015347	-0.03157356
247	0xbcf62e0b	-0.030051252
248	0x3cbe00d6	0.023193758
249	0xbd9aaa7f	-0.07552051
250	0xbdb854cd	-0.090005495
251	0xbbffd9ed	-0.007807961
252	0x3b09e249	0.0021039417
253	0x3bc69290	0.006059952
254	0x3bf44d56	0.007455508
255	0xbca2d9b5	-0.019879201

encoder.4.bias f4 [64]
0	0x3c945cb5	0.018110612
1	0x3be07998	0.0068504326
2	0x3be79a0f	0.0070679258
3	0xb9524457	-0.00020052619
4	0x8005675e	-4.96259e-40
5	0x3beecc83	0.0072875633
6	0x3c2e5a80	0.010641694
7	0x3c76e7c6	0.0150699075
8	0x3b9853b5	0.0046486505
9	0xbda0ee25	-0.078579225
10	0x3c1a5a7b	0.009420986
11	0x3c1d8421	0.0096140215
12	0x3bc4dab2	0.006007516
13	0xba9b973c	-0.0011870633
14	0xba24dbf6	-0.000628888
15	0x3aa2b0f2	0.0012412353
16	0x37ce02b5	2.4558374e-05
17	0x3bf79fd9	0.007556897
18	0x2e149a46	3.3788326e-11
19	0x3b21a966	0.002466762
20	0xb8855e94	-6.359551e-05
21	0x3bbadf97	0.0057029235
22	0xbd2f7810	-0.04283911
23	0x3b8e3d1e	0.004340782
24	0x3bbabd13	0.005698809
25	0x3b900dd2	0.0043961788
26	0x3c644476	0.013932338
27	0x3c90e981	0.017689468
28	0xbad2fbc5	-0.0016096762
29	0x3b903d79	0.0044018594
30	0x3b9028d5	0.004399399
31	0x3c051105	0.008121734
32	0x3b8fb321	0.0043853675
33	0x3c92e36d	0.01793071
34	0x3c5ac3a7	0.013352311
35	0xb9c5bd8e	-0.00037715997
36	0x3d53ea26	0.051736973
37	0x3b92c004	0.0044784565
38	0x3c008572	0.007844316
39	0xbd1169b5	-0.0355012
40	0xb4754f11	-2.2846167e-07
41	0x3ae37001	0.0017352105
42	0x3d187449	0.037220273
43	0x3ae7d96c	0.0017688698
44	0x3c9c9f74	0.019119002
45	0x3b806e44	0.0039193947
46	0x3c15aadb	0.009134973
47	0x3c28c961	0.010301919
48	0x3c44654c	0.011987042
49	0x3c37c1dd	0.011215654
50	0x3c1c1c7e	0.009528277
51	0x3b120686	0.002228172
52	0x3c34c995	0.011034389
53	0x3c09d38f	0.008412256
54	0x3c3d20d2	0.0115434695
55	0x3c1e1817	0.009649298
56	0x3b5aed4e	0.0033405605
57	0x3bacc5c5	0.0052725994
58	0xba035277	-0.00050095416
59	0x3c534e4d	0.012897086
60	0x3aee6cb8	0.001819036
61	0xb5681de4	-8.647023e-07
62	0x3b9f1d8b	0.0048558167
63	0x3c256968	0.010095932

encoder.6.weight f4 [128, 64, 3, 3]
0	0x3b9ab9d9	0.004721862
1	0xbca1c84a	-0.019748826
2	0xbc6c113e	-0.014408408
3	0x3c96b459	0.018396543
4	0xbc19c1a4	-0.009384546
5	0xbbba0a83	-0.0056775226
6	0x3cd956b1	0.026530595
7	0x3bb0bae2	0.005393372
8	0x3c775778	0.015096538
9	0xbb976879	-0.0046206084
10	0xbb83ff06	-0.004028204
11	0x3abf2f2f	0.0014586205
12	0xbba3948e	-0.0049920743
13	0xbba05e26	-0.004894036
14	0x392c25de	0.00016417305
15	0xbb7e4831	-0.0038800354
16	0xbbc1d061	-0.0059147333
17	0xbb4a1b0d	-0.0030838877
18	0x3c634ef7	0.013873807
19	0x3b09ba89	0.0021015725
20	0xbc8f749f	-0.017511664
21	0x3b8c0539	0.0042730835
22	0x3b7b92f0	0.0038387142
23	0xbc8fe596	-0.01756553
24	0xbc299236	-0.010349801
25	0x3c1c2a40	0.009531558
26	0x3b56bb8c	0.0032765595
27	0xbae80892	-0.001770275
28	0xbaed98a8	-0.001812716
29	0xbaf54355	-0.0018712083
30	0xbaf3f285	-0.0018611705
31	0xbaf9b3aa	-0.0019050736
32	0xbb01187f	-0.0019698439
33	0xbb00134e	-0.0019542756
34	0xbb03bea2	-0.002010264
35	0xbb08164e	-0.0020765248
36	0x80056eed	-4.9897e-40
37	0x80056199	-4.94189e-40
38	0x80055d60	-4.92674e-40
39	0x80055d64	-4.9268e-40
40	0x800579c4	-5.02859e-40
41	0x80055c78	-4.92349e-40
42	0x8005750f	-5.0117e-40
43	0x80055ce6	-4.92503e-40
44	0x80057757	-5.01989e-40
45	0xbac04586	-0.0014669157
46	0xbbfd5994	-0.007731626
47	0xbb5170a4	-0.0031958008
48	0xbb887522	-0.004164354
49	0xbc747d5a	-0.014922464
50	0xbbafdf47	-0.005367193
51	0xbbec451c	-0.007210387
52	0xbbb99a92	-0.005664178
53	0xbb8f7f38	-0.0043791793
54	0x3c9fac9d	0.019491488
55	0x3cc705a2	0.024294678
56	0x3cd3870c	0.025821231
57	0x3cacd5b4	0.021097995
58	0x3ccb5631	0.024821373
59	0x3cd150cf	0.025551228
60	0x3cb5cf19	0.022193478
61	0x3cbde0bf	0.023178456
62	0x3cba119e	0.022713479
63	0xbb939853	-0.0045042424
64	0xbbf1c488	-0.0073781647
65	0x3bfe047d	0.007752
66	0xbbe1b767	-0.0068883183
67	0xbba3ce54	-0.0049989615
68	0x3bf5fde1	0.0075070714
69	0x3c459e47	0.012061662
70	0x3bd7bde7	0.0065839174
71	0x3cd7b576	0.026331645
72	0x3a4c08f2	0.00077833154
73	0xb975695d	-0.00023404272
74	0xb958f093	-0.00020688986
75	0x3a2874b7	0.0006426083
76	0x3a30a255	0.00067380565
77	0x3a266244	0.000634704
78	0x3aa969e6	0.0012925237
79	0x3a316ac1	0.0006767922
80	0x39f6c6df	0.00047068947
81	0xbc4927ec	-0.0122775845
82	0xbcb3bf07	-0.021941675
83	0xbc4fd13b	-0.012684162
84	0xbb94481d	-0.004525198
85	0xbc521e96	-0.012824675
86	0xbc2e71c1	-0.010647238
87	0x3c8112e5	0.01575608
88	0xbc38da20	-0.011282474
89	0x3c3896fc	0.011266466
90	0x3b916d5b	0.004438085
91	0x3b7b1b3e	0.0038315798
92	0x3be556d1	0.0069988747
93	0x3a0787f4	0.00051701
94	0xbbba0680	-0.0056770444
95	0x3b02c05b	0.0019951079
96	0x3ae7205d	0.0017633546
97	0xb94ae20c	-0.0001934843
98	0xbb064ebb	-0.0020493704
99	0x3c309caf	0.010779544
100	0x3c76fda4	0.015075121
101	0x39671a7e	0.00022039746
102	0x3c0019e5	0.007818674
103	0x3c70e68a	0.014703402
104	0xbaaf049b	-0.0013352813
105	0x3ace2ab1	0.0015729276
106	0x3c5d1964	0.013494823
107	0xbc5e1e54	-0.0135570355
108	0x3cf70ede	0.030158456
109	0x3d055148	0.03254822
110	0x3d0b0e00	0.0339489
111	0x3cd3def2	0.025863145
112	0x3cf98423	0.030458516
113	0x3d033ac1	0.032038454
114	0x3cc2f703	0.023799425
115	0x3ce49359	0.027902292
116	0x3ceddc8b	0.029035827
117	0x3c5cb193	0.013470071
118	0x3be7514a	0.007059251
119	0x3cb186f6	0.0216708
120	0x3c3fe09d	0.011711267
121	0x3c11a790	0.008890048
122	0x3cb496bd	0.022044534
123	0x3c30c48a	0.010789046
124	0x3c284376	0.01026999
125	0x3cba08bf	0.022709249
126	0xbb1dea2c	-0.0024095876
127	0xbb20e8cc	-0.002455282
128	0xbb262d4d	-0.0025356591
129	0xbb25f881	-0.0025325122
130	0xbb294b29	-0.0025832152
131	0xbb2f68dd	-0.0026765384
132	0xbb2e35ef	-0.002658244
133	0xbb339656	-0.002740284
134	0xbb3a3b91	-0.0028416852
135	0xbb926c05	-0.0044684433
136	0x3cb46487	0.022020591
137	0x3cf9317f	0.03041911
138	0x3beffde3	0.007323967
139	0xbb2f1a3d	-0.002671852
140	0xb9d4f586	-0.0004061872
141	0xbca1b039	-0.01973735
142	0x3c4c3c2d	0.012465519
143	0xbbcf106e	-0.0063190972
144	0x3cb20257	0.021729631
145	0x3cb4c5c2	0.022066955
146	0x3ccc6ee8	0.024955228
147	0x3c975c6a	0.018476684
148	0x3ca0b7ab	0.01961883
149	0x3cbf7e8a	0.023375768
150	0x3c8a6a4b	0.016896388
151	0x3c9d4aaa	0.019200642
152	0x3cc2fc80	0.023802042
153	0x3c9d44a2	0.019197766
154	0xbc136ea2	-0.008998545
155	0xbc1170ce	-0.008876992
156	0x3cb37212	0.021904979
157	0xbbf31a8d	-0.0074189366
158	0xbc400a6f	-0.011721238
159	0x3c8757f9	0.01652144
160	0x3c28f2e3	0.010311815
161	0x3c167b86	0.009184724
162	0x2da89689	1.916624e-11
163	0x2e5245ca	4.7810457e-11
164	0x2ead7330	7.8875906e-11
165	0xae0671e8	-3.056924e-11
166	0x2c13c0bc	2.0996946e-12
167	0x2ea17460	7.342105e-11
168	0xae26b229	-3.7902268e-11
169	0x2eb69126	8.302185e-11
170	0xadd2259a	-2.3890934e-11
171	0xba10cf2f	-0.0005524037
172	0xbb266d3e	-0.0025394703
173	0xbaee2eec	-0.0018171943
174	0xbb23d212	-0.0024997038
175	0xbbc291c9	-0.005937789
176	0xbb5eac19	-0.003397709
177	0xbb560f28	-0.0032662842
178	0xbb882123	-0.004154341
179	0xbb1359f6	-0.002248404
180	0xbabf708c	-0.0014605685
181	0xbac71452	-0.0015188551
182	0xbad06fe5	-0.0015902488
183	0xbac95ec0	-0.0015363321
184	0xbacf1268	-0.0015798332
185	0xbad8af0e	-0.0016531663
186	0xbad1f508	-0.001601846
187	0xbad7bbce	-0.0016459168
188	0xbae0b42b	-0.0017143538
189	0x3b3bbbcd	0.0028645874
190	0x3b56d537	0.0032780895
191	0xbc7f8198	-0.015594862
192	0x3bfe4db6	0.0077607287
193	0x3bd5abd2	0.0065207267
194	0xbc237e48	-0.009978838
195	0xbc7cb10a	-0.015423069
196	0xb9b57d8a	-0.00034616544
197	0x3a1d5605	0.00060018926
198	0x3c29a0c2	0.010353269
199	0xbc25fcdf	-0.01013109
200	0x3c104ee1	0.008807869
201	0x3b504b69	0.003178323
202	0xbc439db5	-0.011939456
203	0x3c9273a1	0.017877402
204	0x3cbc7198	0.023003384
205	0xbb09c70d	-0.0021023185
206	0x3d0e30d8	0.03471455
207	0xbb979005	-0.0046253228
208	0xbb8e782f	-0.004347823
209	0x3a601c89	0.0008549174
210	0xbb9af9e4	-0.0047294963
211	0xbba7c44c	-0.005119836
212	0xb94b4671	-0.0001938583
213	0xbb4b38bd	-0.003100916
214	0xbbcbbaa1	-0.0062173163
215	0xbb866b3b	-0.0041021383
216	0xbc0817ca	-0.008306453
217	0xbc42e0aa	-0.011894384
218	0xbc4d58b5	-0.012533356
219	0xbc8c609b	-0.017135909
220	0xbc9fda01	-0.019513132
221	0x3c459968	0.012060501
222	0x3b896dc1	0.004193992
223	0xbae6eec3	-0.0017618764
224	0x3c10249a	0.008797789
225	0x398f3306	0.000273131
226	0xba2d8f8a	-0.0006620815
227	0xba1d7b64	-0.00060074613
228	0x390cd397	0.00013430264
229	0x39602b41	0.00021378418
230	0x393d8b93	0.0001807644
231	0x3a4e3717	0.00078664854
232	0x3981f2c0	0.0002478566
233	0x37954708	1.779526e-05
234	0x3ccfe188	0.025376096
235	0x3cc52978	0.024067625
236	0x3ccd99dc	0.02509778
237	0x3cc7040a	0.024293918
238	0x3cc53a3f	0.024075625
239	0x3cd23df7	0.025664313
240	0x3ccbacab	0.024862608
241	0x3cbf1bc9	0.023328679
242	0x3cce142b	0.025156101
243	0x3bae1c26	0.005313414
244	0x3ba8213a	0.005130914
245	0x3cf56b51	0.029958399
246	0xbae57279	-0.0017505429
247	0xbc9585c6	-0.018252265
248	0xbbe81c87	-0.007083479
249	0xbc3c8693	-0.011506694
250	0x38f34714	0.00011600382
251	0xbc7d98bf	-0.015478312
252	0x3bc88c13	0.006120214
253	0x3bb6dc0e	0.005580432
254	0xba4e9836	-0.00078809576
255	0x3b8e0121	0.0043336307

encoder.6.bias f4 [128]
0	0xbb5df9e7	-0.0033870877
1	0xbafa66b9	-0.00191041
2	0xbbb102cc	-0.0054019447
3	0xba94f970	-0.0011365842
4	0xbb83b898	-0.004019808
5	0xbbdeba6d	-0.006797126
6	0xbafc7a59	-0.0019262537
7	0x399db173	0.00030077584
8	0xbb56d030	-0.0032777898
9	0x3bb80c5e	0.0056167087
10	0xbc036395	-0.008019348
11	0xbb98f82f	-0.0046682577
12	0x3ad5ae3d	0.0016302537
13	0xba9d5899	-0.0012004554
14	0xbb41eac2	-0.002958939
15	0xbb586309	-0.0033018014
16	0x3bb14d87	0.0054108533
17	0xbc214cc4	-0.0098449625
18	0xbbcc52a1	-0.006235436
19	0x3a2bbb04	0.0006551
20	0xbbf7261a	-0.007542384
21	0x3a57c2f1	0.00082306477
22	0xbc1dde7b	-0.009635563
23	0xbb30ed4d	-0.002699691
24	0xb9a247ac	-0.00030952448
25	0xbb73e7c1	-0.0037216994
26	0xb9d7eadc	-0.0004118298
27	0xbc227e12	-0.009917753
28	0xbd297026	-0.04136672
29	0xbb5fe503	-0.0034163601
30	0xbb822633	-0.003971839
31	0x38e2a722	0.00010807651
32	0xb9079ca5	-0.00012932958
33	0x3b5e7d9d	0.0033949383
34	0xbbe60d9c	-0.0070206653
35	0x3a5e7cdc	0.00084872334
36	0xbb15b62c	-0.0022844179
37	0x3aa9e091	0.0012960603
38	0xbb9bc08a	-0.004753177
39	0x3a871afc	0.0010307725
40	0x3c499c09	0.012305268
41	0xbb4c23bd	-0.0031149231
42	0xba5db01f	-0.0008456725
43	0x3add449e	0.0016881411
44	0xbc73273f	-0.0148409
45	0x3ac819a4	0.001526643
46	0xbb06ef0a	-0.0020589256
47	0xba951679	-0.0011374495
48	0xbb6097e3	-0.003427022
49	0xbb6ef74e	-0.0036463323
50	0x3c23dc38	0.010001235
51	0x3bb489b3	0.005509579
52	0xbb25e246	-0.0025311871
53	0xbbef978c	-0.007311767
54	0xbac2fdfa	-0.0014876716
55	0xbbd0f7f5	-0.006377215
56	0x3b22612a	0.0024777153
57	0xbac4d681	-0.001501754
58	0x3be02f7b	0.0068415976
59	0xbc2ff1eb	-0.01073883
60	0x3b866dcc	0.0041024443
61	0xbbd72e2f	-0.006566785
62	0x3c3dc7d3	0.011583286
63	0xbc2baa8e	-0.010477675
64	0xba825b32	-0.0009945391
65	0x3bb7cff8	0.0056095086
66	0x3b00ac68	0.0019634012
67	0x3c501000	0.012699127
68	0x3b002975	0.001955596
69	0xb9161b56	-0.00014315298
70	0xbab0d77d	-0.0013491955
71	0xbb8448c7	-0.004036996
72	0xbb5d4c23	-0.0033767305
73	0xbbcc53b6	-0.006235565
74	0x3ad043ac	0.0015889308
75	0x3c0b7482	0.008511664
76	0xbb04dac9	-0.0020272008
77	0x3b3ab4f1	0.0028489197
78	0x3c1548e6	0.009111619
79	0x3d2263ca	0.039645948
80	0x3b44eb03	0.0030047304
81	0xbb3071d9	-0.0026923327
82	0x3a2920b3	0.0006451711
83	0x3b15b8cd	0.0022845746
84	0xbbca8ad2	-0.0061810995
85	0x3c06e59a	0.008233452
86	0xbbfb1913	-0.007662901
87	0x3b024db5	0.0019882743
88	0xbb67dea9	-0.0035380519
89	0x3b8ecb77	0.004357751
90	0x3bcc4f52	0.0062350417
91	0xbaed8507	-0.001812131
92	0x3a8fa000	0.0010957718
93	0x3b8ee517	0.0043608057
94	0xbae08ed0	-0.0017132405
95	0xbba6a258	-0.005085271
96	0xbb3d8e7b	-0.0028924036
97	0xbb1c7122	-0.0023871143
98	0x3afe4eb0	0.0019402113
99	0x3b205403	0.0024464137
100	0xbbdbf8fa	-0.00671303
101	0x3b95fd55	0.0045773187
102	0x3c1db1b8	0.009624891
103	0xba9b94c6	-0.00118699
104	0xbb67637a	-0.0035307095
105	0x3a10b9cf	0.00055208517
106	0x3b4b0ef2	0.003098425
107	0x3ba794c8	0.0051141717
108	0x3ab2ecde	0.0013650914
109	0x3b5c488e	0.0033612582
110	0xbb64b1f2	-0.0034896103
111	0xbb480971	-0.0030523206
112	0xbb2611e3	-0.002534025
113	0xbb382df4	-0.0028103562
114	0xbc01bf77	-0.007919184
115	0xbb2ac9c0	-0.0026060194
116	0xbc0a96cc	-0.008458804
117	0xbc4e18b2	-0.01257913
118	0x3ac2965f	0.001484584
119	0xbb5b9d85	-0.0033510637
120	0xbb5fa823	-0.0034127317
121	0xbb87c875	-0.0041437694
122	0xbb33b1d3	-0.0027419224
123	0x3b7bfb2f	0.0038449278
124	0xbbdd9f37	-0.0067633647
125	0xbbbb28a2	-0.005711631
126	0xbb241676	-0.0025037802
127	0x3ad225dc	0.0016033011

decoder.0.weight f4 [128, 64, 3, 3]
0	0xbb759db8	-0.003747804
1	0x000616fd	5.5926e-40
2	0xbb2aa8c7	-0.002604054
3	0x3c673fbf	0.014114319
4	0xba8d0a74	-0.0010760562
5	0x3bd74a61	0.006570146
6	0x3cd11369	0.02552195
7	0x00064fd1	5.79646e-40
8	0x3cf53e19	0.029936837
9	0x3c371270	0.011173829
10	0x3b208460	0.0024492964
11	0x3ca4e172	0.020127032
12	0x3b513fdf	0.003192894
13	0xb95cb6f6	-0.00021048993
14	0xbcd113cb	-0.025522133
15	0x3b53de19	0.0032328425
16	0x3cf2e89b	0.02965193
17	0xbca7aab2	-0.020467136
18	0x3c1143fc	0.008866306
19	0xbb405a10	-0.0029350556
20	0x399e9b05	0.00030251607
21	0xba9d92f7	-0.0012021948
22	0xbcdc6a72	-0.026906226
23	0xbc025dd3	-0.00795694
24	0xbc9aa4a1	-0.01887733
25	0x3c65a671	0.0140167335
26	0xbb429b34	-0.002969456
27	0xbc546942	-0.012964549
28	0x3d045575	0.03230806
29	0xbb4f791a	-0.0031657876
30	0xbcc1e4c2	-0.02366865
31	0x3d88ce13	0.066799305
32	0x3cb974ff	0.022638796
33	0xbc4c39b9	-0.012464934
34	0x3bbf7306	0.0058425693
35	0xbbe9b9ea	-0.0071327584
36	0xb9a1c837	-0.00030857485
37	0x00055eec	4.93229e-40
38	0xba06a409	-0.00051361375
39	0xafc79395	-3.6302752e-10
40	0x2f0ee76f	1.2997046e-10
41	0x393aa9b2	0.00017801559
42	0xba9c8353	-0.0011940993
43	0x00055b4d	4.9193e-40
44	0x3a23e7b0	0.00062524807
45	0x3b8beef4	0.004270429
46	0xbd28c7fa	-0.041206338
47	0xbc1b94c9	-0.009495922
48	0x3b142a62	0.002260827
49	0x3c8148ab	0.015781721
50	0xbca35d1a	-0.019941855
51	0xb963afd0	-0.00021713902
52	0xbbc101af	-0.0058900933
53	0x3c29683d	0.010339794
54	0x3b66acda	0.0035198242
55	0x3bceb323	0.006307976
56	0x3c38d226	0.011280572
57	0xbc4c60f7	-0.01247429
58	0xbc13064e	-0.008973671
59	0x3bdb21b6	0.0066873683
60	0xbc23b3b6	-0.009991577
61	0x3a3d3dfb	0.00072190136
62	0xbc045db4	-0.008078981
63	0xbab9839c	-0.0014153603
64	0xbbb4a8a9	-0.00551327
65	0x38d75fea	0.00010269864
66	0x00056d71	4.98438e-40
67	0xbc153dee	-0.0091090035
68	0x000565ee	4.95743e-40
69	0x3a9f439a	0.0012150884
70	0xbcb7a74e	-0.022418644
71	0xba416ec8	-0.00073788734
72	0x80055e0e	-4.92918e-40
73	0x3a305c01	0.0006727577
74	0x00055b82	4.92004e-40
75	0x3c8245e2	0.015902463
76	0xbc486973	-0.012232172
77	0xbcae2471	-0.021257611
78	0x80055888	-4.90937e-40
79	0x3cdaa744	0.026691087
80	0x80056331	-4.9476e-40
81	0x3bb1f792	0.005431124
82	0x3b24b15a	0.0025130124
83	0x3bfdcdbe	0.0077454736
84	0x3bba4dbe	0.005685537
85	0xbccab2d6	-0.024743479
86	0xbd5f2b5f	-0.05448472
87	0x3b52fd4c	0.0032194434
88	0xbcb80c79	-0.022466885
89	0x3cc80eed	0.02442118
90	0x3a232da2	0.00062247564
91	0x3c4cd2cb	0.012501429
92	0x3cbeb591	0.023279937
93	0xbb218f00	-0.0024651885
94	0x3b8f6bf9	0.004376885
95	0x3c7ed591	0.015553848
96	0xbba3e1ca	-0.0050012814
97	0xbad2f4be	-0.0016094667
98	0x3c8fe783	0.017566448
99	0xb9e8e465	-0.00044420655
100	0x174883f3	6.479003e-25
101	0xba1ea6f4	-0.00060520996
102	0xafb7a728	-3.3406278e-10
103	0x34545603	1.977533e-07
104	0xaff76293	-4.499908e-10
105	0xba08012e	-0.0005188164
106	0x16da464f	3.526417e-25
107	0xba188310	-0.00058178697
108	0xbb9b7a8f	-0.0047448347
109	0xbcaff786	-0.021480333
110	0xba53802e	-0.00080681115
111	0xbb496949	-0.003073292
112	0xbb9a0631	-0.004700445
113	0xbb11350d	-0.0022156865
114	0x3acb7a8b	0.0015524192
115	0xbb533aa4	-0.0032230997
116	0x3b48dfc6	0.0030650957
117	0xbbf261e0	-0.0073969215
118	0xb932e57a	-0.0001706089
119	0xbcca8578	-0.024721846
120	0xb9994560	-0.00029234122
121	0xbc58d60a	-0.013234625
122	0x3afa57d4	0.0019099661
123	0x3b9d416d	0.004799059
124	0xb9f873fb	-0.00047388658
125	0xbbe68dfc	-0.007035969
126	0x3bba4357	0.005684297
127	0xbbed38b0	-0.0072394237
128	0x3c403aeb	0.011732797
129	0x3bbc5fe7	0.005748737
130	0xbcbc1358	-0.022958443
131	0xbc12fb5b	-0.008971061
132	0xbc6e147a	-0.014531249
133	0xbc36e404	-0.011162762
134	0xbc9e8e5a	-0.019354988
135	0x000561dc	4.94283e-40
136	0xbb83f64b	-0.004027163
137	0x00056306	4.947e-40
138	0xbb8d9e90	-0.0043218806
139	0xbab74425	-0.0013982101
140	0x3bded22c	0.006799957
141	0x000560dc	4.93924e-40
142	0xbb2d3085	-0.0026426625
143	0x800677ac	-5.93943e-40
144	0xbb79e6ec	-0.0038132025
145	0x328178ed	1.5072567e-08
146	0xbb66246c	-0.0035116924
147	0xbbc4d7d7	-0.0060071754
148	0x3caa7dbc	0.020811908
149	0x3b058913	0.0020375892
150	0xbb7f8373	-0.0038988262
151	0xb1c0532a	-5.59739e-09
152	0xbb6ac0f2	-0.003582057
153	0xbba9a9d5	-0.0051777163
154	0xbc312e23	-0.0108142225
155	0x3c4212d4	0.011845309
156	0xbce0b7fa	-0.027431477
157	0xbd1e3ac8	-0.038630277
158	0x3b25ddab	0.0025309126
159	0xbb48b321	-0.0030624347
160	0xbc1b82e1	-0.009491653
161	0x3b48438d	0.0030557842
162	0x3b392c6a	0.0028255233
163	0x80055ddc	-4.92848e-40
164	0xbcf386e6	-0.02972741
165	0x00056a44	4.97298e-40
166	0xbc4da138	-0.012550645
167	0x0006c03e	6.19976e-40
168	0x3c59a58f	0.013284101
169	0x80056134	-4.94047e-40
170	0x3c41100f	0.011783614
171	0xbb4ed5a1	-0.0031560438
172	0xbc2d6f7f	-0.010585665
173	0x3ad16f35	0.0015978577
174	0x3c837fda	0.016052175
175	0x99b403e1	-1.861313e-23
176	0x3cf37946	0.029720914
177	0xbb0bc02c	-0.002132426
178	0x3c3e3af4	0.011610735
179	0x3b17954f	0.0023129766
180	0x000561be	4.94241e-40
181	0xbc8e61f1	-0.017380686
182	0x80056364	-4.94832e-40
183	0x3c876a72	0.01653025
184	0xbc704016	-0.014663717
185	0xbc1b09c2	-0.009462776
186	0x80055aa4	-4.91693e-40
187	0x3ce63815	0.028102914
188	0x80055cda	-4.92486e-40
189	0xbad63ac0	-0.0016344413
190	0xbb9c619f	-0.0047723795
191	0x3c8052b0	0.015664428
192	0xbc86546a	-0.016397674
193	0xbc881901	-0.016613485
194	0x3c064228	0.008194484
195	0x3c0a1094	0.008426804
196	0xbba4cbd1	-0.0050291796
197	0xbc29f57d	-0.01037347
198	0x3ab822ce	0.0014048459
199	0xbc6fd89a	-0.014639044
200	0xbc454f07	-0.012042767
201	0x3c0dbeab	0.008651416
202	0xbc621c6a	-0.01380072
203	0x3bc8680e	0.00611592
204	0xbc3eff6e	-0.011657579
205	0x3b9fa28d	0.0048716725
206	0x3b65d7d4	0.003507127
207	0xbcf1cdd8	-0.0295171
208	0xb67d559d	-3.7749771e-06
209	0x3bff16ba	0.0077846916
210	0xbcc37fef	-0.023864714
211	0xbd036577	-0.032079186
212	0x3d07d0ec	0.033158228
213	0xbd12a91b	-0.035805803
214	0xb7f85e0a	-2.9607694e-05
215	0x3cc5fee6	0.024169397
216	0xbc5fe6c2	-0.013665857
217	0x3c0fc9a1	0.008776099
218	0x3c134ae9	0.008990028
219	0x3b683213	0.0035430237
220	0x3ce79eb4	0.028273918
221	0xbc148175	-0.009064068
222	0x3d1f1e42	0.038847215
223	0xba13c2a8	-0.0005636611
224	0xbc1a1ceb	-0.009406309
225	0xbcec4eed	-0.028846228
226	0x16ca152a	3.2648217e-25
227	0xbb43e913	-0.0029893562
228	0xbcc4c770	-0.02402088
229	0xbcdf81af	-0.027283518
230	0x3bae81eb	0.005325546
231	0x3c20aba1	0.0098065445
232	0x17d9598e	1.4045903e-24
233	0x3d5344d8	0.051579326
234	0x3bdcafb7	0.006734814
235	0x3c9b7cfd	0.018980497
236	0xbcf2e1d5	-0.0296487
237	0xbb9cd834	-0.0047865156
238	0xbccc9f62	-0.024978343
239	0xbd393087	-0.045212295
240	0xbbfb65ae	-0.0076720333
241	0x3d4d02c8	0.05005148
242	0x3c59d408	0.013295181
243	0x3c84a3de	0.01619142
244	0x8006988b	-6.05735e-40
245	0xbd57f617	-0.052724924
246	0x3cab04ae	0.020876255
247	0x80069a3c	-6.06342e-40
248	0xbbbffcb2	-0.005858981
249	0x3d3cffc7	0.046142366
250	0x0006031c	5.52128e-40
251	0x3cf27fd0	0.029601961
252	0xbb906789	-0.0044068736
253	0xba46114b	-0.00075556774
254	0xbd13f5dc	-0.03612314
255	0xbaa3e8c0	-0.0012505278

decoder.0.bias f4 [64]
0	0xbb64ec2d	-0.003493081
1	0xbcd09b12	-0.025464568
2	0xbc627ed0	-0.01382418
3	0x3d978cbe	0.07399891
4	0xbb24be2c	-0.0025137765
5	0x3b7e9007	0.0038843171
6	0x3c9519fb	0.018200865
7	0xbd183800	-0.03716278
8	0xbbfd9f04	-0.0077399034
9	0xbce3d9e0	-0.027813852
10	0xbc0fa4c2	-0.008767309
11	0xbb91f5cc	-0.00445435
12	0x3c059654	0.008153517
13	0xbd35a905	-0.044350643
14	0xbc882fb6	-0.016624313
15	0xbc9f3743	-0.01943553
16	0xbc274232	-0.010208653
17	0xbb11eedc	-0.0022267615
18	0xbc18cf7b	-0.009326811
19	0xbc2568e0	-0.010095805
20	0xbc0c99c6	-0.008581584
21	0x3be5330c	0.0069946107
22	0xbc1a9d32	-0.009436892
23	0xbc11a57a	-0.00888955
24	0xbd95a144	-0.073061496
25	0xba52a306	-0.00080351566
26	0x3d2f9be4	0.04287328
27	0xbc20d05b	-0.009815301
28	0xbb885f7f	-0.0041617746
29	0xbbb396ad	-0.0054806084
30	0xbd1e3b46	-0.038630746
31	0xbc191057	-0.009342275
32	0xbb285c5b	-0.0025689814
33	0x3cc7a5d0	0.024371058
34	0x3b5e2c10	0.0033900775
35	0xbab63ab4	-0.0013902993
36	0xbcc861cd	-0.024460698
37	0xbb9ec92c	-0.004845759
38	0xbbf9f75c	-0.0076283645
39	0x3e260163	0.16211466
40	0xbb5f4a4f	-0.003407139
41	0xbc05542b	-0.008137743
42	0xbbebb460	-0.0071931332
43	0x3c23fbac	0.010008734
44	0xba927c70	-0.0011176001
45	0xbda1e81f	-0.07905602
46	0x3ce62367	0.028093053
47	0x3cb184f6	0.021669846
48	0x3bb6d989	0.0055801314
49	0xbd194351	-0.037417714
50	0x3b66f907	0.0035243647
51	0xbd0f5680	-0.034994602
52	0xbc99493d	-0.01871168
53	0xbbc7df7d	-0.00609964
54	0xbba83a5f	-0.0051339115
55	0xbcece7bb	-0.028919091
56	0xbc8d0242	-0.01721299
57	0xbc3c416f	-0.01149021
58	0xbbd2784d	-0.0064230324
59	0x3a84c1b9	0.0010128535
60	0x3ce1264c	0.027484082
61	0xbc3ad0d7	-0.01140233
62	0xbac9c4bf	-0.0015393718
63	0xbc1ac17b	-0.009445543

decoder.2.weight f4 [64, 32, 3, 3]
0	0x3d18f009	0.03733829
1	0x39e0467a	0.00042777119
2	0xbcbf2651	-0.0233337
3	0x3d5b7c30	0.05358523
4	0x3c57c842	0.013170304
5	0xbd048c1d	-0.032360185
6	0x3cfe5fdc	0.031051569
7	0x3bbf2fda	0.005834562
8	0xbccc2787	-0.024921192
9	0x3ca1ff09	0.01977493
10	0xbbfbdd70	-0.0076863095
11	0xbb84ad8b	-0.0040490082
12	0xbab2f632	-0.0013653694
13	0x3ca154e9	0.019693809
14	0xbc2aa6ab	-0.010415713
15	0x3c3de467	0.0115901
16	0xbb508cb0	-0.0031822138
17	0xbc38a83c	-0.011270579
18	0xbc94750e	-0.018122222
19	0xbb9e411f	-0.0048295404
20	0x3c1459f5	0.009054651
21	0xbcbff270	-0.023431033
22	0xbcbd6668	-0.02312012
23	0x3c129429	0.008946457
24	0xbba27267	-0.0049574855
25	0xbbaa1c60	-0.005191371
26	0x3bc6da8b	0.006068533
27	0x3b3a2404	0.0028402815
28	0xbc88c7c8	-0.016696826
29	0xbbb5d2d0	-0.0055488124
30	0x38b3c856	8.5727006e-05
31	0x3c31ee8d	0.010860098
32	0x3c3e8c5b	0.011630143
33	0x3b2dcdde	0.0026520411
34	0xbc42c75c	-0.011888351
35	0x3ba13556	0.004919688
36	0x3c688176	0.014191022
37	0xbacb942b	-0.0015531828
38	0xbd174095	-0.036926825
39	0x3ce45cb0	0.027876228
40	0x3cb36087	0.021896614
41	0xbd5d6100	-0.054047585
42	0x3c4b1613	0.0123954
43	0x3bd059d8	0.0063583665
44	0xbd164d90	-0.036695063
45	0x3b3fdfcb	0.0029277678
46	0xbbdeb768	-0.006796766
47	0xbc72caf3	-0.014818895
48	0x3c60479f	0.013688951
49	0x3c16bfdb	0.009201015
50	0xbc379f05	-0.011207347
51	0x3bad9fc5	0.005298587
52	0x3b86f391	0.004118391
53	0xbbed6418	-0.007244598
54	0x3b5204e6	0.0032046377
55	0xbc2b057a	-0.010438317
56	0x3ca14947	0.019688262
57	0x3c60a0e0	0.013710231
58	0xbd33225b	-0.043733936
59	0x3bcab83d	0.0061865137
60	0x3ca676d3	0.020320332
61	0xbc831068	-0.015999034
62	0x3c13c76d	0.009019715
63	0x3b9a2eea	0.0047052996
64	0x3ba1f246	0.0049422113
65	0x3c1750d9	0.009235584
66	0x3ca58c33	0.020208454
67	0x3c97bd06	0.01852275
68	0xbcc7b72c	-0.024379335
69	0x3cf18984	0.029484518
70	0x3cc38dd0	0.023871332
71	0xbca29138	-0.019844636
72	0x3d2e40fb	0.04254244
73	0xbc9f65e8	-0.019457772
74	0xbd6f41df	-0.05841243
75	0x3ca1eda8	0.019766644
76	0xbc11deff	-0.008903264
77	0xbd9b040d	-0.07569132
78	0x3d50ecc8	0.051007062
79	0x3abf2eb4	0.0014586062
80	0xbd87a62a	-0.0662349
81	0xbc9dbffe	-0.019256588
82	0x3b4058dc	0.002934984
83	0x3d39f38e	0.045398287
84	0xbd0a6090	-0.033783495
85	0x3bd93b05	0.00662935
86	0x3d63a478	0.05557677
87	0xbc1ed009	-0.009693154
88	0xbb465248	-0.0030261446
89	0x3d11b7bf	0.035575625
90	0xbae6af35	-0.0017599823
91	0xbbf83dc5	-0.007575723
92	0xbd1fa0ee	-0.038971834
93	0x3bab1ad9	0.0052217063
94	0xbb6fb64a	-0.0036577159
95	0xbd3365a1	-0.043798093
96	0x3b97f9b2	0.0046379203
97	0xbc95c25f	-0.01828116
98	0xbd14e25f	-0.036348697
99	0xbd15c78d	-0.03656726
100	0xba010b71	-0.00049226644
101	0x3d59f44e	0.053211503
102	0xbd2f8870	-0.042854726
103	0xbc65e055	-0.014030536
104	0x3d7f1d3c	0.06228374
105	0xbd37354d	-0.044728566
106	0xbc61a847	-0.013773031
107	0x3d2df336	0.042468272
108	0x3a844b16	0.0010093178
109	0xbc506535	-0.012719442
110	0xbc971f16	-0.01844744
111	0x3d83c275	0.06433574
112	0xbbe1e42d	-0.0068936558
113	0xbd9ded87	-0.0771132
114	0x3d205ada	0.039149143
115	0x3b098ba2	0.0020987769
116	0xbd48f376	-0.049060307
117	0x3bc496d9	0.0059994278
118	0xbc95476c	-0.018222533
119	0xbcaebb1a	-0.021329451
120	0x3c9a0a90	0.018803865
121	0x3ac95a52	0.0015362
122	0xbcefa6a2	-0.029254261
123	0x3c61c57c	0.013779994
124	0xbbd89ab1	-0.0066102375
125	0xbc9ffd30	-0.019529909
126	0xbc1f3b3b	-0.0097187115
127	0x3c0cb4ff	0.008588075
128	0x3c86cbc1	0.01645458
129	0xbd1d8927	-0.038460877
130	0xbccaf1af	-0.024773447
131	0x3d21ccbf	0.0395019
132	0xbc41cbc6	-0.0118283685
133	0xbc8a3bba	-0.016874183
134	0x3cac6be8	0.021047547
135	0x3c86c69c	0.016452126
136	0x39bcf9d2	0.00036044285
137	0xbd1722c7	-0.0368984
138	0xbbaed2f9	-0.0053352085
139	0x3c12f3c1	0.008969248
140	0xbbb0b66c	-0.00539284
141	0xbd09016e	-0.03344863
142	0xbc0302ef	-0.007996305
143	0x3c4c1c05	0.012457852
144	0xbc3f7c75	-0.011687388
145	0x3bbc02fa	0.0057376595
146	0x3c608f0b	0.013705979
147	0xbcc00c39	-0.023443328
148	0x3b29e786	0.0025925352
149	0x3d06c5d0	0.032903492
150	0xbc6dce3f	-0.014514505
151	0x3a8c39df	0.0010698399
152	0x3c76905c	0.015049066
153	0x3c6ffe30	0.014648005
154	0xbc4a8e67	-0.012363053
155	0xbcc204c7	-0.023683919
156	0x3ce6d018	0.028175399
157	0xbb2ea520	-0.0026648715
158	0xbcffd2d8	-0.031228468
159	0x3ccb1c37	0.024793727
160	0xbb83e12f	-0.0040246467
161	0xbc8af8de	-0.016964372
162	0x3c879482	0.016550306
163	0x3bd51ab4	0.0065034274
164	0xbca5a8c3	-0.020222073
165	0x3d8a43c7	0.06751209
166	0x3d20c14f	0.039246853
167	0xbc15d440	-0.009144843
168	0x3ca13db7	0.019682748
169	0x3c8dcbe5	0.017309139
170	0xbc51afec	-0.012798291
171	0xbca07d9b	-0.019591143
172	0xba834cf1	-0.0010017437
173	0x3c88436e	0.016633715
174	0xbd1a0166	-0.03759899
175	0xbc933011	-0.017967256
176	0x3d11a649	0.035558973
177	0xbca9c802	-0.020725254
178	0xbc027c8e	-0.007964266
179	0x3cce5aa8	0.025189713
180	0xbc62c4cf	-0.013840868
181	0xbc021e5b	-0.007941808
182	0xbc9407ab	-0.018070063
183	0x3bcc1356	0.006227891
184	0xbc08783f	-0.00832945
185	0xbd47d301	-0.048785213
186	0xbb6423f2	-0.0034811464
187	0xbb0653a3	-0.0020496629
188	0xbd056d16	-0.032574736
189	0x3cb2fb5d	0.021848375
190	0xbb67378c	-0.0035280911
191	0xbd6e2cfa	-0.05814836
192	0x3d0d7bb2	0.034541793
193	0x3b8f66f8	0.0043762885
194	0xbda10551	-0.07862342
195	0x3bc9c606	0.0061576394
196	0x3c21b764	0.009870384
197	0xbd13a91a	-0.03604994
198	0x3c032f3b	0.008006866
199	0xbc7b3f0f	-0.015334859
200	0xbd1b7708	-0.037955314
201	0x3d1f5253	0.03889687
202	0xbb256d8d	-0.00252423
203	0xbda69aec	-0.08135018
204	0x3bb87f87	0.005630437
205	0xbadb3cd2	-0.00167265
206	0xbd31c46c	-0.043400213
207	0xbbfd36a0	-0.007727459
208	0x3b6157f5	0.0034384702
209	0xbb7239a8	-0.0036960635
210	0x3afa8d62	0.0019115622
211	0x3a2d5e6e	0.00066134974
212	0xbc99eaa3	-0.018788641
213	0x3c56d566	0.013112402
214	0x3bec1820	0.0072050244
215	0xbc4a2db0	-0.012339994
216	0xbca1f3b2	-0.019769523
217	0xbad003f5	-0.001587032
218	0x3d0ce668	0.03439942
219	0xbd32b02c	-0.04362504
220	0x00055f98	4.9347e-40
221	0x3d0c163d	0.034200896
222	0xbbc5b8b1	-0.00603398
223	0xba20a731	-0.0006128429
224	0x3bf18b1c	0.0073713195
225	0xbcd6f3a1	-0.026239218
226	0xb9ab309a	-0.00032651873
227	0x3d08e2e2	0.033419497
228	0xbcd072a2	-0.025445286
229	0xbbcab438	-0.0061860345
230	0x3d32290b	0.043496173
231	0xbcbf8e2a	-0.023383219
232	0xbb704af8	-0.0036665779
233	0x3ce8a742	0.028400067
234	0xbbed205e	-0.0072365245
235	0xbb01665e	-0.0019744853
236	0x3b9856e2	0.004649029
237	0xba8a9a07	-0.0010574468
238	0x3bf385e5	0.007431733
239	0xbafbab62	-0.0019200856
240	0xbc5ace1c	-0.013354804
241	0xbb0f6261	-0.0021878707
242	0x3c3443c2	0.011002483
243	0x3c9da4d4	0.019243635
244	0x38553937	5.0836443e-05
245	0x3a72b20e	0.00092580996
246	0x3d026d1f	0.031842347
247	0x3c9a544e	0.018839028
248	0xbc29687f	-0.010339855
249	0x3cc659f1	0.02421281
250	0x3c39db52	0.011343794
251	0xbba56396	-0.005047272
252	0xbc83b9c5	-0.016079793
253	0x3c25c52b	0.010117809
254	0x3d129bb4	0.03579302
255	0xbd2c7ea5	-0.042112965
