Autoencoder RealBlur_J Dataset/autoencoder_model_full4.pth (torch, 785318 bytes, 16 tensors)

encoder.0.weight f4 [16, 3, 3, 3]
00000000: 6758 0500 c566 0500 be5d 0500 0a5b 0500
00000010: 915a 0500 4058 0500 6e59 0500 325c 0500
00000020: b45d 0500 2960 0500 b86e 0580 b35d 0580
00000030: 8067 0500 8968 0580 8357 0580 c06d 0500
00000040: 5968 0580 6e5d 0580 106d 0500 b657 0580
00000050: f063 0580 1d70 0500 c85f 0580 cc68 0580
00000060: 676d 0500 7863 0580 f159 0580 ddfa 993d
00000070: f767 9e3d d159 b83d c1ac a63d bfbc a83d
00000080: cd21 d23d 945f 073d 6cbb 003e 8e06 d73d
00000090: cb3b d1bc 6b46 61bd 774d ab3c bda8 a8bd
000000a0: 4d30 713c 94bc 5ebd 90ab 88bd 6ef8 78bc
000000b0: ff0f bbbc d9cf 293e 1b36 483e ee74 653e
000000c0: 520b 223e 0797 413e fbad 633e e210 013e
000000d0: 0717 413e 707c 6c3e 9463 0500 1b6e 0500
000000e0: 8661 0500 5062 0500 215c 0500 bb5b 0500
000000f0: 1466 0500 7969 0500 015c 0500 5758 0580
00000100: ba59 0580 ed6e 0580 1c58 0580 5875 0580
00000110: 0d6e 0580 8776 0580 3e76 0580 4e67 0580
00000120: 555c 0500 cd72 0500 2d6f 0500 107e 0580
00000130: 4578 0500 1e59 0500 2276 0580 2c77 0500
00000140: 9b62 0500 b9b2 9b3e 1bdf b63e fc00 b03e
00000150: 8e13 ba3e 11f5 d13e 7bc3 ca3e fc71 b33e
00000160: 2a41 d13e d936 ca3e c6a2 ad3d 4914 f83d
00000170: a3e2 dd3d cb75 ec3d 78a7 1d3e 4bee 093e
00000180: 0717 033e f852 223e b577 153e 30c0 d1bd
00000190: e1ec b2bd 51e6 bfbd a986 babd f630 97bd
000001a0: 1ce0 a8bd 2250 a1bd f68b 78bd e50c 8ebd
000001b0: 4cac a2bc e11f c4bd abf2 523d e452 b93d
000001c0: e008 b3bb c216 92bd e9b5 583a 71e7 b2bd
000001d0: a7e5 523d 52b8 153d 639c 413e dd3c 063d
000001e0: e8ee dd3d f844 453d ef0c be3d 0c67 3a3e
000001f0: 7f87 e43d 83b0 0d3e 2e29 083c 30ec 2dbe
00000200: 4acc 11be 98c0 97bd 8ad8 13be bf5c 11be
00000210: 45e4 0abe 30f8 fbbd 4827 c9bd afc7 263d
00000220: 78c3 e03d 8fd2 b83d ceb1 5e3d 1fdd 9a3d
00000230: a59e c23d f222 a23d 9623 bf3d d9b7 aa3d
00000240: 6257 58bc 8438 1cbc b7d3 9e3c 7131 51bd
00000250: b7bb 1f3d a689 353c c21a 053c 6c83 e83c
00000260: 1215 7c3d 6962 26bc 453a 213d f53a 813c
00000270: 7297 2cbd 376b e1bc 2017 363d ea66 843c
00000280: ecde 2a3d 9df6 0dbd 8560 0580 9863 0580
00000290: cb60 0580 f15c 0580 365c 0580 2c60 0580
000002a0: cb5b 0580 c960 0580 3f57 0580 fb60 0580
000002b0: 1263 0580 925e 0580 7e5f 0580 eb58 0580
000002c0: 2a5d 0580 4464 0580 b558 0580 1959 0580
000002d0: 8057 0580 bd58 0580 255b 0580 695c 0580
000002e0: 6358 0580 8760 0580 6961 0580 cb5b 0580
000002f0: 0a62 0580 7918 a43c b180 023d 2bb7 983d
00000300: 5602 b8bc b77e 2e3d 0eec 043d a982 083d
00000310: fd32 9e3d 067d 613d d249 0d3e 7fef 383e
00000320: 16fa 283e 759e 1e3e 990f 153e c299 4e3e
00000330: c42d 153e a112 6c3e f33b 2e3e bba4 173e
00000340: e063 4c3e 03aa 503e a261 033e 03af 563e
00000350: ebd2 5b3e da0f 2a3e cf6c 813e fc06 6c3e
00000360: 9869 693e ef0e 983e 7204 913e f220 9c3e
00000370: 656d c83e a592 bb3e b7ee 9f3e a705 c73e
00000380: d88f be3e c130 aa3e 1ff9 d53e f741 c83e
00000390: 082a d73e fe9d f93e 4679 ef3e e3dc d83e
000003a0: 4516 003f ebae f63e feb2 f63d 659f 433e
000003b0: 604a 2c3e e226 3a3e e29f 783e 42dd 6a3e
000003c0: 00d3 403e 9c5a 833e 46fe 773e 5235 953e
000003d0: a639 ac3e abd3 a43e e91c 9d3e c3a7 bb3e
000003e0: 243f a63e 66a1 923e cb88 b73e e359 ad3e
000003f0: 3a8f 25be 4e88 febd ae7c 04be 54ee 17be
4.9089e-40 4.96044e-40 4.92806e-40 4.91836e-40 4.91667e-40 4.90836e-40 4.91259e-40 4.92251e-40
4.92792e-40 4.93673e-40 -4.98896e-40 -4.9279e-40 4.96306e-40 -4.96678e-40 -4.90571e-40 4.98548e-40
-4.9661e-40 -4.92694e-40 4.98302e-40 -4.90642e-40 -4.95028e-40 4.99396e-40 -4.93537e-40 -4.96772e-40
4.98424e-40 -4.9486e-40 -4.91442e-40 0.075185515 0.077346735 0.09001506 0.08138419 0.082391255
0.10260353 0.033050135 0.12571496 0.10499297 -0.025541207 -0.054998796 0.020910962 -0.08235309
0.014720988 -0.05437906 -0.06673348 -0.015195949 -0.022834776 0.16583194 0.1955189 0.22407886
0.15824631 0.18905269 0.22234337 0.12604097 0.1885644 0.23094344 4.949e-40 4.98676e-40
4.94162e-40 4.94445e-40 4.92227e-40 4.92084e-40 4.95796e-40 4.97014e-40 4.92182e-40 -4.90868e-40
-4.91365e-40 -4.9897e-40 -4.90785e-40 -5.01272e-40 -4.98656e-40 -5.01697e-40 -5.01595e-40 -4.96236e-40
4.923e-40 5.0036e-40 4.9906e-40 -5.044e-40 5.02322e-40 4.91147e-40 -5.01556e-40 5.01928e-40
4.9455e-40 0.30409792 0.3571709 0.3437575 0.36343044 0.41007283 0.39602265 0.350479
0.4087003 0.3949497 0.08478312 0.12113244 0.10834243 0.11545905 0.15395916 0.13469808
0.12801753 0.15851963 0.14596446 -0.10241735 -0.08736587 -0.09370101 -0.09107716 -0.073823854
-0.082458705 -0.07876612 -0.060680352 -0.06936053 -0.019857548 -0.09576393 0.051500957 0.09049013
-0.0054637045 -0.07133247 0.0008266853 -0.0873555 0.051488545 0.036552735 0.18907313 0.032772887
0.108365834 0.048161477 0.09279811 0.18203372 0.11158656 0.13836865 0.008310599 -0.1698463
-0.14238086 -0.07409781 -0.14438072 -0.14195536 -0.1356364 -0.123031974 -0.098219454 0.040717777
0.10974783 0.09024536 0.054368787 0.07561707 0.09502915 0.079168215 0.09332959 0.083358474
-0.013204427 -0.009534959 0.019388063 -0.05107254 0.03899738 0.011080181 0.008124055 0.02838298
0.06154353 -0.010155299 0.03936221 0.015775183 -0.042136617 -0.027516944 0.044455647 0.016162354
0.0417165 -0.034659017 -4.93802e-40 -4.94905e-40 -4.939e-40 -4.92519e-40 -4.92257e-40 -4.93677e-40
-4.92107e-40 -4.93897e-40 -4.90475e-40 -4.93968e-40 -4.94717e-40 -4.93103e-40 -4.93434e-40 -4.91075e-40
-4.92598e-40 -4.95146e-40 -4.91e-40 -4.9114e-40 -4.90567e-40 -4.91011e-40 -4.91874e-40 -4.92328e-40
-4.90885e-40 -4.93805e-40 -4.94122e-40 -4.92107e-40 -4.94347e-40 0.0200312 0.03186101 0.074568115
-0.022462051 0.042601313 0.03245168 0.033327732 0.07724569 0.055050872 0.13797691 0.1806011
0.1650165 0.15490134 0.14556731 0.20175841 0.1456824 0.23053981 0.17015056 0.14808933
0.19959974 0.20377354 0.12830213 0.20965199 0.21467178 0.1660761 0.25278327 0.2304954
0.22794187 0.29698893 0.28323704 0.30493885 0.3914596 0.36635318 0.31236812 0.388715
0.3721912 0.3324032 0.41791627 0.39112827 0.42024255 0.4875335 0.46772212 0.42356023
0.5003398 0.48180327 0.12045859 0.19103773 0.16825247 0.18178895 0.2427974 0.22935966
0.1883049 0.25655067 0.24218091 0.29142243 0.33637732 0.3219274 0.3068612 0.3665143
0.32470047 0.28638762 0.35846552 0.3385764 -0.16167918 -0.12428342 -0.12938187 -0.14837009

encoder.0.bias f4 [16]
00000000: 105f 0500 e645 f4bd 265c 0500 6723 af3d
00000010: e449 1f3f 013d ffbe 1559 0500 716f 93bd
00000020: 6ad7 c8bd a8a6 223e 37bd 263f c62b 8fbd
00000030: d2e9 02bb a5ea 143f 6114 273f 0a01 873e
4.9328e-40 -0.119273946 4.92234e-40 0.08551674 0.62222123 -0.4985123 4.91134e-40 -0.0719899
-0.09806712 0.15883887 0.6513247 -0.06990771 -0.0019975794 0.5817054 0.6526547 0.2636798

encoder.2.weight f4 [32, 16, 3, 3]
00000000: 445a 0500 d8b4 0680 ef6d 0500 cccc 0580
00000010: c27d 0580 5694 0500 d563 0500 1d64 0580
00000020: 5e70 0580 0e18 0600 fb81 0500 f392 0500
00000030: ab5b 0500 5071 0500 5a81 0500 8792 0500
00000040: 337a 0500 076b 0500 b37d 0600 6045 0680
00000050: 0096 0680 fd68 0600 ffee 0580 f273 0580
00000060: 9eda 0580 4fc0 0680 c0a1 0600 7757 0580
00000070: 6a64 0580 524b 0600 6367 0500 776a 0500
00000080: 3268 0500 086c 0500 326a 0500 4761 0500
00000090: e691 0580 b465 0580 0f85 0580 117e 0500
000000a0: 73b0 0500 7d6a 0500 e2aa 0500 636e 0500
000000b0: 7bb5 0580 76ad 0580 13bd 0500 12b3 0500
000000c0: 750f 0680 970d 0600 999e 0500 18cc 0600
000000d0: 73b2 0500 17ed 0500 4c92 0600 5967 0600
000000e0: 1e4d 0600 de78 0600 0230 0680 2ed5 0500
000000f0: 60b3 0600 ab29 0680 1646 0680 2a5f 0580
00000100: 4e69 0580 9c61 0580 d462 0580 f96d 0580
00000110: e34b 0600 5a67 0500 2e58 0500 e85e 0500
00000120: 8263 0500 415e 0500 d664 0500 005c 0500
00000130: c957 0500 b561 0500 ae63 0500 d95d 0500
00000140: 5161 0500 d75d 0580 7460 0580 4175 0580
00000150: a774 0580 326d 0580 0d7a 0580 b862 0580
00000160: 706c 0580 aa60 0580 e479 0500 086d 0500
00000170: c16a 0500 407e 0500 a2cb 0580 abd0 0680
00000180: b563 0580 c65f 0580 6f74 0580 3860 0500
00000190: 7c5b 0500 0a60 0500 8a67 0680 82b7 0580
000001a0: 6265 0580 865b 0580 9a61 0580 bc5a 0580
000001b0: c9de 0580 8f2d 0680 1615 0680 e22b 0680
000001c0: e099 0680 a595 0680 d0ac 0500 f9c9 0580
000001d0: 0c21 0680 2998 0580 9910 0600 0e91 0500
000001e0: 7872 0500 e56f 0500 0862 0500 1485 0500
000001f0: 995c 0500 ac81 0500 f9b4 0580 b341 0680
00000200: 07fe 0580 406b 0580 1f7a 0580 4adc 0680
00000210: 18c7 0580 055e 0580 7dae 0580 fafe 0500
00000220: aa96 0600 6f77 0680 856f 0500 5687 0680
00000230: 8689 0600 a18c 0500 0d69 0680 763a 0600
00000240: 21d4 0500 fce2 0500 3760 0500 0dc1 0500
00000250: c004 0600 d297 0500 cdcc 0680 b61e 0680
00000260: 9ab8 0500 2328 2bb8 b6aa 3bb8 0361 42b8
00000270: 224b 34b8 359b 45b8 657c 4cb8 1945 39b8
00000280: daeb 4ab8 16ba 51b8 3d25 0680 b8c1 0580
00000290: 42fd 0500 db4c 0600 91fc 0580 5178 0680
000002a0: 94f3 0500 89db 0600 6dfc 0500 870e ffb9
000002b0: 01a0 04ba 97cb 06ba bab7 02ba 00f0 07ba
000002c0: ca1e 0aba b7b5 03ba e8f1 08ba a414 0bba
000002d0: 5bd8 8bb3 a2af 9ab3 08b3 9fb3 e2ee a1b3
000002e0: 55a9 b2b3 7c5b b8b3 f473 9db3 0fa4 adb3
000002f0: 0091 b3b3 1869 1824 7db6 0323 106a a922
00000300: 6e45 2524 f6aa 7323 541d 4323 133f 0824
00000310: 5e54 e621 d110 5021 cc67 0500 9d65 0500
00000320: 0958 0580 7361 0500 da6a 0500 2458 0580
00000330: 1480 0500 7f73 0500 535a 0580 e3e9 bdb9
00000340: 29fb c6b9 bce2 cab9 1638 c3b9 f681 ccb9
00000350: 1c6d d0b9 2691 c5b9 1be7 ceb9 eebb d2b9
00000360: 378b fdba 544e 01bb e072 02bb 974c 00bb
00000370: 11dc 02bb aefe 03bb 9bcf 00bb d75d 03bb
00000380: 1a78 04bb 42d4 3bb9 8f3c 46b9 e428 4ab9
00000390: 746b 42b9 df2a 4db9 2426 51b9 c6b7 44b9
000003a0: 058d 4fb9 9571 53b9 8ac2 f3b7 68b5 02b8
000003b0: 155e 05b8 f559 00b8 be8b 09b8 5548 0cb8
000003c0: f1c2 02b8 a818 0cb8 ddda 0eb8 6123 63ba
000003d0: 0a65 6aba 47af 6dba abab 67ba 500d 6fba
000003e0: 6f54 72ba 1a46 69ba 14a7 70ba 4eda 73ba
000003f0: ded4 0a23 415d 6b23 a6cd 7d23 b96b 4f23
4.91559e-40 -6.15887e-40 4.98614e-40 -5.32645e-40 -5.04291e-40 5.1239e-40 4.9499e-40 -4.95091e-40
-4.99487e-40 5.59642e-40 5.05806e-40 5.11893e-40 4.92062e-40 4.99826e-40 5.0558e-40 5.11742e-40
5.03014e-40 4.97572e-40 5.96105e-40 -5.759e-40 -6.04823e-40 5.88676e-40 -5.44913e-40 -5.00771e-40
-5.37603e-40 -6.2e-40 6.09038e-40 -4.90554e-40 -4.95199e-40 5.78033e-40 4.96266e-40 4.9737e-40
4.96556e-40 4.97932e-40 4.97273e-40 4.94074e-40 -5.11516e-40 -4.95662e-40 -5.0691e-40 5.04402e-40
5.22476e-40 4.97378e-40 5.20479e-40 4.98777e-40 -5.2428e-40 -5.21404e-40 5.27005e-40 5.23416e-40
-5.56558e-40 5.55888e-40 5.16072e-40 6.24228e-40 5.23193e-40 5.44229e-40 6.03494e-40 5.88087e-40
5.78677e-40 5.94372e-40 -5.68235e-40 5.35652e-40 6.1536e-40 -5.6596e-40 -5.76155e-40 -4.93316e-40
-4.96954e-40 -4.94193e-40 -4.9463e-40 -4.98628e-40 5.78236e-40 4.96253e-40 4.9081e-40 4.93223e-40
4.94874e-40 4.9299e-40 4.9535e-40 4.92181e-40 4.90669e-40 4.94228e-40 4.94936e-40 4.92844e-40
4.94088e-40 -4.92841e-40 -4.93778e-40 -5.0124e-40 -5.01024e-40 -4.9835e-40 -5.02961e-40 -4.94591e-40
-4.98078e-40 -4.93854e-40 5.02904e-40 4.9829e-40 4.97474e-40 5.04467e-40 -5.32227e-40 -6.25869e-40
-4.94946e-40 -4.93535e-40 -5.00946e-40 4.93694e-40 4.91996e-40 4.9363e-40 -5.88156e-40 -5.25008e-40
-4.95547e-40 -4.9201e-40 -4.9419e-40 -4.91727e-40 -5.39098e-40 -5.67356e-40 -5.58577e-40 -5.66755e-40
-6.06213e-40 -6.04695e-40 5.21171e-40 -5.31632e-40 -5.62868e-40 -5.13762e-40 5.56967e-40 5.11213e-40
5.00241e-40 4.99318e-40 4.94344e-40 5.06917e-40 4.92395e-40 5.05695e-40 -5.24098e-40 -5.74581e-40
-5.50305e-40 -4.97652e-40 -5.02986e-40 -6.30038e-40 -5.30599e-40 -4.92905e-40 -5.21772e-40 5.50646e-40
6.05061e-40 -5.93858e-40 4.99183e-40 -5.99562e-40 6.00347e-40 5.09626e-40 -5.88698e-40 5.71985e-40
5.35275e-40 5.40604e-40 4.93693e-40 5.28431e-40 5.52717e-40 5.1364e-40 -6.24482e-40 -5.6203e-40
5.254e-40 -4.0806957e-05 -4.474326e-05 -4.6343554e-05 -4.2985317e-05 -4.7113008e-05 -4.875324e-05 -4.417179e-05
-4.8380207e-05 -5.000279e-05 -5.64372e-40 -5.2867e-40 5.50029e-40 5.78584e-40 -5.49781e-40 -5.94174e-40
5.46557e-40 6.29767e-40 5.49731e-40 -0.00048648214 -0.0005059243 -0.00051420316 -0.0004986484 -0.0005185604
-0.000526887 -0.0005024331 -0.0005224035 -0.0005305505 -6.512047e-08 -7.203131e-08 -7.43658e-08 -7.540599e-08
-8.319572e-08 -8.5848086e-08 -7.331974e-08 -8.085782e-08 -8.3617124e-08 3.3048764e-17 7.140168e-18 4.591984e-18
3.583748e-17 1.3209259e-17 1.0577182e-17 2.9543725e-17 1.5607738e-18 7.04954e-19 4.96413e-40 4.9563e-40
-4.90759e-40 4.94136e-40 4.97509e-40 -4.90796e-40 5.05123e-40 5.0061e-40 -4.9158e-40 -0.00036223148
-0.00037952632 -0.00038697373 -0.00037235086 -0.0003900674 -0.00039754144 -0.00037682912 -0.0003946357 -0.0004019434
-0.0019343857 -0.0019730525 -0.0019904897 -0.00195769 -0.0019967596 -0.0020140815 -0.0019654993 -0.0020044947
-0.0020213188 -0.00017912782 -0.00018905311 -0.00019279454 -0.00018541311 -0.00019566294 -0.00019946002 -0.00018760478
-0.00019793592 -0.0002016484 -2.9058447e-05 -3.1163363e-05 -3.179729e-05 -3.0601357e-05 -3.279349e-05 -3.3445966e-05
-3.117597e-05 -3.3401564e-05 -3.405927e-05 -0.00086646347 -0.00089414476 -0.0009066951 -0.0008837531 -0.000911911
-0.0009244149 -0.00088986906 -0.000918017 -0.0009302244 7.526071e-18 1.2759123e-17 1.3758705e-17 1.1244304e-17

encoder.2.bias f4 [32]
00000000: a558 0580 6d30 c9b7 29df 7f3e fa81 673c
00000010: 1ecd ec3c 12b9 89bc 7359 0500 16b9 763d
00000020: c743 7f3e adc5 853e 7b2c 1a3e 67ae f5bb
00000030: 8962 0500 195f 0580 585f 0500 9939 f6bd
00000040: 920d 5d3e 0161 0500 218d c43c ef58 2b3d
00000050: c41f 4f3e 8a10 063c 3496 6abc 1d64 0500
00000060: 5231 393d ac5e 0500 d15f 0580 f925 92bc
00000070: 9819 b3bc c9bb 72bc e53b 5bbc bf59 36bc
-4.90977e-40 -2.3983617e-05 0.24987473 0.01413011 0.028906401 -0.016811881 4.91266e-40 0.060235105
0.24928199 0.26127377 0.1505603 -0.007497597 4.94525e-40 -4.93292e-40 4.9338e-40 -0.12022705
0.21587208 4.93976e-40 0.023993077 0.04183286 0.20226961 0.008182654 -0.014318038 4.95091e-40
0.04521305 4.9314e-40 -4.9355e-40 -0.017840372 -0.02186279 -0.014815279 -0.013380979 -0.011129796

encoder.4.weight f4 [64, 32, 3, 3]
00000000: bf65 0480 5fc2 0600 2e26 0600 bc66 0600
00000010: ad0d 0680 947b 0500 178b 0300 21b1 0580
00000020: f4dc 0580 5294 3aa3 b4a7 5c23 214b 6ba3
00000030: 8b34 1c23 5320 36a3 d87e ab22 c3cf b622
00000040: 941e daa2 5ca1 7e23 f309 183d 7fd6 7c3d
00000050: 64c2 9b3d 82cd 3e3d 93d3 913d edd1 a93d
00000060: 4a84 493d d236 923d 99cf a93d 1c3b b7bb
00000070: e469 2e3c b837 76bc 8aad 80bc 4483 493c
00000080: 4795 0dbc 67f2 94bc af01 493c b77d 9d3b
00000090: 97fc 71b9 37a1 5b3b 212a 673b 4229 2cbb
000000a0: ae7e 55b9 0cb9 2f3c ae97 b9bb 1304 f7bb
000000b0: 06a2 0e3c 395e cfbc ef2f acbc 468b 8abc
000000c0: 8079 4cbd 8e24 41bd f38b 6ebc c33a 92bd
000000d0: bcf5 9fbd 4677 f0bc 6c85 0600 6412 0480
000000e0: 8f78 0500 7d64 0580 ca7d 0580 e1b1 0680
000000f0: 1a8d 0500 cfc3 0680 3501 0680 5145 b4bb
00000100: 2e28 893b 7df2 c03b f80f a4bb 24aa 973b
00000110: b122 723c ab58 a7bb d2e3 a13a 0a81 913c
00000120: 7201 c539 7a13 c03c 6e4a 103d 2110 f83b
00000130: 3554 043d e36d 1a3d c173 383c be11 1b3d
00000140: 000e 273d 9743 fd3a d955 c23c a9c8 213d
00000150: 5087 213c 516c 013d 4506 253d 4b9a 763c
00000160: 29a1 1e3d e3ec 2f3d 3706 c639 a6a7 643c
00000170: 7340 933c c40f cc3b 6a99 bf3c 8fc1 b53c
00000180: b0cd e03b b497 be3c 4692 c33c 2cec 65bb
00000190: 977b dd3b 855e 4ebb 7a6d 86bc d028 c3bb
000001a0: 0d6d db3a bbaa 95bc d349 20bc 114b 9e3b
000001b0: 4adc 0680 e979 0680 3484 0580 3848 0600
000001c0: 12f6 0580 de0f 0680 3ba0 0500 3296 0600
000001d0: f1a9 0680 64d3 0500 0f70 0580 939a 0500
000001e0: b1b4 0500 f6bb 0500 7bb4 0580 1990 0500
000001f0: 6384 0600 85b9 0580 ecf5 0500 6b3b 0600
00000200: 0c84 0680 499c 0680 3982 0580 f837 0600
00000210: b97d 0680 4c5d 0500 a9f4 0580 8319 9bb8
00000220: c1dd 423b 1c6e 37bc ed14 023a 97e0 213b
00000230: d4cf c6bb 7455 c537 dfd0 c339 66ff 17bb
00000240: 2306 bb3b 1658 d23c 6e3f 053d fe19 5f3c
00000250: c4a2 143d 529f 1c3d 757c 7c3c 609c 173d
00000260: c743 1f3d 088e 0580 759c 0200 4b6b 0600
00000270: 62b9 0580 a5cf 0500 bc04 0680 0990 0500
00000280: 0e32 0300 d40c 0600 1134 003c bf66 253d
00000290: 53e5 293c 1a7e 24bc e895 323d e458 d23c
000002a0: 7ef0 b5bc 9cfe 033d 8599 183d e7f5 503b
000002b0: 8f82 0fbc 839e bc3c 7895 453c 2e1d b4bc
000002c0: 4e79 cf3c c3cb 803c 25fe cfbc f4b4 3d3c
000002d0: d14f bc3b dae8 ca3c d4f4 0a3d 2d72 583c
000002e0: 639c 033d 89bc 1a3d 14bb 8f3c 1b77 133d
000002f0: 3d0d 193d 4895 353b 0765 2d3c 77b8 0c3c
00000300: 8525 8f39 9cfe 353c c232 503c 0acf a4ba
00000310: a1e0 083c 48f3 6a3c ab31 203c 3ccc 073b
00000320: 32b9 f03c dae2 6abc 9331 32bd 7f3f ac3c
00000330: c515 0fbd 0d63 a7bd 4c13 1bbc d2e6 0500
00000340: 7d8b 0500 eaf5 0300 da71 0500 1eea 0380
00000350: 56c1 0080 344c 0600 113e 0480 235f 0400
00000360: 3ec7 dbbb 0d7f 3e3c c8a5 86bc 6e29 60bc
00000370: ce17 a13c d27c 2dbc 47d7 8cbc 05e3 973c
00000380: 9bcc db3a 78b3 0580 e88f 0580 9002 0600
00000390: c298 0680 c0a1 0580 669d 0500 ac8f 0680
000003a0: 5ac7 0500 8d97 0580 fc5d 0680 d001 0680
000003b0: 4abf 0580 804a 0600 cb02 0600 90b4 0580
000003c0: 7991 0500 408d 0500 9d3c 0600 443d b03b
000003d0: cbae 4d3c 4e50 d43c d76d 0bbd b67f 05bd
000003e0: ee0b a73c 95ca 96bd 2b71 b4bd ca2b 17bc
000003f0: 7ad6 eaba 05b5 433b 78fb d03b 12c4 b8bc
-4.03842e-40 6.2074e-40 5.64709e-40 5.87867e-40 -5.55919e-40 5.03509e-40 3.25403e-40 -5.2272e-40
-5.3844e-40 -1.0114488e-17 1.19617364e-17 -1.2755285e-17 8.467903e-18 -9.873085e-18 4.6483944e-18 4.9551175e-18
-5.9121394e-18 1.3803537e-17 0.037118863 0.061727997 0.076054364 0.046582706 0.07120433 0.08291993
0.049198426 0.071393624 0.08291549 -0.005591763 0.0106453635 -0.015027933 -0.01570775 0.012299363
-0.0086415475 -0.018181993 0.012268468 0.004806246 -0.00023077648 0.003351284 0.0035272914 -0.0026269709
-0.00020360455 0.010725271 -0.0056638336 -0.0075383275 0.008705622 -0.025313484 -0.02101895 -0.016912114
-0.04992056 -0.047154002 -0.014559734 -0.07140114 -0.07810542 -0.029353749 5.98876e-40 -3.73939e-40
5.02426e-40 -4.95226e-40 -5.04302e-40 -6.14824e-40 5.09795e-40 -6.21256e-40 -5.51446e-40 -0.005501427
0.004185698 0.005888282 -0.0050067864 0.0046284366 0.014778779 -0.0051070056 0.0012351221 0.017761726
0.00037575845 0.023446787 0.03522723 0.007570282 0.03230687 0.037702452 0.011258067 0.037858717
0.040784836 0.0019322512 0.023722576 0.039498005 0.009858921 0.03159744 0.040289182 0.015051435
0.038727913 0.042950522 0.00037770133 0.013955986 0.017975068 0.0062274653 0.023388583 0.022187022
0.0068604574 0.023265697 0.02387346 -0.0035083396 0.006759118 -0.0031489443 -0.016409624 -0.005955793
0.0016740874 -0.018269887 -0.009783226 0.004830726 -6.30038e-40 -5.94746e-40 -5.06603e-40 5.7692e-40
-5.47451e-40 -5.56705e-40 5.16657e-40 6.04893e-40 -6.11976e-40 5.3501e-40 -4.99377e-40 5.14628e-40
5.23997e-40 5.26605e-40 -5.23922e-40 5.1087e-40 5.98504e-40 -5.2573e-40 5.47398e-40 5.72328e-40
-5.98382e-40 -6.07078e-40 -5.05893e-40 5.71091e-40 -5.96114e-40 4.92646e-40 -5.46945e-40 -7.395728e-05
0.0029734226 -0.011195686 0.00049622246 0.0024700516 -0.0060672555 2.3524022e-05 0.0003734892 -0.0023193
0.0057075187 0.025676768 0.032531194 0.013617037 0.036288038 0.038237877 0.015410532 0.037014365
0.038882997 -5.10129e-40 2.39797e-40 5.89502e-40 -5.2568e-40 5.33666e-40 -5.52711e-40 5.10848e-40
2.93463e-40 5.55615e-40 0.007824914 0.04038119 0.010369617 -0.010039831 0.043599993 0.025677152
-0.022209402 0.032225236 0.037255783 0.003188485 -0.008759155 0.023024803 0.012059562 -0.02198657
0.025326397 0.015722161 -0.02538974 0.011578787 0.0057468195 0.024769235 0.033924893 0.013210815
0.032131564 0.037777457 0.01754526 0.03600226 0.03736614 0.0027707387 0.010583169 0.008588902
0.0002730304 0.011108067 0.012707414 -0.001257391 0.008354337 0.014340229 0.009777467 0.0020721098
0.029385183 -0.014336312 -0.04350431 0.021026371 -0.03493287 -0.08173189 -0.00946505 5.4198e-40
5.09216e-40 3.63724e-40 5.0002e-40 -3.59492e-40 -6.9356e-41 5.7835e-40 -3.89607e-40 4.0147e-40
-0.006707101 0.011626971 -0.016436473 -0.013681753 0.019664671 -0.0105888415 -0.017192496 0.018540869
0.0016769351 -5.23559e-40 -5.10801e-40 5.51932e-40 -6.05812e-40 -5.17202e-40 5.15641e-40 -6.02553e-40
5.30691e-40 -5.13544e-40 -5.84728e-40 -5.51663e-40 -5.27799e-40 5.77739e-40 5.52015e-40 -5.23951e-40
5.11363e-40 5.09848e-40 5.72757e-40 0.005378397 0.012553881 0.025917199 -0.0340403 -0.032592498
0.02039143 -0.07362858 -0.088106476 -0.009226749 -0.0017916702 0.0029862535 0.0063776337 -0.022554431

encoder.4.bias f4 [64]
00000000: 7e57 843c 7594 2d3c 530c 063c 828c 11b6
00000010: 5e67 0580 671f ca3b 2eb8 50bb 8f56 ce3b
00000020: 89b6 a8b8 f3c7 9fbd 0ce7 dc3b d15f ec3b
00000030: 7100 593c 08ca de3b 501c 4823 fcc8 1eb9
00000040: 4d5f 013c e8ec c23b a635 d0ba d61f 523a
00000050: 400a 22b8 100e fc3b d235 40bd 0c9a 133c
00000060: 2ede f73b 80d8 47b8 0b83 7ebb 9832 913c
00000070: fa59 13bb d501 af3b 8cb0 a5b9 65fc 283c
00000080: a091 d7b8 c65d 913c fe66 3c3c d9ec e4b9
00000090: 0988 4c3d e47f aa3b 18aa a0ba 3509 1cbd
000000a0: 6a28 54bb cfb7 f43b 08e1 1d3d b930 013c
000000b0: 5500 ab3c 7865 8dba 75df 523c 91b7 56bb
000000c0: 546b 783c 0186 7b3c f67b 193c 3863 543a
000000d0: 07b6 343c f1a3 a7ba 6016 2d3c fc2a 523c
000000e0: f006 ef3a 8ae5 cd3a cf6d 1bbb 33ad 433c
000000f0: c8fb 093c 0953 42ba 8abd a3b5 265e 2f3c
0.016155 0.010594477 0.008181649 -2.168847e-06 -4.96259e-40 0.006168294 -0.003184806 0.0062969397
-8.044864e-05 -0.07801809 0.00674141 0.0072135706 0.013244734 0.0067989863 1.0848017e-17 -0.00015142927
0.007896257 0.0059486516 -0.0015885129 0.0008015608 -3.8633356e-05 0.007692106 -0.046926327 0.009008896
0.0075643277 -4.764693e-05 -0.0038835432 0.01772432 -0.002248405 0.0053407946 -0.0003160279 0.010314082
-0.00010279124 0.01774491 0.011499165 -0.00043664014 0.04993442 0.005203234 -0.0012257723 -0.038094718
-0.0032372721 0.0074682008 0.038544685 0.007885152 0.020874182 -0.0010787686 0.012870659 -0.0032763223
0.015162308 0.015351773 0.0093679335 0.0008101943 0.011029727 -0.0012789947 0.010564417 0.012827631
0.001823632 0.0015708667 -0.0023716574 0.011943149 0.008421846 -0.0007412886 -1.219961e-06 0.010703599

encoder.6.weight f4 [128, 64, 3, 3]
00000000: fc75 183c f35d 9fbc fa29 4abc 7a43 bc3c
00000010: a1d8 f9bb 8625 5cbb f45f ee3c b9a2 e93b
00000020: ccad 8b3c b6ab 7cbb 4e6d 65bb 255a 043b
00000030: 4f69 79bb d8c5 69bb e2ec cf3a 6eda 20bb
00000040: d872 8cbb 8150 b4ba 4a9b 9d3c 1c96 7c3b
00000050: f77f b1bc 415d 0a3c 132e 083c 18d9 89bc
00000060: 394f 3abc dee0 793c e8f7 373c 0189 5ea3
00000070: e302 f0a2 d9f5 6ea3 75f5 bba3 2bf5 e1a2
00000080: 9dd8 97a2 1c86 9623 6d03 e922 730f 52a3
00000090: ed6e 0580 9961 0580 605d 0580 645d 0580
000000a0: c479 0580 785c 0580 0f75 0580 e65c 0580
000000b0: 5777 0580 486f dfba 7796 18bc e739 faba
000000c0: d107 bbbb 0cb8 74bc 9b4b 19bb 08dc 30bc
000000d0: 14b9 c0bb fef8 3cbb 0cc5 ad27 f92d 7aa7
000000e0: 23ad 47a8 9682 8da6 df66 8424 f45f d925
000000f0: ae21 3a26 482c 9e24 29cb f324 787e 9ebb
00000100: b6ee 7abb ebec d33b 5006 edbb 486f 93bb
00000110: ca18 d63b 185c ad3b 0dd7 a2bb 3b18 5d3c
00000120: b29d 3e23 a6d0 9323 18b1 2624 b958 a322
00000130: 4a3f 06a4 30cc 0824 970f 3623 6f10 cda3
00000140: ec1f 2fa3 3b4c 84bc 25bd a7bc 89b5 57bc
00000150: 53d3 c4bb 7b20 31bc e297 3cbc 6559 753c
00000160: 3524 07bc dd96 383c 3cfc 7c3b 9ade 8739
00000170: 6eeb 703b e03f c63a 00ae cabb d2f9 073b
00000180: 933a 7239 0481 23bb cf2c 9abb e977 313c
00000190: ebb1 6b3c 0c1c c03a ea8d 073c cb58 6b3c
000001a0: 2bc7 8bb9 932e 7a3b 765d 873c ea8f 20bc
000001b0: 8909 093d f99c 123d 0144 183d 2365 f03c
000001c0: ba15 0c3d d248 133d 4ce8 df3c 3ed5 013d
000001d0: 61bd 063d 9d04 823c 027f 0e3c 0fa8 cb3c
000001e0: 4cb7 663c ce3d 333c c4f5 d03c eff6 553c
000001f0: 05cd 4e3c ca1f d83c 9c57 b623 9889 e6a3
00000200: 27e9 2f24 83f7 0323 c9ec b9a3 762c 24a4
00000210: c84c 3023 f886 4e23 77c3 1d24 4cf6 55bc
00000220: a9a0 953c e131 063d 5371 163c c383 5abb
00000230: ea3a 193b d26a 94bc 2098 463c 2ec9 15ba
00000240: 5809 ea3c e94b ee3c c65f 043d d09f c93c
00000250: bec7 db3c 20da fd3c bc88 ba3c 84b8 d13c
00000260: 9afd fb3c cdff f13c bfb9 c1bc 1a0b 94bc
00000270: ec03 173d 7419 40bc 4f6b 99bc f6d6 ef3c
00000280: 4375 703c c481 503c 2ea8 81a3 d56d a123
00000290: 4dd7 5b24 d504 0c22 10b3 4023 a886 56a3
000002a0: 1cbb aba1 6443 41a3 738d ba23 904f bf3a
000002b0: 7a92 b0ba c675 8e3b 3e88 ebb9 acd7 cebb
000002c0: f972 0d3b ffa1 e9ba ead6 92bb c430 2b3b
000002d0: a27b a623 cb14 86a3 bf56 ee23 d767 fb23
000002e0: 7ae5 f221 14d3 72a3 e3b4 92a0 cdd1 3da3
000002f0: dc20 c823 3325 bc3b c3ad 263c 608a ffbb
00000300: 1c25 293c 7290 363c 9795 c4bb ca2f 28bb
00000310: 84fb 4c3c aa97 033c f995 1c3b 5b1d 96bb
00000320: f341 713c c4db a9ba 0f23 8cbc 9eda 473c
00000330: 749d 1e3c b30f 9ebb 5f45 a23c 73b9 79bb
00000340: 1420 6cbb ab98 f03a 9b32 70bb 2039 7cbb
00000350: 1da9 b43a 97b6 e9ba 963e a3bb 085c 2fbb
00000360: 65a5 a7bb 0686 13bc 9203 1fbc 919f 83bc
00000370: 0589 91bc 1882 883c 3eae f13b d6d4 053b
00000380: 6a22 3f3c 146a 2e22 0aa7 7ca3 78a1 00a4
00000390: ca0e f522 11a7 1024 ab18 db23 ead1 c223
000003a0: ae0e cf23 7368 aea3 3b9f 3237 c06a 7d36
000003b0: 0be3 8636 4fc0 9536 0e5b 9634 1457 6d35
000003c0: 9455 0236 72f2 6632 8a59 0b35 ea47 a13b
000003d0: bcac a33b 267a f23c 2f41 223a 6098 7dbc
000003e0: 1bdc 79bb 0765 0dbc 282b 883b 2bf9 5dbc
000003f0: 789d 7c3c 7b6a 0e3c 9109 0fbb fb36 843b
0.009305473 -0.019453978 -0.01233911 0.022981394 -0.007624701 -0.0033591702 0.029098488 0.0071299938
0.017050646 -0.0038554496 -0.0035007778 0.0020195332 -0.0038057154 -0.0035670903 0.0015863443 -0.0024544257
-0.0042861514 -0.0013756902 0.019239087 0.003854162 -0.021667464 0.008445085 0.008311766 -0.016827151
-0.011371427 0.015251366 0.011228539 -1.2063656e-17 -6.5055187e-18 -1.2954066e-17 -2.0378536e-17 -6.1245954e-18
-4.115798e-18 1.631983e-17 6.3158404e-18 -1.1387394e-17 -4.9897e-40 -4.94189e-40 -4.92674e-40 -4.9268e-40
-5.02859e-40 -4.92349e-40 -5.0117e-40 -4.92503e-40 -5.01989e-40 -0.0017046714 -0.009313217 -0.0019090743
-0.005707719 -0.014936458 -0.0023391012 -0.010794647 -0.005881438 -0.0028834934 4.8230784e-15 -3.4719391e-15
-1.1084262e-14 -9.819236e-16 5.7420145e-17 3.770852e-16 6.457736e-16 6.859659e-17 1.0572862e-16 -0.0048368536
-0.0038289255 0.006467452 -0.0072334185 -0.0044993497 0.006533717 0.0052905194 -0.0049694837 0.0134945465
1.0333314e-17 1.6026138e-17 3.6145516e-17 4.4275177e-18 -2.9110226e-17 2.9663253e-17 9.869541e-18 -2.2233104e-17
-9.493529e-18 -0.01614963 -0.020475933 -0.01316584 -0.006006637 -0.010810967 -0.011510821 0.014974927
-0.0082483785 0.011266437 0.0038602492 0.00025915058 0.003676142 0.0015125237 -0.006185293 0.002074827
0.00023100739 -0.0024948725 -0.0047050486 0.010831811 0.014385681 0.0014656796 0.008273581 0.014364432
-0.00026660538 0.0038174733 0.016524058 -0.009799937 0.03345636 0.035794232 0.03717423 0.0293451
0.034200408 0.03595812 0.027332447 0.031697504 0.03289545 0.01587134 0.008697273 0.02486041
0.014081787 0.010940028 0.025507815 0.013059362 0.012622123 0.026382346 1.9769584e-17 -2.4994923e-17
3.8144564e-17 7.153937e-18 -2.0158023e-17 -3.559949e-17 9.557238e-18 1.1195863e-17 3.4209513e-17 -0.01305921
0.018265085 0.032762412 0.009182292 -0.0033342696 0.0023381063 -0.018117342 0.01212123 -0.0005713877
0.028568909 0.029088931 0.0323179 0.024612337 0.026828643 0.0309878 0.022770278 0.02560068
0.030760575 0.02954092 -0.023648141 -0.0180717 0.036868975 -0.0117248185 -0.018727927 0.029277306
0.014676395 0.012726251 -1.4057435e-17 1.750217e-17 4.7670422e-17 1.8976096e-18 1.0446259e-17 -1.1629478e-17
-1.1636938e-18 -1.04768215e-17 2.0226066e-17 0.0014595855 -0.0013471388 0.004347536 -0.000449242 -0.006312331
0.0021583422 -0.0017824768 -0.004481186 0.0026121596 1.8050117e-17 -1.4537115e-17 2.584075e-17 2.7257452e-17
1.64593e-18 -1.3163544e-17 -2.4853063e-19 -1.02901376e-17 2.169796e-17 0.005741739 0.010173264 -0.007798478
0.010323789 0.011142837 -0.005999278 -0.002566325 0.012511138 0.008031765 0.0023893102 -0.004581136
0.014725196 -0.0012959172 -0.017106561 0.0121981185 0.009681094 -0.004823649 0.01980847 -0.003810492
-0.0036029862 0.0018356045 -0.0036651257 -0.0038486198 0.001378331 -0.0017830905 -0.004981826 -0.0026757736
-0.005116152 -0.009004122 -0.009705441 -0.016067298 -0.017765531 0.016663596 0.0073755076 0.002042105
0.01166592 2.3637555e-18 -1.3696319e-17 -2.7892345e-17 6.642304e-18 3.1366533e-17 2.3754475e-17 2.1122424e-17
2.2449202e-17 -1.8909354e-17 1.06467005e-05 3.7762074e-06 4.0199425e-06 4.4629337e-06 2.8005928e-07 8.8416095e-07
1.9421323e-06 1.3442888e-08 5.191183e-07 0.004921903 0.004994957 0.02959926 0.00061895227 -0.015478224
-0.0038125578 -0.008630044 0.0041555353 -0.013548176 0.015418403 0.008692379 -0.002182577 0.0040348745

encoder.6.bias f4 [128]
00000000: d047 1dba f0d0 89ba 1cbe 23bc 457a 80bb
00000010: b97e 95bb 61fe 39bb 1d09 9fba 71e9 41ba
00000020: 2a54 afbb 8340 823b 683b 6bbb ba65 11bb
00000030: 6ef2 ba3a b01a 313a 05c2 ddbb 03a2 79bb
00000040: 907a af3b 8168 02bc 5675 3fbb bb52 34af
00000050: dabe b7bb 72dd b0ba 9725 00bc 00e9 943b
00000060: 7971 b4ba 2e1b 8bbb 85ca f8b7 a6e5 14bc
00000070: caec 21bd 958e 08bc d581 28bb 8d47 8e3a
00000080: 68e7 0b35 e934 6a3b 82a6 8abb f62c 013b
00000090: 221c 54bb aafc 09ba 7c65 91bb 9f14 9a3b
000000a0: e523 0e3c 60c2 17bb 264d 9239 3f37 2b3b
000000b0: 9e78 85bc ae60 9f3b 3497 91b9 e2b1 54bb
000000c0: 2fe8 0cbb fc3b e4ba ad3d 433c cb34 623b
000000d0: 09e6 86b9 4725 7a3b a72b c9ba e574 52bb
000000e0: 10f0 313b 3eb2 2cba f28e b23b 527a debb
000000f0: 9a1f 863b b4ba 5abb 7b34 213c 57d7 2ebc
00000100: 1e00 123a d83b a73b d2a3 353b b94f 423c
00000110: 5d21 833a 63ca 423a eb11 4eba 1c7b a2bb
00000120: 4455 673a 6a4b 38bc a9ea abba 1f17 bd3b
00000130: 6db1 2039 1209 743a 3193 273c 42f2 1c3d
00000140: 26b2 293b 7568 933a 8bfa 61ba 19bd 1f3b
00000150: 2f73 eb3a bad1 f63b 9066 ebbb 9a04 b5bb
00000160: 4e4f 0fba 54f2 c13b a18c 903b 4cf7 0abb
00000170: 3101 af3a b636 603b 96e3 bab9 2a8c acbb
00000180: 65d8 ccbb 3d32 83b9 2b13 bcbb 290e 5e3b
00000190: c138 5abb 9827 d23b 9ee3 193c 29f2 da39
000001a0: 01a7 d2b9 e078 023b d93c 373b 1a80 f53b
000001b0: fd34 3f3a 061e fe3a c652 2bbb 6aa8 34bb
000001c0: 236f e139 e2a1 57ba 5d53 ffbb 561c 76bb
000001d0: 1066 dfbb a959 11bc 2b60 e63a 18ac 9a3a
000001e0: fb2e 12bc 5054 36bb 6154 70bb ddf7 883b
000001f0: 3d79 f4bb 232a dcbb e25d 86ba 9117 c2bb
-0.00059997756 -0.0010514539 -0.009994056 -0.0039208257 -0.0045622257 -0.0028380381 -0.0012133453 -0.0007397151
-0.0053506093 0.0039749756 -0.0035893563 -0.0022185878 0.0014262924 0.0006755991 -0.0067675137 -0.0038090951
0.0053551868 -0.007959486 -0.0029214225 -1.6400296e-10 -0.005607468 -0.001349373 -0.007821462 0.0045443773
-0.0013766728 -0.0042451834 -2.965821e-05 -0.009087956 -0.03953246 -0.008334775 -0.0025712152 0.0010855064
5.2118276e-07 0.0035737103 -0.004231275 0.0019710637 -0.0032365401 -0.0005263785 -0.0044371467 0.0047021653
0.00867555 -0.0023156628 0.0002790477 0.0026125459 -0.016292866 0.00486382 -0.0002776921 -0.003245466
-0.0021500697 -0.0017412896 0.01191656 0.003451633 -0.0002572986 0.0038169192 -0.0015348092 -0.0032113132
0.0027151145 -0.00065878395 0.0054491693 -0.006789484 0.0040931227 -0.0033375444 0.0098391725 -0.010671458
0.00055694755 0.0051035695 0.0027716053 0.011859828 0.001000445 0.00074306707 -0.00078609464 -0.0049585234
0.0008824656 -0.011248449 -0.0013116199 0.0057705785 0.00015324885 0.0009309213 0.010227964 0.038316973
0.0025893538 0.0011246341 -0.00086204027 0.0024374186 0.0017963405 0.0075323256 -0.0071838573 -0.00552423
-0.00054668344 0.0059187803 0.0044112955 -0.002120453 0.0013351795 0.0034212298 -0.0003564625 -0.0052657323
-0.006251382 -0.00025023698 -0.0057395897 0.0033882952 -0.0033297988 0.0064134113 0.009392647 0.00041760624
-0.0004017875 0.0019908473 0.0027959852 0.0074920775 0.00072939676 0.001938761 -0.0026141866 -0.0027566203
0.00042998148 -0.00082257215 -0.00779192 -0.003755351 -0.0068175867 -0.008871474 0.0017576268 0.0011800556
-0.008922334 -0.002782125 -0.0036671387 0.004179938 -0.007460742 -0.0067188903 -0.0010251368 -0.0059232195

decoder.0.weight f4 [128, 64, 3, 3]
00000000: d4ef b9bb c176 db89 9e59 c93a e548 653c
00000010: 3e81 84bb 6979 2e3c 4710 dc3c 89a8 090b
00000020: 87f3 133d feb1 9b3c 0700 fd3a 8331 683c
00000030: df13 533b 6ae3 41bb dc21 06bd 823b 523b
00000040: 5303 013d 8c96 ddbc b65c ff3b 4d05 b7b4
00000050: 315f 58ba edd1 3bbb 2597 e5bc 1048 f7bb
00000060: 9d5e 9cbc b831 4db6 c146 43bb bcf4 52bc
00000070: ea89 0b3d b9ee 3abb 4114 c4bc 8cb1 903d
00000080: 0d3c be3c 6be0 68bc 5836 103c 169a 0ebc
00000090: f738 05bb ec5e 0500 c27a 203b ab7a 0cbb
000000a0: 05cc 48b8 7e9c 9dba 5499 0dbb 4d5b 0500
000000b0: 000d b03b 968a f3ba e2d7 24bd 2f8b 08bd
000000c0: 872e e3bb b9c3 843c 38ff edbb 3718 a93b
000000d0: 3bdc a2bb f78c c6bb 4392 b6ba 6cc3 33ba
000000e0: b714 e43b 63af 53bc 3dcb 0fbc 424f cf3b
000000f0: 1c27 28bc 58bc adb9 42ed ccbb d8b9 e0bb
00000100: b904 d0ba 8bc5 503c 716d 0500 858d 7fbb
00000110: ee65 0500 419c 373c 10b0 88bc b7f3 b13a
00000120: 0e5e 0580 cb27 80b9 825b 0500 cade 763c
00000130: b8a4 c0bc c7d5 cbbc 8858 0580 8832 aa3c
00000140: 3163 0580 4d16 2eb9 5c42 763b 7ea4 fa3a
00000150: 291b 483c 416c bcbc ed34 59bd d7e4 003c
00000160: 0a43 adbc 4179 b13c 8fad 9a3b edb6 993c
00000170: 03ce 043d 1adc 73bb 4fef 283c 3cbf 6fbb
00000180: 184d e3ba bda4 133b 5f88 cb3c d78a 96bb
00000190: 296a fa23 3f9c 98bb 3829 94b8 472c e73a
000001a0: 9c7d ceb4 a756 9bbb f64b 8823 eb00 9dbb
000001b0: 318b 41bc ad0a 9cbc 03d6 e7ba 0688 f1ba
000001c0: 790e 1ab8 6c49 f43a 8683 2a3c 16da a63a
000001d0: a3d9 893c 756c d7bb b63a 76bb c7d0 c6bc
000001e0: 530b 8cbc 4da0 e0bb 2ea4 71bb 7f4c c33b
000001f0: 9f26 25bc 8f1e cabb 6477 e23a 5e8c a5bb
00000200: 697c 363c e66e 5f3c 1173 98bc b1d8 b8bb
00000210: c8f0 8cbb b900 a6bb 65e5 35bc dc61 0500
00000220: d16c 6ebb 0663 0500 66f4 87bb f96c 04b9
00000230: f34c 013c dc60 0500 0a27 2dbb ac77 0680
00000240: d595 dbb9 23ef 31b9 c39a 26b9 7437 00bc
00000250: 811c ce3c 180b 55ba a6fb afb9 1d1a 0aba
00000260: 3e5a 70b9 7617 5fbc 3516 69bc c3bd 0a3c
00000270: 3815 fabc 5ec8 11bd 6717 523c c5f2 0ebc
00000280: 90f1 4ebc 3aea 383c 8d56 fb3b dc5d 0580
00000290: f4f3 f2bc 446a 0500 fc7e 63bc 3ec0 0600
000002a0: ba8d 9f3c 3461 0580 031b 933c 38a7 48bb
000002b0: fc95 35bc f664 c73b 86b6 933c 11d0 60a6
000002c0: b632 013d 4ef7 253a ccfc 403c f4f6 bb3b
000002d0: be61 0500 05db 10bc 6463 0580 dc12 b53c
000002e0: 6a1c 3dbc dd2a a0bb a45a 0580 c123 1b3d
000002f0: da5c 0580 497c 93bb cb9a c6bb 39e1 343c
00000300: a6a7 92bc 98d3 93bc 23eb dc3b 31b3 f83b
00000310: fca9 dfbb 726b 16bc 9577 91bb 90fd 81bc
00000320: 1e9d 86bb 91db f9b8 d034 88bc 4fb8 eab8
00000330: a305 ddbb 2497 993b 1f3d d3bb b27d 1bbd
00000340: 8951 bfbb fb6d 063c f666 d5bc efd8 ddbc
00000350: f5f5 203d 870a 26bd feb9 fbbb f3d9 d83c
00000360: a8b5 2bbc 0ff7 253c c11f 393c 3214 ea3b
00000370: f67e fd3c 9831 d4bb 130f 273d 23dd a13a
00000380: fede dcbb 189a febc 335f 7c23 cb56 e2bb
00000390: 6771 9bbc e9e8 babc 15e9 bb3b a242 c03b
000003a0: 1ab8 8724 9084 5d3d 915e ab3b 55b7 923c
000003b0: 7954 f9bc 1b01 02bc 0a7d e2bc e229 4dbd
000003c0: b6c8 e7bb 71a5 403d 3257 2f3c 6f46 893c
000003d0: 8b98 0680 b6a0 44bd 41e2 c43c 3c9a 0680
000003e0: a730 cdbb 5322 4b3d 1c03 0600 f4e0 0e3d
000003f0: e000 08bc 503d 22bc 581f 06bc a00d 89bb
-0.0056743417 -5.2834008e-33 0.0015361791 0.01399443 -0.004043727 0.010649064 0.02686323 2.6512032e-32
0.036120918 0.019005772 0.0019302376 0.014171961 0.003220789 -0.0029585012 -0.032747135 0.0032078926
0.03149731 -0.027049325 0.0077930344 -3.4090263e-07 -0.0008253931 -0.002865906 -0.028026173 -0.0075464323
-0.019088084 -3.057632e-06 -0.0029796811 -0.012875732 0.034067072 -0.0028523637 -0.023935439 0.070651144
0.023221994 -0.014213662 0.008802019 -0.008703729 -0.0020328143 4.93229e-40 0.0024487232 -0.002143542
-4.7873724e-05 -0.0012024788 -0.0021606283 4.9193e-40 0.0053726435 -0.001858073 -0.040244944 -0.03333586
-0.0069330367 0.01620661 -0.0072630905 0.0051603573 -0.004970101 -0.006059285 -0.0013929087 -0.0006857428
0.006960477 -0.012920233 -0.008776483 0.006326587 -0.010263231 -0.00033137458 -0.0062538693 -0.006858092
-0.0015870548 0.01274241 4.98438e-40 -0.0038994264 4.95743e-40 0.011206687 -0.016685516 0.0013576661
-4.92918e-40 -0.0002444371 4.92004e-40 0.0150677655 -0.023516044 -0.02488221 -4.90937e-40 0.020776048
-4.9476e-40 -0.00016602241 0.0037576174 0.0019122509 0.012213507 -0.023000838 -0.05302899 0.00786706
-0.02115013 0.021664264 0.004720397 0.018763984 0.03242303 -0.0037210048 0.010310962 -0.003658249
-0.0017341701 0.0022528612 0.0248453 -0.0045941877 2.7150015e-17 -0.004657298 -7.0648675e-05 0.0017637097
-3.8461883e-07 -0.0047405544 1.477732e-17 -0.004791369 -0.011812971 -0.01904806 -0.0017687682 -0.0018427379
-3.672994e-05 0.0018637604 0.010407334 0.001272979 0.01682741 -0.0065742084 -0.0037571616 -0.024269475
-0.017095244 -0.006855047 -0.003687154 0.005960047 -0.010080009 -0.0061681936 0.0017278013 -0.0050521335
0.01113806 0.01363728 -0.018609555 -0.005641066 -0.0043011643 -0.005066004 -0.011102055 4.94283e-40
-0.0036380778 4.947e-40 -0.0041490076 -0.00012629096 0.007891881 4.93924e-40 -0.0026420974 -5.93943e-40
-0.0004188257 -0.00016969121 -0.00015888647 -0.007825721 0.025160076 -0.0008126958 -0.00033566094 -0.00052681734
-0.00022921801 -0.013616433 -0.014226486 0.008468094 -0.030527696 -0.035591476 0.012822962 -0.008724873
-0.012630835 0.011286313 0.0076702298 -4.92848e-40 -0.029657342 4.97298e-40 -0.013885256 6.19976e-40
0.01947676 -4.94047e-40 0.017957216 -0.0030617248 -0.011083122 0.0060850335 0.01803137 -7.7997594e-16
0.031542502 0.0006331102 0.0117790215 0.005736226 4.94241e-40 -0.008841281 -4.94832e-40 0.02210372
-0.011542419 -0.004887922 -4.91693e-40 0.037875894 -4.92486e-40 -0.0045009 -0.006060933 0.011040025
-0.017902207 -0.018045232 0.0067418977 0.0075897207 -0.0068256836 -0.00918089 -0.004439304 -0.015867978
-0.0041080853 -0.00011914143 -0.016626745 -0.0001119232 -0.0067450567 0.004687207 -0.006446495 -0.03796167
-0.005838577 0.008204932 -0.026050072 -0.027080981 0.039297063 -0.040537383 -0.007682084 0.026471114
-0.010480322 0.010129704 0.011299075 0.0071435208 0.030944329 -0.0064756386 0.04078586 0.0012349229
-0.00674045 -0.031079337 1.3681107e-17 -0.006907319 -0.018974973 -0.022816138 0.0057345727 0.0058673183
5.88588e-17 0.0540815 0.005229779 0.017909685 -0.030435788 -0.007934834 -0.027647514 -0.05008877
-0.007073487 0.047032777 0.010701941 0.016757218 -6.05735e-40 -0.04800483 0.024033668 -6.06342e-40
-0.0062619033 0.04959328 5.52128e-40 0.0348825 -0.00830099 -0.009902313 -0.008186184 -0.0041825324

decoder.0.bias f4 [64]
00000000: fb75 0ebc b33e eebc c14b 6abc a3ab 903d
00000010: d289 e1bb 90a9 963b 28c2 853c 80a1 35bd
00000020: d371 24bc c72e edbc b8be aabb af07 04bc
00000030: a5c1 4a3c 278e 40bd ffac 24bc ad2b a1bc
00000040: f650 80bb fe90 5cbb 54bc 03bc 024b 3abc
00000050: 0818 28bc 6c3d 1c3c e6d3 28bc c917 d8bb
00000060: dafe 91bd 23b9 c4b9 c5ba 303d 906d 17bc
00000070: ae3f 8aba a9df 9c3a 76fb 21bd d241 79bc
00000080: 8914 2a3b eb38 c03c 5208 983b 6da0 f5ba
00000090: 20b7 c8bc 99b9 e5ba 8a59 bebb 36fd 233e
000000a0: 5054 03bc f35b 06bc cd30 43bc 225d 2e3c
000000b0: b6f7 3cba c8cb 9ebd 1c98 f93c c103 ab3c
000000c0: 7111 b23b 9569 26bd 8d54 023c 069b 14bd
000000d0: 8bd3 a5bc 607b bbbb 65b3 84ba 4474 05bd
000000e0: a14a 8abc cd8b 95bc 160d 12bc b796 bf39
000000f0: 06cb f43c 626d 37bc dbd8 d2ba e8ac 53bc
-0.008695121 -0.029082632 -0.014300288 0.07063987 -0.0068828845 0.00459785 0.016327932 -0.04434347
-0.010036903 -0.02895297 -0.0052107237 -0.008058473 0.01237527 -0.047010567 -0.010051011 -0.019674147
-0.0039159013 -0.0033655758 -0.008040506 -0.011370422 -0.010259636 0.0095361285 -0.010304427 -0.0065946323
-0.07128687 -0.0003752197 0.043146867 -0.00924243 -0.0010547542 0.0011968511 -0.039546452 -0.015213447
0.0025952181 0.02346464 0.0046396637 -0.0018739827 -0.024501383 -0.0017526626 -0.0058090137 0.16014561
-0.008015707 -0.008200633 -0.0119134905 0.010642322 -0.00072085427 -0.07753712 0.03046804 0.020875813
0.005434208 -0.040628035 0.007954729 -0.036280654 -0.020242473 -0.0057214946 -0.0010124265 -0.032581583
-0.016881289 -0.018255139 -0.008914253 0.0003654265 0.029881965 -0.0111955125 -0.0016086356 -0.012919642

decoder.2.weight f4 [64, 32, 3, 3]
00000000: e319 193d 525f 523a 1964 b2bc 8b78 5e3d
00000010: 8419 533c 9f91 05bd 5710 fb3c 5426 b93b
00000020: 2517 c8bc b45d 873c c137 e6bb 473d 59bc
00000030: da70 32bc 06b8 a83c 2916 7fbc cfef 153c
00000040: 88c5 95bb d0ef babc da1b a2bc b8eb c3bb
00000050: f72d 043c 72cb e2bc c41b d0bc f434 333c
00000060: c0bd d5bb 47c4 c9bb 55cd ce3b bf05 6e3b
00000070: 4250 85bc 4863 0ebc 8c91 4f38 7886 413c
00000080: 95f0 173c 949c 1e3b 3589 46bc c690 283b
00000090: 7b3d 353c ae7d ac3b 5f74 17bd c79d ed3c
000000a0: 79bd c53c 0d1d 6dbd d626 1f3c 03d8 4a3c
000000b0: 09c8 19bd b2b6 2eb9 6039 b1bb 7b84 2dbc
000000c0: 924f 263c 1689 f43b 975f 32bc 85a0 3a3b
000000d0: 1685 9e3b b6d5 83bb e9fd f138 1c79 74bc
000000e0: 0763 c43c 910b 0c3c c5f1 4abd 3c94 8d3c
000000f0: 4b8a 863c c43a afbc c27c 663c d0cb 563b
00000100: 219e 0a3c b81c b33b 735e 883c e3d7 b33c
00000110: df2e babc 7e89 d53c 31ce d03c 2720 bcbc
00000120: 6fec 373d e17b 8abc d3f6 6fbd de10 a43c
00000130: 84cc 01bc 3461 97bd 42f8 5a3d 7ddf 6f3b
00000140: d999 86bd 13c3 8ebc 7a41 b43b c264 1e3d
00000150: 4851 20bd 43a6 133c c8b0 5a3d d0c7 00bc
00000160: f5ac 00bb da70 123d dd58 7dbb 217f fbbb
00000170: f843 1cbd 80d2 9d3b 7a13 42bb 523f 23bd
00000180: 80bd c03b a7b6 a6bc e298 0cbd d714 1abd
00000190: be0e 043c e524 7c3d 0924 47bd a5f0 43bc
000001a0: 3eaf 893d ff91 44bd a06c 80bc 79cd 4a3d
000001b0: 4c03 a63a 3786 32bc d1e7 81bc a76d 853d
000001c0: c06b 97bb 294c 9cbd d6a3 1a3d 16af 593b
000001d0: 0977 3ebd ec75 273c 1e36 80bc 8539 95bc
000001e0: 5349 923c bcbb 303b 2fd0 eabc 7742 733c
000001f0: e987 02bc 0ef9 abbc b733 0abc 074d 053c
00000200: 43ed ff3c d87f 31bd a934 c9bc b40d 293d
00000210: f5f3 b3bc bf12 8cbc fee6 113d 9e55 833c
00000220: 683e e8b9 bd33 01bd 73bf 89bb c299 183c
00000230: 73c1 c1bb 902e 11bd 9584 0bbc b930 933c
00000240: 8b02 25bc a918 c23b efcb 553c f181 a1bc
00000250: 7080 6c3b 3ba8 f53c e89b 38bc a00f e63a
00000260: cb19 5b3c 6940 a73c d46b fdbb 102f acbc
00000270: 58e3 093d 726c 8bb9 b45d febc 311b f23c
00000280: 3bda aaba ec6f 9dbc ff3c a03c 37cb 043c
00000290: f95b a8bc d600 8e3d b48e 213d 3aa2 2bbc
000002a0: 4822 a53c 4b3a 913c cf85 42bc 7315 a2bc
000002b0: 9ecb 34bb ad64 7f3c e870 22bd 6a34 9ebc
000002c0: 94dd 113d 8fdf a3bc bda1 12bc 24a1 cd3c
000002d0: add0 b8bb d168 11bc 2c42 5cbc 34a9 6d3c
000002e0: f0fd 44bc 025d 3abd c5c9 d53a 9097 4fbb
000002f0: 1777 e4bc ab36 b53c 5ab7 13b9 9c8b 62bd
00000300: 4885 113d c453 943b 4545 a1bd b84b e13b
00000310: 1543 413c f679 13bd 2f4e 143c 48a2 55bc
00000320: 6e0b 14bd 8ac6 213d f317 97b9 8c68 a5bd
00000330: cfc3 e43b 63fa 45b9 a801 2cbd f6e4 dbbb
00000340: 6a52 9c3a 06d9 d1bb eca6 c73b 48f2 9537
00000350: 7a3b a3bc 7ec7 1e3c af7c 203c c94b 7ebc
00000360: 032f ecbc 9cdd 0b3c 8564 1e3d c23f 5cbd
00000370: 985f 0500 cd92 2a3d b77d 28bc dee1 9d3b
00000380: 210b 683c c05c d8bc 9694 693c 7017 fb3c
00000390: ba58 cfbc 6724 e1bb 87e2 263d 9502 b6bc
000003a0: 3943 163b a642 d93c b489 ccbb ff92 0b3b
000003b0: fb2c cc3a 449c 7a3b 23fa c23b 2f40 7c3b
000003c0: 07dc 37bc 78a1 1d3b cdd6 2f3c e226 9f3c
000003d0: 3306 d33a 505c 67b8 d00a fa3c db35 a23c
000003e0: 9edf 25bc e6cb b93c 1e37 423c d885 b2bb
000003f0: 6bc7 86bc aa57 0f3c 9692 0e3d f84e 2fbd
0.037378203 0.0008025068 -0.021776246 0.054314177 0.012884501 -0.03260958 0.03064744 0.005650321
-0.024425099 0.016524173 -0.0070256894 -0.013259239 -0.010891164 0.020595562 -0.015569248 0.009151413
-0.0045706667 -0.02281943 -0.019788671 -0.0059790276 0.0080675995 -0.0276849 -0.025403865 0.010937918
-0.006522864 -0.0061574313 0.0063110986 0.0036319343 -0.016273621 -0.008690663 4.9488197e-05 0.011811845
0.009273668 0.0024202215 -0.012117674 0.0025721057 0.011062021 0.0052640056 -0.036976214 0.029005898
0.0241382 -0.057889033 0.009713849 0.012380603 -0.037544284 -0.00016661992 -0.005408451 -0.010590668
0.010150807 0.007462631 -0.010887048 0.0028477025 0.0048376424 -0.004023279 0.0001153907 -0.014921453
0.023973001 0.0085476795 -0.049546976 0.017282598 0.016423365 -0.021390326 0.0140678305 0.003277529
0.008460552 0.00546607 0.0166466 0.021953529 -0.022727428 0.026066538 0.025488945 -0.02296455
0.044903215 -0.016904773 -0.058585 0.020027574 -0.0079222955 -0.07391587 0.053459413 0.0036601715
-0.06572313 -0.017427003 0.0055009695 0.03867031 -0.039140016 0.009011808 0.053391248 -0.007860139
-0.001963434 0.035752155 -0.0038657703 -0.007675067 -0.038150758 0.0048163533 -0.002961366 -0.03985531
0.005881965 -0.020350767 -0.034325488 -0.03761753 0.008060155 0.061558623 -0.04861835 -0.01195923
0.06722878 -0.047990795 -0.015676796 0.04951236 0.0012665777 -0.010896257 -0.015857609 0.06515055
-0.004620999 -0.07631714 0.037753902 0.0033215932 -0.04650024 0.010220986 -0.015650805 -0.018215904
0.01785723 0.0026967367 -0.028663723 0.014847389 -0.007966974 -0.020992782 -0.008435181 0.0081360405
0.031241065 -0.043334812 -0.024561243 0.041272834 -0.021966914 -0.017098783 0.035620682 0.016032036
-0.00044296985 -0.031543482 -0.0042037307 0.0093140025 -0.0059129535 -0.035444796 -0.008515497 0.017967569
-0.010071407 0.00592335 0.01304911 -0.019715281 0.0036087297 0.029987445 -0.01126764 0.0017552264
0.013372849 0.020416455 -0.0077338014 -0.021018535 0.033664078 -0.00026592944 -0.03105054 0.029553981
-0.0013035008 -0.019218408 0.019560335 0.008105091 -0.020551668 0.06933753 0.039442733 -0.01047569
0.020157948 0.017727992 -0.011872723 -0.019785618 -0.0027587186 0.015587968 -0.039658457 -0.019312102
0.035611704 -0.020004062 -0.008949694 0.025101252 -0.0056401105 -0.008875088 -0.013443511 0.014505673
-0.012023434 -0.045498855 0.0016310742 -0.0031676032 -0.027888818 0.022120794 -0.00014087316 -0.055308923
0.035527498 0.004526587 -0.0787454 0.0068754815 0.011795779 -0.036004983 0.009051844 -0.013039179
-0.036143713 0.039495982 -0.00028818808 -0.08076581 0.00698135 -0.0001888066 -0.041993767 -0.006710644
0.0011926417 -0.006404045 0.0060928967 1.7875005e-05 -0.019925822 0.009691117 0.009795352 -0.015520998
-0.02883101 0.0085367225 0.03867008 -0.05377174 4.9347e-40 0.041643906 -0.010283879 0.004818185
0.01416281 -0.026411414 0.014256617 0.030650824 -0.025310863 -0.0068707946 0.040743377 -0.022218028
0.0022928251 0.026521038 -0.0062420014 0.0021297333 0.001557737 0.0038240114 0.005950229 0.0038490405
-0.011221892 0.0024052542 0.010732365 0.01942772 0.001609987 -5.5160664e-05 0.030522734 0.01980107
-0.010124115 0.022680234 0.011853961 -0.0054480843 -0.016452512 0.008748928 0.034807764 -0.04279992

decoder.2.bias f4 [32]
00000000: 53d4 413e 49e6 a5bc a0f4 bcbc a81b 7cbc
00000010: 20c9 1f3d 7ebf bb3d 4f35 853c 16ff c63d
00000020: 4ca1 b53d fb29 47bd fa24 c73b ec1f 50bd
00000030: 3c99 e33d 914b 003d 4c61 43bd 3082 b53d
00000040: f1c5 633d a288 1e3d c7df b83d 52ac 8cbd
00000050: b1cc 183d d4e3 843d 0e74 6c3b ab1e c43b
00000060: 779e aabd 873b 44bc 3784 87bc f9f2 0b3e
00000070: 4909 e1bd be55 2dbb 8790 f43d 6d3b 86bc
0.18928652 -0.02025141 -0.023065865 -0.015387453 0.039010167 0.091673836 0.016260771 0.097166225
0.088686556 -0.04862402 0.006077406 -0.050811693 0.111132115 0.031322066 -0.04770021 0.08862722
0.055608694 0.038704522 0.09027057 -0.06868805 0.037304584 0.06488767 0.0036079916 0.005985101
-0.08331006 -0.011977083 -0.016542537 0.13666905 -0.10988099 -0.0026448811 0.11941629 -0.016385758
