Autoencoder CelebA Dataset/autoencoder_model_full8.pth (torch, 785318 bytes, 16 tensors)

encoder.0.weight f4 [16, 3, 3, 3]
4.9089e-40 4.96044e-40 4.92806e-40 4.91836e-40 4.91667e-40 4.90836e-40 4.91259e-40 4.92251e-40
4.92792e-40 4.93673e-40 -4.98896e-40 -4.9279e-40 4.96306e-40 -4.96678e-40 -4.90571e-40 4.98548e-40
-4.9661e-40 -4.92694e-40 4.98302e-40 -4.90642e-40 -4.95028e-40 4.99396e-40 -4.93537e-40 -4.96772e-40
4.98424e-40 -4.9486e-40 -4.91442e-40 0.078813955 0.091133066 0.0950517 0.08787325 0.10110209
0.11147619 0.04408546 0.13356143 0.110704616 -0.02655566 -0.03829343 0.01731751 -0.067566074
0.025314445 -0.03857443 -0.058781676 -0.0035690689 -0.015769891 0.17946425 0.21724392 0.2328305
0.17912482 0.21984676 0.23953556 0.1466964 0.213052 0.24107775 4.949e-40 4.98676e-40
4.94162e-40 4.94445e-40 4.92227e-40 4.92084e-40 4.95796e-40 4.97014e-40 4.92182e-40 -4.90868e-40
-4.91365e-40 -4.9897e-40 -4.90785e-40 -5.01272e-40 -4.98656e-40 -5.01697e-40 -5.01595e-40 -4.96236e-40
4.923e-40 5.0036e-40 4.9906e-40 -5.044e-40 5.02322e-40 4.91147e-40 -5.01556e-40 5.01928e-40
4.9455e-40 0.29750654 0.35806334 0.33214897 0.35694778 0.41397578 0.387346 0.33771014
0.40498358 0.37993318 0.080467045 0.12529972 0.10164234 0.11321111 0.16217935 0.13280171
0.11841811 0.16054133 0.13848172 -0.09785135 -0.07257585 -0.088213034 -0.08278794 -0.053409398
-0.07112215 -0.07607018 -0.045828972 -0.0621537 -0.019775907 -0.093345836 0.044765044 0.082976565
-0.0096710585 -0.07178001 -0.0022035092 -0.08738669 0.042845123 0.041104402 0.1818513 0.035559848
0.10732516 0.048584588 0.090498306 0.17553486 0.107372545 0.13260308 -0.0013962765 -0.17069116
-0.14472722 -0.080053635 -0.14910658 -0.14650092 -0.13743661 -0.12909368 -0.105611786 0.027662922
0.07923537 0.06555292 0.039391786 0.057122383 0.07101371 0.057622492 0.07041781 0.0633173
-0.014147825 -0.008373874 0.011377532 -0.03818749 0.02762666 0.0078817485 0.003040244 0.020565473
0.04311268 -0.0014864196 0.035222925 0.019304771 -0.01969224 -0.0059825643 0.041427083 0.01910058
0.040295493 -0.010527922 -4.93802e-40 -4.94905e-40 -4.939e-40 -4.92519e-40 -4.92257e-40 -4.93677e-40
-4.92107e-40 -4.93897e-40 -4.90475e-40 -4.93968e-40 -4.94717e-40 -4.93103e-40 -4.93434e-40 -4.91075e-40
-4.92598e-40 -4.95146e-40 -4.91e-40 -4.9114e-40 -4.90567e-40 -4.91011e-40 -4.91874e-40 -4.92328e-40
-4.90885e-40 -4.93805e-40 -4.94122e-40 -4.92107e-40 -4.94347e-40 0.015074208 0.038704675 0.06820692
-0.017459387 0.054543912 0.037673466 0.02862615 0.08216329 0.05567975 0.12884049 0.18090948
0.1577052 0.14997159 0.15920402 0.19777727 0.13787177 0.22847836 0.16736138 0.15702735
0.21752481 0.21062571 0.14748468 0.23543452 0.22898151 0.17347804 0.2658647 0.23714939
0.21902369 0.30433565 0.2758872 0.2969373 0.4011705 0.36217895 0.2961869 0.39117128
0.36158663 0.31577477 0.41764978 0.37610418 0.40544298 0.49480912 0.45904112 0.40055397
0.49822485 0.46557042 0.1240723 0.21284385 0.17535193 0.1898206 0.27381554 0.2440037
0.18608576 0.2761433 0.24747181 0.29009846 0.3377441 0.31415936 0.30848283 0.3705569
0.3232198 0.28341645 0.35615832 0.3289416 -0.15065296 -0.111720584 -0.124896 -0.13670127
00000000: 6758 0500 c566 0500 be5d 0500 0a5b 0500
00000010: 915a 0500 4058 0500 6e59 0500 325c 0500
00000020: b45d 0500 2960 0500 b86e 0580 b35d 0580
00000030: 8067 0500 8968 0580 8357 0580 c06d 0500
00000040: 5968 0580 6e5d 0580 106d 0500 b657 0580
00000050: f063 0580 1d70 0500 c85f 0580 cc68 0580
00000060: 676d 0500 7863 0580 f159 0580 3669 a13d
00000070: f9a3 ba3d 77aa c23d e4f6 b33d 9d0e cf3d
00000080: a14d e43d f592 343d 54c4 083e 1ab9 e23d
00000090: 418b d9bc 92d9 1cbd 73dd 8d3c 1560 8abd
000000a0: 3d60 cf3c 3900 1ebd 0ec5 70bd 0ae7 69bb
000000b0: dc2f 81bc 7ac5 373e 3175 5e3e 1e6b 6e3e
000000c0: 7f6c 373e 821f 613e cf48 753e 9537 163e
000000d0: 4e2a 5a3e 16dd 763e 9463 0500 1b6e 0500
000000e0: 8661 0500 5062 0500 215c 0500 bb5b 0500
000000f0: 1466 0500 7969 0500 015c 0500 5758 0580
00000100: ba59 0580 ed6e 0580 1c58 0580 5875 0580
00000110: 0d6e 0580 8776 0580 3e76 0580 4e67 0580
00000120: 555c 0500 cd72 0500 2d6f 0500 107e 0580
00000130: 4578 0500 1e59 0500 2276 0580 2c77 0500
00000140: 9b62 0500 c752 983e 1454 b73e 6e0f aa3e
00000150: dcc1 b63e a2f4 d33e 3752 c63e 58e8 ac3e
00000160: 025a cf3e 9a86 c23e e8cb a43d 924e 003e
00000170: dc29 d03d 3adb e73d 5812 263e 2cfd 073e
00000180: 3285 f23d f264 243e 27ce 0d3e 4a66 c8bd
00000190: a6a2 94bd 09a9 b4bd b98c a9bd d0c3 5abd
000001a0: 7da8 91bd afca 9bbd 29b7 3bbd e194 7ebd
000001b0: 1501 a2bc 1a2c bfbd 8d5b 373d 9eef a93d
000001c0: 5c73 1ebc 6601 93bd c068 10bb cbf7 b2bd
000001d0: 5e7e 2f3d 175d 283d 3a37 3a3e 34a7 113d
000001e0: 4bcd db3d a200 473d 2d57 b93d 69bf 333e
000001f0: 23e6 db3d 1ac9 073e 4403 b7ba aac9 2ebe
00000200: 5f33 14be 29f3 a3bd 65af 18be 5604 16be
00000210: 2fbc 0cbe 2231 04be fe4a d8bd 5a9d e23c
00000220: 2746 a23d 9c40 863d 4859 213d 29f9 693d
00000230: a36f 913d 9005 6c3d 3637 903d 80ac 813d
00000240: 47cc 67bc 9332 09bc d468 3a3c 7c6a 1cbd
00000250: 4e51 e23c 7322 013c d53e 473b ec78 a83c
00000260: ec96 303d f7d3 c2ba ea45 103d 0a25 9e3c
00000270: 9f51 a1bc 6309 c4bb 72af 293d d278 9c3c
00000280: e30c 253d 4e7d 2cbc 8560 0580 9863 0580
00000290: cb60 0580 f15c 0580 365c 0580 2c60 0580
000002a0: cb5b 0580 c960 0580 3f57 0580 fb60 0580
000002b0: 1263 0580 925e 0580 7e5f 0580 eb58 0580
000002c0: 2a5d 0580 4464 0580 b558 0580 1959 0580
000002d0: 8057 0580 bd58 0580 255b 0580 695c 0580
000002e0: 6358 0580 8760 0580 6961 0580 cb5b 0580
000002f0: 0a62 0580 d0f9 763c cb88 1e3d 12b0 8b3d
00000300: fd06 8fbc 7069 5f3d 7e4f 1a3d 6381 ea3c
00000310: 3a45 a83d 7310 643d c3ee 033e 5640 393e
00000320: 797d 213e 2792 193e 6106 233e 2086 4a3e
00000330: 422e 0d3e 3bf6 693e c860 2b3e c7cb 203e
00000340: d3be 5e3e 44ae 573e 3906 173e bf15 713e
00000350: 217a 6a3e 3aa4 313e 6b1f 883e 4ad7 723e
00000360: bf47 603e e2d1 9b3e 1641 8d3e 2a08 983e
00000370: 3866 cd3e 856f b93e cfa5 973e 9a47 c83e
00000380: e221 b93e 3bad a13e 31d6 d53e ba90 c03e
00000390: 3996 cf3e 9f57 fd3e 7007 eb3e 6915 cd3e
000003a0: 5417 ff3e 3f5f ee3e 9e19 fe3d bdf3 593e
000003b0: 758f 333e 5560 423e 8d31 8c3e 1bdc 793e
000003c0: 448d 3e3e a862 8d3e 4069 7d3e c987 943e
000003d0: cbec ac3e 7fd9 a03e 76f1 9d3e a2b9 bd3e
000003e0: 117d a53e f61b 913e 625a b63e 096b a83e
000003f0: c544 1abe c3cd e4bd 79c9 ffbd 6bfb 0bbe

encoder.0.bias f4 [16]
4.9328e-40 -0.071941175 4.92234e-40 0.0839377 0.6339887 -0.43175066 4.91134e-40 -0.05561078
-0.08378695 0.16437629 0.66593355 -0.06113072 0.06227268 0.5953982 0.65614766 0.24165578
00000000: 105f 0500 e555 93bd 265c 0500 87e7 ab3d
00000010: 154d 223f 6c0e ddbe 1559 0500 21c8 63bd
00000020: 7e98 abbd 4252 283e 9f7a 2a3f 3564 7abd
00000030: a311 7f3d 046c 183f 4bf9 273f 9d74 773e

encoder.2.weight f4 [32, 16, 3, 3]
4.91559e-40 -6.15887e-40 4.98614e-40 -5.32645e-40 -5.04291e-40 5.1239e-40 4.9499e-40 -4.95091e-40
-4.99487e-40 5.59642e-40 5.05806e-40 5.11893e-40 4.92062e-40 4.99826e-40 5.0558e-40 5.11742e-40
5.03014e-40 4.97572e-40 5.96105e-40 -5.759e-40 -6.04823e-40 5.88676e-40 -5.44913e-40 -5.00771e-40
-5.37603e-40 -6.2e-40 6.09038e-40 -4.90554e-40 -4.95199e-40 5.78033e-40 4.96266e-40 4.9737e-40
4.96556e-40 4.97932e-40 4.97273e-40 4.94074e-40 -5.11516e-40 -4.95662e-40 -5.0691e-40 5.04402e-40
5.22476e-40 4.97378e-40 5.20479e-40 4.98777e-40 -5.2428e-40 -5.21404e-40 5.27005e-40 5.23416e-40
-5.56558e-40 5.55888e-40 5.16072e-40 6.24228e-40 5.23193e-40 5.44229e-40 6.03494e-40 5.88087e-40
5.78677e-40 5.94372e-40 -5.68235e-40 5.35652e-40 6.1536e-40 -5.6596e-40 -5.76155e-40 -4.93316e-40
-4.96954e-40 -4.94193e-40 -4.9463e-40 -4.98628e-40 5.78236e-40 4.96253e-40 4.9081e-40 4.93223e-40
4.94874e-40 4.9299e-40 4.9535e-40 4.92181e-40 4.90669e-40 4.94228e-40 4.94936e-40 4.92844e-40
4.94088e-40 -4.92841e-40 -4.93778e-40 -5.0124e-40 -5.01024e-40 -4.9835e-40 -5.02961e-40 -4.94591e-40
-4.98078e-40 -4.93854e-40 5.02904e-40 4.9829e-40 4.97474e-40 5.04467e-40 -5.32227e-40 -6.25869e-40
-4.94946e-40 -4.93535e-40 -5.00946e-40 4.93694e-40 4.91996e-40 4.9363e-40 -5.88156e-40 -5.25008e-40
-4.95547e-40 -4.9201e-40 -4.9419e-40 -4.91727e-40 -5.39098e-40 -5.67356e-40 -5.58577e-40 -5.66755e-40
-6.06213e-40 -6.04695e-40 5.21171e-40 -5.31632e-40 -5.62868e-40 -5.13762e-40 5.56967e-40 5.11213e-40
5.00241e-40 4.99318e-40 4.94344e-40 5.06917e-40 4.92395e-40 5.05695e-40 -5.24098e-40 -5.74581e-40
-5.50305e-40 -4.97652e-40 -5.02986e-40 -6.30038e-40 -5.30599e-40 -4.92905e-40 -5.21772e-40 5.50646e-40
6.05061e-40 -5.93858e-40 4.99183e-40 -5.99562e-40 6.00347e-40 5.09626e-40 -5.88698e-40 5.71985e-40
5.35275e-40 5.40604e-40 4.93693e-40 5.28431e-40 5.52717e-40 5.1364e-40 -6.24482e-40 -5.6203e-40
5.254e-40 0.0008237403 0.0074151983 0.006744004 0.00055846316 0.010344454 0.010569505 0.0014805966
0.0111590605 0.016919568 -5.64372e-40 -5.2867e-40 5.50029e-40 5.78584e-40 -5.49781e-40 -5.94174e-40
5.46557e-40 6.29767e-40 5.49731e-40 0.0034960546 0.0081558125 0.0067711426 0.0034899858 0.010586085
0.009966497 0.0042814724 0.0104978215 0.01480189 0.011864943 0.012333806 0.013258311 0.013801941
0.013762434 0.015092726 0.013945255 0.013216321 0.013240307 0.006591681 0.0068341354 0.0058032833
0.0068549495 0.0074607194 0.0065685846 0.0060017784 0.0067686667 0.0070137023 4.96413e-40 4.9563e-40
-4.90759e-40 4.94136e-40 4.97509e-40 -4.90796e-40 5.05123e-40 5.0061e-40 -4.9158e-40 9.918824e-05
0.0076140603 0.007849318 0.00011438994 0.010904745 0.012336179 0.0013148105 0.011689001 0.018901175
0.001870597 0.008869969 0.008996479 0.00199349 0.012365572 0.01376589 0.0032633385 0.012902728
0.020479985 0.0064324816 0.010976653 0.009274705 0.006751343 0.013552549 0.0124010695 0.0072723078
0.013529236 0.016744616 0.01381751 0.019035097 0.019608611 0.0148906205 0.021594709 0.022912642
0.015489517 0.022034034 0.024873657 0.00054193416 0.008734846 0.009473793 0.0012388714 0.012828588
0.015102256 0.0024461474 0.013432988 0.02182582 -0.0018579714 -0.000626743 -0.0013942412 -0.0016309889
00000000: 445a 0500 d8b4 0680 ef6d 0500 cccc 0580
00000010: c27d 0580 5694 0500 d563 0500 1d64 0580
00000020: 5e70 0580 0e18 0600 fb81 0500 f392 0500
00000030: ab5b 0500 5071 0500 5a81 0500 8792 0500
00000040: 337a 0500 076b 0500 b37d 0600 6045 0680
00000050: 0096 0680 fd68 0600 ffee 0580 f273 0580
00000060: 9eda 0580 4fc0 0680 c0a1 0600 7757 0580
00000070: 6a64 0580 524b 0600 6367 0500 776a 0500
00000080: 3268 0500 086c 0500 326a 0500 4761 0500
00000090: e691 0580 b465 0580 0f85 0580 117e 0500
000000a0: 73b0 0500 7d6a 0500 e2aa 0500 636e 0500
000000b0: 7bb5 0580 76ad 0580 13bd 0500 12b3 0500
000000c0: 750f 0680 970d 0600 999e 0500 18cc 0600
000000d0: 73b2 0500 17ed 0500 4c92 0600 5967 0600
000000e0: 1e4d 0600 de78 0600 0230 0680 2ed5 0500
000000f0: 60b3 0600 ab29 0680 1646 0680 2a5f 0580
00000100: 4e69 0580 9c61 0580 d462 0580 f96d 0580
00000110: e34b 0600 5a67 0500 2e58 0500 e85e 0500
00000120: 8263 0500 415e 0500 d664 0500 005c 0500
00000130: c957 0500 b561 0500 ae63 0500 d95d 0500
00000140: 5161 0500 d75d 0580 7460 0580 4175 0580
00000150: a774 0580 326d 0580 0d7a 0580 b862 0580
00000160: 706c 0580 aa60 0580 e479 0500 086d 0500
00000170: c16a 0500 407e 0500 a2cb 0580 abd0 0680
00000180: b563 0580 c65f 0580 6f74 0580 3860 0500
00000190: 7c5b 0500 0a60 0500 8a67 0680 82b7 0580
000001a0: 6265 0580 865b 0580 9a61 0580 bc5a 0580
000001b0: c9de 0580 8f2d 0680 1615 0680 e22b 0680
000001c0: e099 0680 a595 0680 d0ac 0500 f9c9 0580
000001d0: 0c21 0680 2998 0580 9910 0600 0e91 0500
000001e0: 7872 0500 e56f 0500 0862 0500 1485 0500
000001f0: 995c 0500 ac81 0500 f9b4 0580 b341 0680
00000200: 07fe 0580 406b 0580 1f7a 0580 4adc 0680
00000210: 18c7 0580 055e 0580 7dae 0580 fafe 0500
00000220: aa96 0600 6f77 0680 856f 0500 5687 0680
00000230: 8689 0600 a18c 0500 0d69 0680 763a 0600
00000240: 21d4 0500 fce2 0500 3760 0500 0dc1 0500
00000250: c004 0600 d297 0500 cdcc 0680 b61e 0680
00000260: 9ab8 0500 47f0 573a 31fb f23b cefc dc3b
00000270: d465 123a c97b 293c b82b 2d3c 9410 c23a
00000280: 7ed4 363c e89a 8a3c 3d25 0680 b8c1 0580
00000290: 42fd 0500 db4c 0600 91fc 0580 5178 0680
000002a0: 94f3 0500 89db 0600 6dfc 0500 101e 653b
000002b0: f59f 053c 76e0 dd3b 3fb8 643b 4271 2d3c
000002c0: 854a 233c 984b 8c3b 0eff 2b3c a083 723c
000002d0: 2e65 423c bb13 4a3c 6339 593c 8921 623c
000002e0: d57b 613c 7b47 773c a47a 643c 4589 583c
000002f0: dfed 583c 07ff d73b e2f0 df3b 7829 be3b
00000300: 7c9f e03b 0d79 f43b 483d d73b 91aa c43b
00000310: b1cb dd3b 33d3 e53b cc67 0500 9d65 0500
00000320: 0958 0580 7361 0500 da6a 0500 2458 0580
00000330: 1480 0500 7f73 0500 535a 0580 4803 d038
00000340: 5e7f f93b 6d9a 003c a2e4 ef38 d1a9 323c
00000350: af1d 4a3c b855 ac3a 3983 3f3c a3d6 9a3c
00000360: d22e f53a 5953 113c f865 133c 36a5 023b
00000370: f898 4a3c 548a 613c bcdd 553b f765 533c
00000380: a4c5 a73c 91c7 d23b 6bd7 333c eff4 173c
00000390: 5f3a dd3b 830b 5e3c db2d 4b3c 8a4c ee3b
000003a0: bba9 5d3c 012c 893c d662 623c 7eef 9b3c
000003b0: 3da2 a03c caf7 733c 63e7 b03c 4bb3 bb3c
000003c0: bec7 7d3c b880 b43c d7c3 cb3c 9610 0e3a
000003d0: 991c 0f3c f837 1b3c a061 a23a ff2e 523c
000003e0: 746f 773c 8b4f 203b 0916 5c3c 10cc b23c
000003f0: 2d87 f3ba 034c 24ba f9be b6ba e8c6 d5ba

encoder.2.bias f4 [32]
-4.90977e-40 0.0241384 0.24571206 0.062464006 0.025875011 -0.014063827 4.91266e-40 0.026376255
0.25312537 0.2639319 0.10136939 0.022614872 4.94525e-40 -4.93292e-40 4.9338e-40 -0.110379755
0.20412564 4.93976e-40 0.03561766 0.06060959 0.16381574 0.009200152 -0.013726697 4.95091e-40
0.06997474 4.9314e-40 -4.9355e-40 -0.017839363 -0.022318242 -0.015963951 0.02188059 -0.011516558
00000000: a558 0580 e5bd c53c f19b 7b3e 42da 7f3d
00000010: d5f7 d33c f76b 66bc 7359 0500 0413 d83c
00000020: a699 813e 1522 873e c19a cf3d d342 b93c
00000030: 8962 0500 195f 0580 585f 0500 c80e e2bd
00000040: 5006 513e 0161 0500 d3e3 113d c341 783d
00000050: 50bf 273e 3cbc 163c f1e5 60bc 1d64 0500
00000060: eb4e 8f3d ac5e 0500 d15f 0580 db23 92bc
00000070: bfd4 b6bc d5c6 82bc ec3e b33c f2af 3cbc

encoder.4.weight f4 [64, 32, 3, 3]
5.47818e-40 -5.41194e-40 -5.10305e-40 -5.01626e-40 4.85116e-40 -6.23281e-40 3.25403e-40 5.8146e-40
-5.05014e-40 0.0012795514 0.008188722 0.003201135 0.0004494863 0.0046416256 0.005946572 -0.0020249633
-0.0029887564 0.012784137 0.025019312 0.05210837 0.072593816 0.046910286 0.07328151 0.09093854
0.04496759 0.04917547 0.08079593 0.009416002 0.014583055 -0.012355399 -0.037668064 0.006654584
-0.026794728 -0.054237705 0.052284192 -0.0037433826 0.0013284233 0.008533241 0.0037982273 0.00111714
0.005835305 0.0066091637 -0.0019385301 -0.0029095903 0.013748262 -0.0071945176 -0.0002617362 -0.035335653
-0.015892467 -0.026741555 -0.032902762 -0.038931195 -0.06705811 -0.0018588223 3.13318e-40 3.4796e-40
4.77487e-40 -5.11488e-40 -5.7949e-40 4.31102e-40 -6.29943e-40 4.80655e-40 -4.09409e-40 0.00073864724
0.0014703327 0.0018338411 0.0024808974 0.0046192757 0.0018389405 0.0063918773 0.01026721 0.002306344
-0.005690564 0.0085646715 0.026465077 0.0031103825 0.02322679 0.02386938 0.011619179 0.036511555
0.019770203 -0.0028034607 0.012997182 0.032290425 0.005575868 0.020835172 0.030367209 0.020863805
0.037014324 0.024604002 -0.0069869305 -0.00608023 0.0066668745 0.0048652673 0.030449199 0.008449479
-0.008307636 0.021095395 0.004236498 0.017939676 0.024706068 -0.013173194 -0.022803651 -0.017688632
-0.0083652735 -0.020641133 0.0166896 0.020120965 -4.94302e-40 -5.1511e-40 -6.18435e-40 -5.00181e-40
4.73904e-40 -6.2093e-40 4.97764e-40 5.88416e-40 -5.8887e-40 5.3501e-40 -4.99377e-40 5.14628e-40
5.23997e-40 5.26605e-40 -5.23922e-40 5.1087e-40 5.98504e-40 -5.2573e-40 5.47398e-40 5.72328e-40
-5.98382e-40 -6.07078e-40 -5.05893e-40 5.71091e-40 -5.96114e-40 4.92646e-40 -5.46945e-40 -0.0028870709
-0.0019081939 -0.010859952 0.00030937642 -0.00034363422 -0.012161988 -0.0012062636 -0.00390753 -0.0038363812
-0.008140454 0.0030994997 0.019383498 0.00864221 0.034583516 0.024859425 0.0062872395 0.021629622
0.014965077 -5.10129e-40 -6.00982e-40 -5.31536e-40 -5.2568e-40 -5.87372e-40 -5.52711e-40 -6.10191e-40
2.93463e-40 -5.65424e-40 0.021172946 0.035795093 0.007157613 -0.0057594636 0.0560329 0.015634267
-0.0630346 0.044042148 0.04367566 -0.00713358 0.0073378533 0.0123749925 0.04370664 -0.027997984
0.05141777 0.077978514 -0.10705916 0.05494276 -0.005002917 0.0027569677 0.011576973 0.0037044398
0.020246917 0.020329757 0.019212715 0.026934313 0.012717789 0.013747233 0.016824452 0.019559808
0.01299354 0.014803716 0.03379852 0.0022589741 -0.0033844416 0.035485286 0.009108056 0.013967164
-0.00058474205 0.013181366 -0.051872805 0.0280469 0.013651089 -0.12910041 0.040699136 -6.821e-41
4.00376e-40 5.95106e-40 1.24923e-40 2.83498e-40 6.88578e-40 5.44725e-40 -4.18575e-40 9.76395e-40
-0.0015229038 0.0024752642 -0.0036562611 -0.025830446 0.03394432 -0.027029902 -0.05789651 0.05696677
-0.021055223 -5.23559e-40 -5.10801e-40 5.51932e-40 -6.05812e-40 -5.17202e-40 5.15641e-40 -6.02553e-40
5.30691e-40 -5.13544e-40 -5.84728e-40 -5.51663e-40 -5.27799e-40 5.77739e-40 5.52015e-40 -5.23951e-40
5.11363e-40 5.09848e-40 5.72757e-40 0.005554754 0.013494292 -0.014667807 -0.008294838 -0.026664045
0.0130189005 -0.06192944 -0.12406569 0.030173315 -0.002312513 0.0049574794 -0.024132358 -0.0028269433
00000000: 18f7 0500 a1e4 0580 868e 0580 5476 0580
00000010: 4e48 0500 74c9 0680 178b 0300 e054 0600
00000020: c67f 0580 9fb6 a73a fd29 063c 22ca 513b
00000030: 08a9 eb39 c718 983b 76db c23b 3fb5 04bb
00000040: 03df 43bb 8f74 513c 4df5 cc3c 966f 553d
00000050: 11ac 943d 0025 403d 9e14 963d fc3d ba3d
00000060: f02f 383d 386c 493d 5678 a53d 9345 1a3c
00000070: c4ed 6e3c 4d6e 4abc d449 1abd b20e da3b
00000080: 9e80 dbbc 5b28 5ebd f327 563d 8a53 75bb
00000090: 7d1e ae3a 02cf 0b3c aeeb 783b 006d 923a
000000a0: 1636 bf3b af91 d83b 4716 feba d3ae 3ebb
000000b0: 6440 613c fdbf ebbb a339 89b9 1ebc 10bd
000000c0: eb30 82bc 1b11 dbbc 0cc5 06bd 5176 1fbd
000000d0: c355 89bd baa3 f3ba 6769 0300 f9c9 0300
000000e0: 0a33 0500 d291 0580 624f 0680 bdb1 0400
000000f0: 06dc 0680 df3b 0500 4475 0480 c7a1 413a
00000100: 2eb8 c03a 7f5d f03a 8d96 223b 4b5d 973b
00000110: 9b08 f13a f472 d13b cd37 283c 0826 173b
00000120: e977 babb d652 0c3c 4acd d83c 8fd7 4b3b
00000130: 1c46 be3c b889 c33c 5e5e 3e3c 248d 153d
00000140: 1ff5 a13c 44ba 37bb 22f2 543c f742 043d
00000150: c5b5 b63b 86ae aa3c a7c4 f83c 92ea aa3c
00000160: 559c 173d 558e c93c 9ff2 e4bb ab3c c7bb
00000170: cc75 da3b d26c 9f3b 9970 f93c af6f 0a3c
00000180: c01c 08bc 40d0 ac3c 52d2 8a3b 3af6 923c
00000190: 6164 ca3c 61d4 57bc b9ce babc c0e7 90bc
000001a0: 800e 09bc 9817 a9bc a1b8 883c b9d4 a43c
000001b0: ea61 0580 eb9b 0580 f2bb 0680 4d72 0580
000001c0: 0d29 0500 e6c2 0680 906b 0500 4468 0600
000001d0: 8869 0680 64d3 0500 0f70 0580 939a 0500
000001e0: b1b4 0500 f6bb 0500 7bb4 0580 1990 0500
000001f0: 6384 0600 85b9 0580 ecf5 0500 6b3b 0600
00000200: 0c84 0680 499c 0680 3982 0580 f837 0600
00000210: b97d 0680 4c5d 0500 a9f4 0580 0335 3dbb
00000220: 5d1c faba f1ed 31bc cd33 a239 ce29 b4b9
00000230: 1343 47bc 7d1b 9eba bd0a 80bb cc6b 7bbb
00000240: 8a5f 05bc fa20 4b3b 24ca 9e3c 0e98 0d3c
00000250: 72a7 0d3d fea5 cb3c 3005 ce3b 9b30 b13c
00000260: 1530 753c 088e 0580 4b8b 0680 b5c9 0580
00000270: 62b9 0580 5b65 0680 bc04 0680 f7a4 0680
00000280: 0e32 0300 2c28 0680 e372 ad3c e09d 123d
00000290: 698a ea3b e2b9 bcbb c182 653d 6f13 803c
000002a0: 4918 81bd 8a65 343d 40e5 323d cec0 e9bb
000002b0: 6072 f03b 7bc0 4a3c bc05 333d 075c e5bc
000002c0: 719b 523d 33b3 9f3d d541 dbbd a90b 613d
000002d0: 82ef a3bb 3eae 343b 58ad 3d3c 30c6 723b
000002e0: dddc a53c 978a a63c fc63 9d3c 59a5 dc3c
000002f0: 465e 503c 133c 613c 6fd3 893c e43b a03c
00000300: dbe2 543c 498b 723c 5170 0a3d 4c0b 143b
00000310: 82cd 5dbb 0559 113d f539 153c 88d6 643c
00000320: 6049 19ba a8f6 573c 9478 54bd 9dc2 e53c
00000330: d1a8 5f3c e632 04be 23b4 263d 24be 0080
00000340: 165c 0400 ea7a 0600 3c5c 0100 4716 0300
00000350: 7a7f 0700 79ee 0500 d18e 0480 cba1 0a00
00000360: 2c9c c7ba 0b38 223b e29d 6fbb 5f9a d3bc
00000370: 3309 0b3d d06d ddbc e424 6dbd fd55 693d
00000380: 017c acbc 78b3 0580 e88f 0580 9002 0600
00000390: c298 0680 c0a1 0580 669d 0500 ac8f 0680
000003a0: 5ac7 0500 8d97 0580 fc5d 0680 d001 0680
000003b0: 4abf 0580 804a 0600 cb02 0600 90b4 0580
000003c0: 7991 0500 408d 0500 9d3c 0600 a704 b63b
000003d0: 2a17 5d3c 3e51 70bc 12e7 07bc 8e6e dabc
000003e0: 3a4d 553c b9a9 7dbd 2716 febd 072e f73c
000003f0: 888d 17bb 5a72 a23b 39b1 c5bc 3d44 39bb

encoder.4.bias f4 [64]
0.013669626 0.0035774088 0.011605986 0.026440205 -4.96259e-40 0.012984491 0.0015789255 0.0080886055
-0.0015351718 -0.08253836 0.011994073 0.02065853 0.00190256 0.00014220827 0.003918963 0.0017857156
0.009718448 0.002645305 0.0038576606 -1.574935e-09 1.6618493e-05 -0.0047150785 -0.04606282 0.0023667323
0.009708473 2.5436884e-22 4.031926e-27 0.013922568 -0.0006942344 -0.0011608106 0.00085217244 0.0022132667
0.007858788 0.02346744 0.0022028976 5.6412002e-05 0.045046605 0.011122865 1.0847106e-26 -0.044467993
0.00026056007 0.0033793186 0.041911744 -3.5197849e-07 0.005989026 0.00094029884 0.011298552 0.0015000018
0.014921971 0.00928856 0.014862769 5.2564366e-13 -1.631071e-25 0.0006305907 0.006840739 0.021931795
-1.6133303e-11 0.00012258177 -0.00020818967 0.013069343 -0.0034283544 -0.0014804972 0.004157972 0.009782625
00000000: 91f6 5f3c f672 6a3b 0927 3e3c 2199 d83c
00000010: 5e67 0580 e7bc 543c f3f3 ce3a 1286 043c
00000020: d137 c9ba df09 a9bd ca82 443c 143c a93c
00000030: 525f f93a be1d 1539 a56a 803b ac0e ea3a
00000040: 203a 1f3c da5c 2d3b ced0 7c3b 1975 d8b0
00000050: f167 8b37 f280 9abb 5eac 3cbd 2e1b 1b3b
00000060: 4a10 1f3c acc1 991b 96b8 9f13 7c1b 643c
00000070: 48fd 35ba 5726 98ba 5364 5f3a 740c 113b
00000080: 25c2 003c ca3e c03c 7d5e 103b ed9b 6c38
00000090: ca82 383d ad3c 363c 5dd9 5614 1224 36bd
000000a0: c89b 8839 8f77 5d3b a6ab 2b3d 8ef7 bcb4
000000b0: 973f c43b 637e 763a 901d 393c b59b c43a
000000c0: 487b 743c 0b2f 183c f982 733c 9ef4 132b
000000d0: b4ea 4996 3a4e 253a 4728 e03b 4faa b33c
000000e0: f8e8 8dad 4b89 0039 7d4d 5ab9 cc20 563c
000000f0: 3eae 60bb 3e0d c2ba 993f 883b 4e47 203c

encoder.6.weight f4 [128, 64, 3, 3]
-0.001925994 -0.000587543 -0.0033642538 0.0029250104 0.004106997 0.002865568 -0.0015941368 8.167156e-05
0.00216198 0.005968395 0.004415778 0.0030179368 0.005154749 0.003355154 0.0018557505 0.0045823804
0.0028930076 0.0013357387 0.0006698365 -0.0034339693 -0.002813846 -0.0018081283 -0.0050779427 -0.0023632532
-0.0012774456 0.002665569 -0.00044668157 -0.011015336 -0.01733167 -0.021678159 -0.017618919 -0.024461452
-0.02893018 -0.01947063 -0.026175437 -0.031047251 -4.9897e-40 -4.94189e-40 -4.92674e-40 -4.9268e-40
-5.02859e-40 -4.92349e-40 -5.0117e-40 -4.92503e-40 -5.01989e-40 0.0010423298 0.00041451884 0.00045941584
0.00037083848 1.584643e-05 0.00093910133 0.0013740041 0.0004542419 0.0012851979 -7.246445e-05 -7.647673e-05
-4.832351e-05 3.664196e-06 -2.1418131e-07 3.9596944e-05 0.00036967205 0.00039140342 0.00045080786 0.008714538
0.0022502723 0.007450223 0.016184561 0.015367867 0.019701099 0.022595096 0.024313495 0.02218537
-0.003780176 -0.0039373026 -0.003231844 -0.0029906046 -0.0035949647 -0.0018085128 0.00026359363 -3.7589736e-05
0.0015112149 0.010203813 0.0065960884 0.0068738717 0.017312046 0.016738992 0.013957761 0.023132846
0.023310939 0.02979678 0.005433859 0.0054251733 0.0051707323 0.0036580919 0.0039355797 0.005292142
0.008044806 0.009690877 0.008671393 -0.0037918256 -0.004339635 -0.007060383 -0.008908906 -0.0133828055
-0.014939316 -0.007494754 -0.011263273 -0.014896304 0.00028084894 0.00017474467 0.00026759086 -3.4091165e-05
-0.00012161264 -5.697871e-05 0.00011184139 0.000102339785 0.00018956226 0.00017463257 8.248959e-05 4.499081e-05
-3.2990036e-05 -8.803249e-05 -0.00013321088 -1.5531938e-05 -8.130219e-05 -0.000111678404 0.005747992 0.004201805
0.0025439544 0.004937363 0.0029017287 0.0011446747 0.0042908574 0.0023831779 0.0004985144 0.0061403313
0.013428986 0.016230216 0.0047315382 -0.0020660656 0.0036418638 0.0015465957 0.00414761 0.008225331
0.0006634982 0.0021512138 -0.0007630165 -0.0044198977 -0.0040638824 -0.0047914307 0.0037386562 0.0016626341
0.0016055912 -0.00011729921 0.00023668785 0.00033628888 -0.0005526107 -0.00033226178 -0.00016709624 -9.109065e-05
-4.7460075e-05 0.00010734842 0.008038386 0.0066537703 0.0048725423 0.007353109 0.0058237067 0.003933006
0.0065552755 0.0049384884 0.0030515385 -3.6027318e-12 1.39924634e-11 9.896624e-12 -9.972259e-12 -1.6545629e-13
-9.209143e-12 6.267496e-11 1.5835794e-11 5.6817998e-11 -1.0602345e-06 -1.3850878e-06 -1.4336223e-06 -7.6204934e-08
-9.248885e-09 3.8150907e-07 3.728577e-06 3.911104e-06 4.4791777e-06 0.010325896 0.004895987 0.002528101
0.009792967 0.007119099 0.0031521975 0.00673942 0.004896931 0.0037421475 0.008439676 0.016685437
0.011641232 0.0095114065 0.018110657 0.017198354 0.03433847 0.037928462 0.045051012 0.00049787643
0.00039785594 0.00062068505 -1.0023066e-05 -0.00011854637 -1.0612869e-05 0.0005065143 0.00044341027 0.0007128354
0.0015200336 0.0011092469 0.0003317297 0.0023432598 0.00052397954 0.0007791092 0.0017290508 0.0012653831
0.003912818 1.1364077e-23 3.6418548e-25 3.0812357e-25 -1.493218e-35 2.2320689e-35 2.1794073e-35 -5.432101e-25
-6.303602e-25 2.0164727e-35 6.55655e-30 -6.7547705e-30 9.796579e-30 3.369096e-30 5.6137364e-31 -3.708847e-30
-1.2342843e-30 2.8546884e-30 -2.0667516e-31 0.004632665 0.0022126446 0.0010609537 -0.0050589205 -0.004625609
-0.006602209 0.0016057435 0.00279302 0.00420213 0.0050873864 -0.004554647 0.0029749013 -0.0018370998
00000000: a271 fcba 5805 1aba d07a 5cbb 88b1 3f3b
00000010: fd93 863b 41cc 3b3b 5bf2 d0ba 1647 ab38
00000020: 01b0 0d3b 8792 c33b 3bb2 903b 94c8 453b
00000030: 2be9 a83b 25e2 5b3b a73c f33a cb27 963b
00000040: 9d98 3d3b f413 af3a f797 2f3a 720c 61bb
00000050: 8168 38bb b8fe ecba df64 a6bb cfe0 1abb
00000060: f66f a7ba d4b0 2e3b 9630 eab9 ab79 34bc
00000070: 25fb 8dbc 6596 b1bc 8d55 90bc 6263 c8bc
00000080: fcfe ecbc df80 9fbc df6d d6bc ce56 febc
00000090: ed6e 0580 9961 0580 605d 0580 645d 0580
000000a0: c479 0580 785c 0580 0f75 0580 e65c 0580
000000b0: 5777 0580 c99e 883a c753 d939 c0dd f039
000000c0: 196d c239 f3ed 8437 062e 763a ed17 b43a
000000d0: 5127 ee39 1674 a83a 0ef8 97b8 2262 a0b8
000000e0: f9ae 4ab8 68e6 7536 b6f9 65b4 e514 2638
000000f0: 8bd0 c139 4735 cd39 685a ec39 6cc7 0e3c
00000100: 4e79 133b 0021 f43b 7c95 843c 82c9 7b3c
00000110: 3364 a13c 5a19 b93c 182d c73c 18be b53c
00000120: d4bc 77bb 7d04 81bb 58cd 53bb 05fe 43bb
00000130: 8099 6bbb 9f0b edba f032 8a39 aca9 1db8
00000140: f513 c63a e52d 273c 0024 d83b 373e e13b
00000150: fed1 8d3c 3620 893c 18af 643c 1881 bd3c
00000160: 95f6 be3c 6018 f43c 830e b23b a7c5 b13b
00000170: 3f6f a93b 99bc 6f3b 09f6 803b b469 ad3b
00000180: 5dce 033c 7cc6 1e3c 7512 0e3c 4780 78bb
00000190: 7f33 8ebb c95a e7bb a9f6 11bc 8e43 5bbc
000001a0: 08c4 74bc 8e96 f5bb 9789 38bc a10f 74bc
000001b0: e83e 9339 aa3b 3739 704b 8c39 1cfd 0eb8
000001c0: 4a0a ffb8 6dfc 6eb8 648c ea38 419f d638
000001d0: 3bc5 4639 931d 3739 43fe ac38 84b4 3c38
000001e0: c85e 0ab8 159e b8b8 86ae 0bb9 954a 82b7
000001f0: c880 aab8 e334 eab8 a759 bc3b 4caf 893b
00000200: 79b8 263b 9ac9 a13b ee2a 3e3b e908 963a
00000210: 529a 8c3b 172f 1c3b bcae 023a d534 c93b
00000220: 4005 5c3c 3bf5 843c 050b 9b3b d466 07bb
00000230: 56ac 6e3b 24b7 ca3a ade8 873b 8ac3 063c
00000240: 9cee 2d3a 61fb 0c3b 2c05 48ba cad4 90bb
00000250: 512a 85bb 6f01 9dbb 3e04 753b beec d93a
00000260: b372 d23a 89fe f5b8 692f 7839 ee4f b039
00000270: 14dd 10ba 6c33 aeb9 8e36 2fb9 ec07 bfb8
00000280: de0f 47b8 3f20 e138 6fb3 033c df07 da3b
00000290: d9a9 9f3b 59f2 f03b cbd4 be3b 72e0 803b
000002a0: a3cd d63b 0bd3 a13b 52fc 473b 0c85 7dac
000002b0: 7428 762d 6f1a 2e2d 106f 2fad 8749 3aaa
000002c0: 4b02 22ad ded2 892e 0a4b 8b2d 61e3 792e
000002d0: 614d 8eb5 41e7 b9b5 e36a c0b5 1ba6 a3b3
000002e0: 07e5 1eb2 35d2 cc34 7738 7a36 213c 8336
000002f0: d84b 9636 f22d 293c 846e a03b 7fae 253b
00000300: ae72 203c 5547 e93b 1995 4e3b 5ad6 dc3b
00000310: 6f76 a03b d13e 753b 9146 0a3c e6af 883c
00000320: deba 3e3c bbd5 1b3c cd5c 943c 90e3 8c3c
00000330: 7fa6 0c3d e05a 1b3d 6987 383d ec83 023a
00000340: 5297 d039 78b5 223a be28 28b7 199c f8b8
00000350: ed0d 32b7 99c7 043a 8579 e839 93dd 3a3a
00000360: dd3b c73a 2664 913a 02ec ad39 6091 193b
00000370: ac5b 093a 223d 4c3a 51a1 e23a 36db a53a
00000380: 1937 803b 2fd0 5b19 7e6b e116 21b8 be16
00000390: 43c9 9e85 b25a ed05 1cc1 e705 8a1d 2897
000003a0: 4816 4397 9c6d d605 8efb 040f c600 098f
000003b0: bfb2 460f b1aa 880e 192d 360d df72 968e
000003c0: 2a46 c88d 8f99 670e cd23 868c 9ccd 973b
000003d0: 0402 113b b30f 8b3a 4dc5 a5bb 6c92 97bb
000003e0: 5857 d8bb d077 d23a 1a0b 373b 05b2 893b
000003f0: 17b4 a63b 263f 95bb 90f6 423b d7ca f0ba

encoder.6.bias f4 [128]
-0.013167963 0.0015976458 -0.010401794 0.0013577687 -0.00052866846 -0.0025760492 -0.00018794241 0.0001800778
-0.010132274 0.0071833855 0.0014702971 0.0014645535 0.0007208885 0.0062204315 -0.0033435568 -0.0068830177
0.0011156999 -0.0018532741 0.0031248562 -0.002373545 0.0023767927 -0.0018166605 -0.00083198614 -0.0037630044
-0.0010861167 -0.0007329478 0.004042836 0.0021265608 -0.042441837 -0.0039382526 -0.0070152874 0.0019103333
-5.171492e-06 0.0034437466 -0.0037818758 0.0014534323 0.0022333276 0.0038084704 -0.002446211 -0.0065913345
0.00357717 -0.00051761896 0.0019404538 0.0013617183 -0.015463792 0.003849798 0.004990894 -0.005830504
-0.0039353045 -0.0030676832 0.009829816 0.006292056 0.00089442293 -0.0009019925 -0.0003137961 2.2942499e-10
0.002345286 0.0006526032 0.0038254969 -0.00013951564 0.005159491 -0.002735951 0.009743869 -0.011645693
0.0017384291 1.2644421e-05 0.0043235724 0.0037252298 0.00290351 0.0027428623 -0.0011060605 -0.0058997995
0.0026285641 -0.0085061705 -0.00012669849 0.009156569 0.0012564871 0.0021848832 0.006137836 0.043499846
0.004168458 -0.0019512622 0.0088128615 0.0059670657 -8.573282e-12 0.012422865 -0.0053246105 -0.0015215672
0.0017036606 0.00548445 -0.001382498 -0.0023072318 -0.00028246167 0.0045559923 0.0023622299 -0.004917761
6.342996e-06 0.009606482 0.000324271 0.0059055146 -0.0038753098 0.0043700314 0.0064154244 0.004180667
-1.7915629e-06 0.0024003813 0.002855903 -0.0011694696 -0.003210996 0.0018310383 -0.00022488897 0.00029147117
-0.003557538 0.0056025805 -0.0054623378 0.001081304 -0.005839669 -0.0111281155 -5.3433636e-05 0.0019701284
-0.0024324094 -0.0008496924 0.0015618972 0.0077644787 0.0013879751 -0.0015696478 -0.002665078 -0.0008737539
00000000: 71be 57bc 1968 d13a 496c 2abc 28f7 b13a
00000010: 5796 0aba efd2 28bb 6812 45b9 44d3 3c39
00000020: d601 26bc 9b62 eb3b fcb6 c03a 43f6 bf3a
00000030: 02fa 3c3a c3d4 cb3b 931f 5bbb f08a e1bb
00000040: ad3c 923a 8fe9 f2ba 63ca 4c3b 7a8d 1bbb
00000050: f7c3 1b3b 031d eeba a519 5aba bd9c 76bb
00000060: 075c 8eba 4b23 40ba c479 843b c55d 0b3b
00000070: 7ed7 2dbd 750c 81bb 7fe0 e5bb 2664 fa3a
00000080: c786 adb6 7bb0 613b 59d9 77bb 1881 be3a
00000090: 055d 123b 8897 793b 9c50 20bb 1ffc d7bb
000000a0: f46e 6a3b d2b0 07ba d356 fe3a af7b b23a
000000b0: d85b 7dbc e54c 7c3b a78a a33b d00d bfbb
000000c0: baf3 80bb 2f0b 49bb 3d0d 213c 972d ce3b
000000d0: b577 6a3a b173 6cba 0085 a4b9 6541 7c2f
000000e0: 5fb3 193b 7613 2b3a 30b5 7a3b f24a 12b9
000000f0: f310 a93b a44d 33bb c0a4 1f3c 94cd 3ebc
00000100: 00dc e33a 6023 5437 c1ac 8d3b fc22 743b
00000110: d048 3e3b 98c1 333b 3bf9 90ba 1b53 c1bb
00000120: fd43 2c3b 775d 0bbc 5eda 04b9 6f05 163c
00000130: b6b0 a43a 4230 0f3b e61f c93b e52c 323d
00000140: 8f97 883b 7fc1 ffba d263 103c 6087 c33b
00000150: a1d2 16ad 4689 4b3c 127a aebb 536f c7ba
00000160: 5d4d df3a e7b6 b33b ef34 b5ba ed34 17bb
00000170: 5d17 94b9 6f4a 953b a4cf 1a3b 2b25 a1bb
00000180: ecd5 d436 8264 1d3c eb02 aa39 0c83 c13b
00000190: e9f8 7dbb 7b32 8f3b 7b38 d23b fafd 883b
000001a0: a275 f0b5 b74f 1d3b 1a2a 3b3b e348 99ba
000001b0: 936f 52bb 73ff ef3a 2cd0 6bb9 99d0 9839
000001c0: 9525 69bb da95 b73b 69fd b2bb 8bba 8d3a
000001d0: b25a bfbb b352 36bc ee1d 60b8 451d 013b
000001e0: 0f69 1fbb e4bd 5eba 93b8 cc3a 2b6d fe3b
000001f0: b7ec b53a a4bc cdba 97a8 2ebb a20c 65ba

decoder.0.weight f4 [128, 64, 3, 3]
-0.0027070397 5.5926e-40 0.0062968154 -0.010500003 0.0024830145 -0.008091684 0.0039340714 5.79646e-40
-0.0026265697 -0.005541096 0.0053895814 0.004467758 0.0036991404 0.0016570266 0.0044411435 0.0031271528
-0.00031243433 -0.0025422513 -0.0019466938 0.007446003 -0.0014286949 -0.0008170154 0.009541991 0.0017987133
-0.0025263743 0.00667405 0.000100017474 -0.012205139 -0.023044629 -0.0034080076 -0.024146069 -0.027600126
-0.015180868 -0.0154293515 -0.024006756 -0.018989787 -2.2749793e-05 0.0031243374 6.168942e-05 -2.88957e-11
0.001755239 9.540736e-12 0.00020190851 0.0067299786 0.0032308293 0.0014926912 -0.0014902741 0.0014786016
-0.00010783796 0.0014402131 0.0037992771 0.0018168741 0.0008319908 0.009143146 0.00018281875 0.0010503673
0.000955574 0.017476575 0.017083215 0.013795958 -0.0025114121 -0.001004207 -0.0023464726 -1.4609429e-35
0.031295728 6.152178e-36 4.98438e-40 0.030520989 4.95743e-40 4.1163973e-35 0.02774855 1.4381562e-35
-4.92918e-40 0.004632753 4.92004e-40 0.009917221 0.021243725 0.014203607 -4.90937e-40 0.011268974
-4.9476e-40 -0.010711981 -0.0054943445 -0.008908189 -0.00789984 -0.0029737728 -0.013349224 0.015122693
0.0045129037 0.017096275 9.978097e-07 0.01099624 1.4202058e-07 0.0092669185 0.016135484 0.003868874
2.82261e-08 0.005460862 -1.044235e-06 -0.002909934 0.00022442147 -0.003278042 0.00026972644 -1.1753067e-09
0.00030808616 -0.0025714035 0.004750007 -0.0018765655 0.008675508 0.0030510584 0.0053718397 0.010766005
0.00527133 0.017237687 0.011044902 0.0023020296 0.016824657 0.01000584 0.007073757 0.007895512
0.005375549 0.015927048 0.005586262 0.022322286 0.015175538 0.03299177 -0.0030059677 0.0034319502
-0.0011482242 -0.0030378797 0.01494374 -0.00094909855 -0.00032886097 0.0025532278 0.005371618 -3.8484054e-06
0.0012209994 -1.7803044e-06 0.00014379116 0.00023702063 -0.0024032698 -1.5450918e-05 0.00044335748 -1.0144481e-05
-2.313019e-35 5.51452e-40 4.3547165e-36 -0.0011548827 0.00024258372 0.0065146363 6.399677e-35 5.0076e-40
-1.6746077e-36 0.010866659 0.009472129 -0.004683481 0.014248156 0.011098715 -0.0045921127 0.014837627
0.0135122705 -0.0029521512 0.0063480614 0.0005286157 0.0037712099 3.5609299e-34 0.038173724 9.221082e-33
0.012759061 0.0025888928 0.013951247 -6.91299e-05 0.00088103185 -7.7169694e-05 -0.003860073 -6.0627987e-35
-0.0036659525 -0.000112470916 0.00085561885 -0.00012448392 0.005905807 -0.0017040598 0.006332945 0.0002053315
0.0060072197 -0.0017351991 0.00776607 0.0056737512 0.017059535 0.0043662773 0.009766322 0.0046124742
0.0042701475 0.001984156 0.007663678 0.0033554712 0.018691557 0.00475374 -0.00038046166 0.00025964782
-0.0002655809 0.004734461 -0.0017566298 0.0062479237 -0.0013799994 -0.00072236074 -0.0010351946 0.019694807
-0.0052322797 0.002555271 0.0074887844 -0.0004945025 -0.0041576037 0.020027896 0.004082761 0.014188686
-0.0012949064 0.007780708 0.0033785817 0.012554407 0.023979526 0.0065299566 0.024865832 0.026227163
0.01791555 -0.002812281 0.0018563872 -0.0022116522 0.007206927 -0.0048328303 -0.0026421368 0.0030351558
0.001814392 0.006661513 -0.00168773 0.0073359823 0.0027582096 0.0053503066 0.001993671 -0.0021118755
0.0020431448 0.005228662 0.013186578 -0.0056252694 -6.05735e-40 -0.006008646 -0.0014447911 -6.06342e-40
0.01282974 -0.007985413 5.52128e-40 0.006932103 -0.000449048 -0.006131785 0.00027204744 0.00664475
00000000: 9768 31bb fd16 0600 8455 ce3b 3408 2cbc
00000010: 12ba 223b fc92 04bc 62e9 803b d14f 0600
00000020: 8722 2cbb 1592 b5bb 169b b03b 4566 923b
00000030: 476d 723b 9630 d93a 0387 913b ebf0 4c3b
00000040: 3ace a3b9 e69b 26bb 3428 ffba 9afd f33b
00000050: 0c43 bbba fa2c 56ba 0356 1c3c cec2 eb3a
00000060: 8791 25bb fdb1 da3b 79c0 d138 10f8 47bc
00000070: 17c8 bcbc e158 5fbb facd c5bc a919 e2bc
00000080: 2db9 78bc 64cb 7cbc d1a9 c4bc 7890 9bbc
00000090: cfd6 beb7 afc1 4c3b 415f 8138 552b fead
000000a0: 0c10 e63a a8d7 272d 67b7 5339 2787 dc3b
000000b0: 52bc 533b 68a6 c33a 4d55 c3ba a3cd c13a
000000c0: 1027 e2b8 88c5 bc3a 4bfd 783b 2e24 ee3a
000000d0: f519 5a3a 22cd 153c 09b3 3f39 7aac 893a
000000e0: 7c7f 7a3a 092b 8f3c 19f2 8b3c 7108 623c
000000f0: 8196 24bb 989f 83ba 47c7 19bb a65a 9b85
00000100: f32f 003d a5d7 0205 716d 0500 2707 fa3c
00000110: ee65 0500 7fdd 5a06 ed50 e33c 56ee 9805
00000120: 0e5e 0580 59ce 973b 825b 0500 d77b 223c
00000130: 5207 ae3c 3fb6 683c 8858 0580 81a1 383c
00000140: 3163 0580 4e81 2fbc e709 b4bb a7f3 11bc
00000150: 556e 01bc a1e3 42bb b4b6 5abc 2cc5 773c
00000160: fbe0 933b 7d0d 8c3c 7bec 8535 9329 343c
00000170: 527e 1834 46d4 173c 902e 843c ef8c 7d3b
00000180: da75 f232 08f1 b23b a427 8cb5 97b4 3ebb
00000190: ae52 6b39 6bd4 56bb 126a 8d39 6e88 a1b0
000001a0: a086 a139 fe84 28bb f2a5 9b3b 17f7 f5ba
000001b0: b823 0e3c 44f4 473b 4206 b03b e663 303c
000001c0: 1fbb ac3b 0d36 8d3c adf5 343c a6dd 163b
000001d0: ddd3 893c 89ef 233c f9ca e73b 2d5c 013c
000001e0: 6025 b03b 7179 823c f60c b73b 3add b63c
000001f0: d2a2 783c 6122 073d c5ff 44bb 92ea 603b
00000200: 0380 96ba 2a17 47bb 97d6 743c edcc 78ba
00000210: f96a acb9 0e54 273b 6604 b03b 8d21 81b6
00000220: f109 a03a cbf2 eeb5 a5c6 1639 be88 7839
00000230: 2d80 1dbb 989c 81b7 6f72 e839 3732 2ab7
00000240: 5ef6 f585 3901 0600 aa3a b904 6f5f 97ba
00000250: 125e 7e39 bb78 d53b f221 aa06 ea73 0500
00000260: ba75 0e84 120a 323c fd30 1b3c e377 99bb
00000270: 1971 693c 62d7 353c 6f79 96bb 8519 733c
00000280: 9262 5d3c e178 41bb 6603 d03b cd92 0a3a
00000290: 6726 773b 15aa ec07 0d5c 1c3d ae83 3f0a
000002a0: 610b 513c 6aaa 293b c593 643c d5f9 90b8
000002b0: 0cf5 663a 2ad6 a1b8 47f9 7cbb 452d a186
000002c0: 7a40 70bb 5dde ebb8 9c4b 603a e687 02b9
000002d0: 8085 c13b c25a dfba 9884 cf3b 414e 5739
000002e0: 36d8 c43b 9f6f e3ba 847a fe3b e0ea b93b
000002f0: 70c0 8b3c fd12 8f3b ec02 203c 3d24 973b
00000300: 98ec 8b3b 9d08 023b 971f fb3b 77e7 5b3b
00000310: 091f 993c 43c5 9b3b b378 c7b9 5721 8839
00000320: aa3d 8bb9 8a23 9b3b b73e e6ba 62bb cc3b
00000330: 19e1 b4ba cf5c 3dba 5eaf 87ba 0157 a13c
00000340: 8b73 abbb 5576 273b 7a64 f53b 80a1 01ba
00000350: 823c 88bb 8b11 a43c aec8 853b aa77 683c
00000360: d9b9 a9ba 4ff5 fe3b 326b 5d3b 00b1 4d3c
00000370: b670 c43c 3ff9 d53b 6eb3 cb3c 59da d63c
00000380: a2c3 923c 3f4e 38bb 0552 f33a 5ef1 10bb
00000390: 1628 ec3b b85c 9ebb b327 2dbb 77e9 463b
000003a0: e5d0 ed3a d248 da3b d236 ddba ae62 f03b
000003b0: 14c3 343b a051 af3b 40a8 023b 6467 0abb
000003c0: 48e6 053b 3255 ab3b 840c 583c 2e54 b8bb
000003d0: 8b98 0680 2de4 c4bb 255f bdba 3c9a 0680
000003e0: d433 523c 40d5 02bc 1c03 0600 b226 e33b
000003f0: 346e ebb9 24ed c8bb 97a1 8e39 34bc d93b

decoder.0.bias f4 [64]
-0.0066949152 -0.008566584 -0.0017096616 0.07481536 -0.0014546716 -0.00810677 0.009633107 -0.033509497
-0.003654037 -0.030200249 -0.011706555 -0.0034979216 -0.011032093 -0.047936022 -0.011466918 -0.0007316463
-0.005949317 -0.008442738 -0.0104733305 0.003451747 -0.007974263 0.008689613 -0.0042691925 -0.016645314
-0.078294605 0.009564756 0.038605604 -0.004382416 -0.008273403 -0.008428769 -0.038222898 -0.011342855
-0.004071292 0.028410846 -0.0033562435 -0.0033284859 -0.008099014 -0.001565757 -0.009215656 0.16766366
-0.0009276371 -0.002907066 -0.0022332454 0.016270708 0.001866739 -0.070992894 0.030259335 0.025335692
0.0001194408 -0.030237993 0.0029651392 -0.029396059 -0.009409685 0.0011118205 -0.000805081 -0.019645622
0.007134789 -0.014604731 -0.004203981 0.020693086 0.012734142 -0.014087339 0.015376643 -0.0032765488
00000000: 0561 dbbb dc5a 0cbc b916 e0ba cc38 993d
00000010: aeaa beba 42d2 04bc 2ed4 1d3c 4141 09bd
00000020: 9178 6fbb 8366 f7bc dacc 3fbc 633d 65bb
00000030: f4bf 34bc 9058 44bd bddf 3bbc f4cb 3fba
00000040: 7df2 c2bb 6953 0abc 5598 2bbc b436 623b
00000050: 7ca6 02bc e15e 0e3c 95e4 8bbb c15b 88bc
00000060: ec58 a0bd 7fb5 1c3c e920 1e3d 5f9a 8fbb
00000070: 2b8d 07bc d218 0abc 9d8f 1cbd 62d7 39bc
00000080: 7968 85bb ddbd e83c 6cf4 5bbb ba22 5abb
00000090: bab1 04bc 163a cdba 43fd 16bc 06b0 2b3e
000000a0: ac2c 73ba 7984 3ebb a45b 12bb 264a 853c
000000b0: 5ead f43a b964 91bd 6de2 f73c cc8c cf3c
000000c0: 4b7c fa38 abb5 f7bc c852 423b 01d0 f0bc
000000d0: 142b 1abc 81ba 913a 120c 53ba dbef a0bc
000000e0: f3ca e93b af48 6fbc 8cc1 89bb 8c84 a93c
000000f0: dda2 503c 95ce 66bc 51ee 7b3c 5ebb 56bb

decoder.2.weight f4 [64, 32, 3, 3]
0.036704656 0.0064099845 -0.026718954 0.044974707 0.018794056 -0.037116364 0.03296819 0.009563967
-0.014771113 0.022274967 -0.012664395 0.009817461 -0.0059450595 -0.00087633805 0.0067836186 0.01521134
-0.0044577536 0.006984817 -0.026005605 -0.009423016 0.011290501 -0.019218203 -0.021035811 0.010910913
-0.009822186 -0.00021148534 0.0074190195 0.0052713137 -0.0275982 0.0008967094 -0.019001605 -0.003586387
0.036018282 -0.0071951016 -0.0058525545 0.016601956 0.03164609 0.017090367 -0.050169162 0.055634834
0.037911676 -0.067361586 0.027285682 0.0006131052 -0.033631638 0.0126418285 0.006655513 -0.0102007855
0.02991502 0.025436558 -0.013530895 0.017765077 0.0067226873 -0.0042865397 -0.0009362083 0.006286703
0.009845973 0.014138066 -0.023029387 -0.016514024 0.021055426 0.0051699937 -0.0030482297 0.021009438
-0.0032455116 0.007906779 0.034128122 0.022315092 -0.03790657 0.03840247 0.01835657 -0.043380197
0.031043556 -0.021388654 -0.03413965 0.02879203 -0.00056220003 -0.06723842 0.039842777 -0.0033552216
-0.047108542 -0.029479055 0.006804347 0.040321715 -0.042272415 0.014275076 0.078369476 -0.021408208
-0.0018498623 0.041148648 0.011539262 -0.023794847 -0.029755514 0.0079563605 0.0061802254 -0.050792605
0.008268049 -0.013555433 -0.03410094 -0.024695382 0.016467089 0.056068763 -0.028084366 -0.03707383
0.07858544 -0.033669025 0.0006049233 0.05081096 -0.0056699244 -0.009363781 -0.001690598 0.06513408
0.008598784 -0.074689776 0.037991773 0.0020190757 -0.056045417 0.013104227 -0.017047662 -0.020637682
0.03192193 -0.0056385975 -0.05087962 0.016591547 -0.006264144 -0.017556608 -0.02441852 0.0093903225
0.049115423 -0.043683212 -0.025739474 0.062000237 -0.026366282 -0.01743629 0.05485455 0.011489596
0.010174502 -0.04782137 -0.0047635273 0.00034407497 -0.014842759 -0.017964795 0.0007865744 0.03391257
-0.0057027917 0.013699957 0.019322725 -0.0141745685 0.008453265 0.04735995 -0.009029121 0.006362391
0.019812979 0.023161966 -0.028797567 -0.022375286 0.056904446 -0.0009733629 -0.05317468 0.024114996
-0.009090031 -0.013742114 0.0025839105 -0.009111572 -0.01128723 0.05429961 0.03983003 -0.011015524
0.012048947 0.0077984915 -0.0047424147 -0.026616745 0.0016259212 0.019019423 -0.040814307 -0.025042282
0.046304267 -0.025865175 -0.0030224714 0.026118426 0.008552236 -0.037582185 -0.036030985 0.018276516
0.0048924936 -0.0574233 0.005888133 -0.03808391 -0.040475592 0.038676556 -0.0012884766 -0.0493526
0.029099582 0.017023437 -0.07728206 0.008405732 -0.00038893387 -0.02218754 0.010789125 0.014772768
-0.028508268 0.041951153 0.021528902 -0.068938285 0.00031914905 0.003436648 -0.035927262 -0.01204955
0.0015523445 0.003133397 -0.023140537 -0.005411547 -0.009464661 0.008468189 0.014906516 -0.01118298
-0.026477784 -0.0034095289 0.03851181 -0.037543684 4.9347e-40 0.06484836 -0.020235071 -0.02489925
0.028113408 -0.028446997 -0.006564809 0.033177696 -0.03689701 -0.012865003 0.048318084 -0.022432031
-0.02633485 0.03936541 0.0051949527 -0.0009029747 0.005813083 -0.004150873 0.0130195385 0.00032489994
0.0010361583 -0.005354731 0.007422022 0.015131975 -0.0025218069 0.008518295 0.029070763 0.021225678
-0.019580182 0.02312755 0.0046469076 -0.011757028 -0.0152395405 0.01006267 0.028715981 -0.046237793
00000000: 9f57 163d d90a d23b b5e1 dabc 6637 383d
00000010: fef5 993c 5407 18bd a709 073d 2fb2 1c3c
00000020: 8a02 72bc fe79 b63c 537e 4fbc 6ad9 203c
00000030: c6ce c2bb 0dba 65ba 1e49 de3b fc38 793c
00000040: 5912 92bb e4e0 e43b b509 d5bc fe62 1abc
00000050: cbfb 383c 7e6f 9dbc 4b53 acbc b0c3 323c
00000060: 3ced 20bc 2ac2 5db9 3f1b f33b fcba ac3b
00000070: 9f15 e2bc 2611 6b3a 41a9 9bbc 9709 6bbb
00000080: e887 133d e3c4 ebbb c9c6 bfbb d300 883c
00000090: 559f 013d 1901 8c3c 2e7e 4dbd 5ae1 633d
000000a0: 4649 1b3d dff4 89bd 3986 df3c cbb8 203a
000000b0: 54c1 09bd ac1f 4f3c 7d16 da3b 3221 27bc
000000c0: 5810 f53c 5460 d03c b0b0 5dbc 1188 913c
000000d0: fd49 dc3b 1a76 8cbb e06b 75ba b000 ce3b
000000e0: 0151 213c 59a3 673c 20a8 bcbc 6b48 87bc
000000f0: 6e7c ac3c 0d69 a93b cfc4 47bb fc1b ac3c
00000100: a6b2 54bb 6f8b 013c eec9 0b3d 24ce b63c
00000110: eb43 1bbd e94b 1d3d 8460 963c 6faf 31bd
00000120: 0e4f fe3c 4237 afbc 05d6 0bbd 43dd eb3c
00000130: 9b60 13ba 4cb4 89bd 2e32 233d 47e3 5bbb
00000140: e3f4 40bd 0f7e f1bc 00f7 de3b 6228 253d
00000150: d725 2dbd 02e2 693c 2d80 a03d 4460 afbc
00000160: 1477 f2ba 7c8b 283d 2c0f 3d3c 69ed c2bc
00000170: d6c1 f3bc 655b 023c 7d83 ca3b e80b 50bd
00000180: b676 073c 9b17 5ebc 6dad 0bbd f84d cabc
00000190: fde5 863c 5ca8 653d 2f11 e6bc bada 17bd
000001a0: 67f1 a03d 88e8 09bd b793 1e3a 271f 503d
000001b0: c6ca b9bb 8b6a 19bc 0e97 ddba 0465 853d
000001c0: eae1 0c3c f4f6 98bd 439d 1b3d 7852 043b
000001d0: e18f 65bd 1db3 563c 8aa7 8bbc 5b10 a9bc
000001e0: 92c0 023d fcc3 b8bb 2667 50bd ffea 873c
000001f0: 7343 cdbb e0d2 8fbc 5909 c8bc ded9 193c
00000200: 412d 493d 2bed 32bd 97db d2bc f6f3 7d3d
00000210: 1afe d7bc 8dd6 8ebc 2aaf 603d dc3e 3c3c
00000220: f4b2 263c 57e0 43bd 5d17 9cbb f664 b439
00000230: 0b2f 73bc e82a 93bc 1d32 4e3a e8e7 0a3d
00000240: 7cde babb c975 603c b14a 9e3c 733c 68bc
00000250: 907f 0a3c 82fc 413d e1ee 13bc 9b7b d03b
00000260: d44e a23c 2abe bd3c e0e8 ebbc 604c b7bc
00000270: a314 693d 4729 7fba b1cd 59bd d08c c53c
00000280: 5aee 14bc 9b26 61bc d356 293b b448 15bc
00000290: 13ee 38bc 4569 5e3d d024 233d 757a 34bc
000002a0: f268 453c 7d8a ff3b 4266 9bbb 5c0b dabc
000002b0: dd1c d53a 9fce 9b3c e72c 27bd 7925 cdbc
000002c0: 8ba9 3d3d 34e3 d3bc a814 46bb 4ff6 d53c
000002d0: ad1e 0c3c c7ef 19bd 3a95 13bd a2b8 953c
000002e0: 3651 a03b b234 6bbd 3df1 c03b e0fd 1bbd
000002f0: bcc9 25bd 4f6b 1e3d 1ae2 a8ba f425 4abd
00000300: 3f62 ee3c bc74 8b3c 0f46 9ebd 32b8 093c
00000310: d2e9 cbb9 a5c2 b5bc dfc4 303c 7b09 723c
00000320: 2c8a e9bc f9d4 2b3d 615d b03c 842f 8dbd
00000330: 7653 a739 6339 613b 7728 13bd 7a6b 45bc
00000340: 0a78 cb3a ae59 4d3b 3991 bdbc 5953 b1bb
00000350: aa11 1bbc 29be 0a3c 763a 743c d138 37bc
00000360: f0e7 d8bc 6772 5fbb 8fbe 1d3d 68c7 19bd
00000370: 985f 0500 38cf 843d 05c4 a5bc 83f9 cbbc
00000380: 174e e63c ad09 e9bc 9c1d d7bb 56e5 073d
00000390: 5221 17bd bcc7 52bc 2fe9 453d 61c3 b7bc
000003a0: 2fbc d7bc a03d 213d 6c3a aa3b 9bb5 6cba
000003b0: ad7b be3b 0c04 88bb e74f 553c 5557 aa39
000003c0: b4cf 873a bd76 afbb 6f34 f33b 1aec 773c
000003d0: e644 25bb 5290 0b3c cf25 ee3c 79e1 ad3c
000003e0: 9e66 a0bc fd75 bd3c 1645 983b 8da0 40bc
000003f0: 44af 79bc e6dd 243c c73d eb3c d763 3dbd

decoder.2.bias f4 [32]
0.19716796 -0.018326974 -0.0184011 -0.0064489204 0.02948157 0.09063166 0.019412482 0.09878742
0.09228886 -0.05727752 -0.0022959225 -0.0532871 0.119496755 0.03762606 -0.058678735 0.08322323
0.054373395 0.038085964 0.09597644 -0.073355004 0.022811422 0.06873344 0.0052216267 0.018784003
-0.08388796 -0.02712089 -0.018640665 0.14209495 -0.11742703 0.008234821 0.12321327 -0.007357198
00000000: 66e6 493e 7322 96bc e7bd 96bc 7751 d3bb
00000010: 5583 f13c 179d b93d ed06 9f3c 0f51 ca3d
00000020: f101 bd3d d59b 6abd 3077 16bb 9343 5abd
00000030: b7ba f43d c91d 1a3d 1d59 70bd f170 aa3d
00000040: a3b6 5e3d 0700 1c3d 4c8f c43d 263b 96bd
00000050: 05df ba3c 1ec4 8c3d 2e1a ab3b e9e0 993c
00000060: 73cd abbd a12c debc 4fb4 98bc 5781 113e
00000070: 957d f0bd 58eb 063c 3d57 fc3d a614 f1bb
