Autoencoder CelebA Dataset/autoencoder_model_new.pth (torch, 181358 bytes, 32 tensors)

encoder.0.weight f4 [8, 3, 3, 3]
00000000: f15e 0580 c48a 0580 478d 0580 f25a 0580
00000010: 4e73 0580 0371 0580 fc97 0500 8368 0580
00000020: cb68 0500 2ca3 0580 4459 0500 1868 0580
00000030: 3f6c 0500 9367 0580 0e60 0500 2175 0580
00000040: 9f63 0580 3d59 0580 c110 0680 2d6f 0500
00000050: 5997 0580 2287 0580 9974 0500 6e5f 0500
00000060: d3b7 0580 0d67 0500 58ad 0600 e5c5 0500
00000070: 5878 0500 9f66 0500 9f71 0500 7758 0500
00000080: 8d96 0500 004d 0680 6074 0500 a76e 0500
00000090: 925f 0500 8864 0580 cc6a 0500 1d81 0500
000000a0: 667b 0500 d859 0500 4357 0580 03bc 0580
000000b0: f762 0500 aa6a 0500 b863 0580 9f58 0580
000000c0: a37e 0580 3a69 0500 1365 0580 227c 0580
000000d0: 415e 0500 7a90 0600 965a 0580 7fd3 0680
000000e0: 275a 0580 245f 0500 e180 0580 5d6b 0500
000000f0: d282 0500 b966 0500 3f06 0600 3368 0500
00000100: 6c2b 0600 f15a 0500 4d58 0580 d9b4 0680
00000110: cc5d 0580 1b5b 0500 5a9a 0500 2471 0500
00000120: 9260 0500 8676 0500 0896 0600 5ca3 0500
00000130: 20d1 0580 a569 0580 e496 0600 ff6e 0500
00000140: 455f 0500 ff6b 0580 7174 0500 355b 0580
00000150: 5584 0580 1b36 0600 208a 0500 c56d 0500
00000160: 836d 0500 116b 0580 6b6c 0580 be67 0500
00000170: 3a75 0580 478d 0500 c46f 0500 8560 0580
00000180: ee75 0500 a478 0580 3067 0500 8e5f 0500
00000190: 2e59 0500 eca0 0500 a5d7 0580 b673 0500
000001a0: 0967 0580 455e 0500 8278 0500 136e 0580
000001b0: 7065 0500 9caf 0600 605e 0500 0085 0580
000001c0: 6163 0580 0662 0500 3961 0500 26e9 0580
000001d0: a3bb 0580 7d70 0500 b175 0580 2264 0580
000001e0: 0937 0600 9a83 0500 bf91 0500 8d71 0580
000001f0: cd81 0580 337e 0500 3dab 0500 c076 0500
00000200: 7057 0680 6660 0580 f571 0580 4e5f 0600
00000210: fcb8 0580 7765 0580 cf5d 0500 b05c 0580
00000220: e475 0500 566c 0580 dc5f 0580 495b 0580
00000230: 3270 0580 b359 0500 ef61 0580 6b7d 0580
00000240: 5073 0580 8464 0500 ed65 0580 3884 0500
00000250: 285e 0580 276e 0500 f55f 0580 8d64 0500
00000260: 0e6d 0580 ae64 0500 405c 0500 fc75 0500
00000270: 0475 0500 5c58 0500 0d6a 0580 395b 0500
00000280: 00cf 0580 255b 0500 5667 0500 6566 0580
00000290: a9b1 0600 f894 0500 575c 0500 3e9b 0580
000002a0: ee5e 0580 7d6d 0580 4167 0500 7463 0580
000002b0: 8b3e 0680 fa71 0500 1475 0580 c36c 0580
000002c0: 3c69 0580 937a 0580 c35e 0580 1b61 0500
000002d0: 2d79 0500 a267 0500 5ac5 0500 226f 0500
000002e0: 6463 0580 6a58 0500 e15b 0600 816a 0500
000002f0: 2267 0580 b16f 0500 f261 0500 9e8c 0500
00000300: 9c6e 0580 158d 0500 448a 0500 f5b5 0500
00000310: a46f 0500 5d9b 0580 dc6e 0580 b95e 0580
00000320: 9a5b 0580 9776 0580 5987 0580 27ba 0580
00000330: 4486 0580 8f6e 0580 f076 0500 3a7e 0500
00000340: f364 0500 2d73 0500 2359 0500 d361 0580
00000350: 1a67 0580 0a6c 0580 6c57 0500 2828 0680
-4.93236e-40 -5.08957e-40 -5.09858e-40 -4.91803e-40 -5.00541e-40 -4.99718e-40 5.13699e-40 -4.96669e-40
4.9677e-40 -5.17713e-40 4.912e-40 -4.96519e-40 4.98009e-40 -4.96333e-40 4.93635e-40 -5.01195e-40
-4.94915e-40 -4.9119e-40 -5.57023e-40 4.9906e-40 -5.13471e-40 -5.07654e-40 5.01005e-40 4.93411e-40
-5.25121e-40 4.96145e-40 6.13197e-40 5.30169e-40 5.02349e-40 4.95991e-40 4.99937e-40 4.90913e-40
5.13185e-40 -5.78635e-40 5.00925e-40 4.98872e-40 4.93462e-40 -4.95241e-40 4.97489e-40 5.05495e-40
5.03444e-40 4.91407e-40 -4.90481e-40 -5.26623e-40 4.9468e-40 4.97441e-40 -4.9495e-40 -4.90969e-40
-5.04606e-40 4.96926e-40 -4.95436e-40 -5.03708e-40 4.9299e-40 6.02841e-40 -4.91674e-40 -6.26883e-40
-4.91518e-40 4.93308e-40 -5.0541e-40 4.97692e-40 5.06107e-40 4.96027e-40 5.53254e-40 4.96557e-40
5.6659e-40 4.91801e-40 -4.90854e-40 -6.15889e-40 -4.92825e-40 4.9186e-40 5.14548e-40 4.99765e-40
4.9382e-40 5.01696e-40 6.04834e-40 5.1778e-40 -5.34197e-40 -4.97076e-40 6.05142e-40 4.98995e-40
4.93354e-40 -4.97919e-40 5.00949e-40 -4.91896e-40 -5.06649e-40 5.70422e-40 5.08727e-40 4.98555e-40
4.98463e-40 -4.97586e-40 -4.9807e-40 4.96393e-40 -5.0123e-40 5.09858e-40 4.99271e-40 -4.93802e-40
5.01483e-40 -5.02455e-40 4.96194e-40 4.93456e-40 4.91169e-40 5.16905e-40 -5.36536e-40 5.00687e-40
-4.9614e-40 4.92995e-40 5.02408e-40 -4.98665e-40 4.95566e-40 6.1401e-40 4.93033e-40 -5.06889e-40
-4.94828e-40 4.94342e-40 4.94054e-40 -5.42815e-40 -5.26489e-40 4.9953e-40 -5.01397e-40 -4.95098e-40
5.70756e-40 5.06387e-40 5.11461e-40 -4.99912e-40 -5.05741e-40 5.04449e-40 5.20606e-40 5.01777e-40
-5.8238e-40 -4.93759e-40 -5.00058e-40 5.85202e-40 -5.25537e-40 -4.95576e-40 4.9283e-40 -4.92427e-40
5.01469e-40 -4.98041e-40 -4.93565e-40 -4.91924e-40 -4.99426e-40 4.91355e-40 -4.9431e-40 -5.04169e-40
-5.00544e-40 4.95236e-40 -4.95742e-40 5.06609e-40 -4.92954e-40 4.98693e-40 -4.936e-40 4.95248e-40
-4.98299e-40 4.95295e-40 4.9227e-40 5.01502e-40 5.01155e-40 4.90875e-40 -4.97221e-40 4.91902e-40
-5.33435e-40 4.91874e-40 4.96247e-40 -4.9591e-40 6.14745e-40 5.12617e-40 4.92303e-40 -5.14868e-40
-4.93232e-40 -4.98454e-40 4.96218e-40 -4.94855e-40 -5.73449e-40 5.00065e-40 -5.01177e-40 -4.98194e-40
-4.96928e-40 -5.03149e-40 -4.93172e-40 4.94012e-40 5.02647e-40 4.96354e-40 5.29974e-40 4.99044e-40
-4.94832e-40 4.90894e-40 5.83973e-40 4.97384e-40 -4.96175e-40 4.99245e-40 4.94314e-40 5.09621e-40
-4.98857e-40 5.09788e-40 5.08778e-40 5.24451e-40 4.99227e-40 -5.14911e-40 -4.98946e-40 -4.93158e-40
-4.92038e-40 -5.0172e-40 -5.07731e-40 -5.25956e-40 -5.07343e-40 -4.98838e-40 5.01844e-40 5.04459e-40
4.95391e-40 5.00495e-40 4.91154e-40 -4.9427e-40 -4.96163e-40 -4.97935e-40 4.90539e-40 -5.65418e-40

encoder.0.bias f4 [8]
00000000: 288d 0600 206b 0580 8c59 0500 975a 0580
00000010: f397 0600 df5e 0500 9267 0580 f05f 0580
6.0165e-40 -4.97607e-40 4.91301e-40 -4.91675e-40 6.05522e-40 4.93211e-40 -4.96332e-40 -4.93593e-40

encoder.2.0.weight f4 [8, 8, 3, 3]
00000000: c16a 0500 e1f1 0500 c16a 0500 d2c7 0500
00000010: afa8 0500 3963 0500 3e94 0580 6d69 0580
00000020: af2d 0680 c35a 0580 335c 0580 bdb3 0500
00000030: 4658 0580 ec7e 0580 bc96 0500 3b5f 0580
00000040: 61dd 0500 eb8d 0580 0a73 0580 ba9b 0500
00000050: 0556 0600 b06a 0580 a761 0580 f87e 0580
00000060: a45a 0500 a87a 0580 25c7 0580 df69 0580
00000070: 0f7b 0580 666a 0500 1d91 0500 ee5d 0500
00000080: 1f79 0500 f086 0580 101e 0680 1cb1 0580
00000090: af95 0580 2e70 0500 35c2 0680 4d91 0600
000000a0: 41b6 0500 95c1 0600 73a7 0500 c470 0580
000000b0: cc70 0500 e9bd 0580 1f72 0580 2968 0500
000000c0: 0189 0580 e666 0500 6376 0500 8fc4 0580
000000d0: bcb0 0680 be69 0500 4f5b 0500 6074 0500
000000e0: 326d 0500 5259 0580 e1b7 0500 6ec2 0580
000000f0: d959 0500 8a87 0580 5c89 0500 4eb8 0580
00000100: 0f60 0580 8479 0500 1dfa 0580 d97e 0600
00000110: e996 0500 5203 0600 436f 0500 bddd 0580
00000120: 9961 0580 2a80 0500 10ac 0580 e182 0500
00000130: 645a 0680 606f 0500 c18b 0500 fcc9 0500
00000140: 7f09 0600 e75e 0580 3c00 0680 cadc 0580
00000150: c9cc 0500 e866 0580 115a 0500 c7a6 0500
00000160: 285c 0500 0fa9 0680 9e91 0580 6c6b 0580
00000170: 43be 0680 0775 0600 4a77 0500 9c71 0600
00000180: e395 0580 a2d8 0680 bb5c 0500 785b 0580
00000190: 9b7e 0500 b766 0500 78d6 0600 d859 0500
000001a0: 0c66 0580 d45d 0500 187d 0580 927a 0580
000001b0: ca84 0580 fb81 0680 112e 0680 e86c 0580
000001c0: b0d9 0600 1d5f 0580 ac93 0680 1fb4 0500
000001d0: 365e 0500 5a8c 0500 0bc6 0580 87f5 0500
000001e0: 425a 0500 d564 0580 da9a 0580 d75a 0500
000001f0: 4082 0580 2e88 0580 656d 0500 3690 0580
00000200: ba50 0600 d380 0580 d273 0580 f16a 0580
00000210: 5f6a 0580 5476 0500 ded4 0580 bbf9 0500
00000220: 4c94 0500 5b60 0500 c85b 0680 1a5c 0500
00000230: e166 0500 0d6c 0500 e95a 0500 3b73 0580
00000240: 5396 0500 6f72 0500 19a6 0500 9763 0580
00000250: 6560 0500 968a 0500 c669 0580 ac42 0600
00000260: a05b 0580 b865 0580 7c88 0500 e26c 0500
00000270: 7486 0580 e860 0500 3fc2 0580 0df4 0580
00000280: ff55 0600 ab8b 0600 bf68 0500 807a 0500
00000290: dd58 0500 9464 0580 b873 0500 fbc6 0500
000002a0: 346d 0580 e471 0580 9758 0580 9d74 0500
000002b0: d606 0680 8a70 0580 d37b 0500 9074 0580
000002c0: 136a 0500 1a5d 0500 3c59 0580 ca34 0680
000002d0: 2875 0580 6559 0580 1d4e 0680 5c68 0580
000002e0: b039 0600 6d43 0600 e727 0680 ca81 0500
000002f0: a58f 0500 1f63 0500 b9d7 0500 bdc3 0500
00000300: 75e0 0580 ee88 0500 cf5e 0500 338e 0500
00000310: 4b5d 0580 3f0f 0680 6079 0580 a490 0500
00000320: 38a1 0580 e3b8 0680 5c08 0600 3fe2 0580
00000330: f2e8 0580 9495 0500 fb98 0680 0f6f 0500
00000340: 846f 0500 3ba2 0580 ee6a 0580 85fa 0500
00000350: b168 0500 809e 0600 4e76 0500 8b74 0580
00000360: 4c6e 0500 d77f 0580 a992 0580 7170 0580
00000370: f229 0680 44f9 0500 6299 0580 24ad 0500
00000380: 1661 0500 917d 0500 255f 0500 6e6f 0580
00000390: 04e8 0580 47b6 0580 d579 0500 afea 0500
000003a0: 3faa 0580 48e5 0500 5262 0500 d870 0580
000003b0: 8c78 0580 39a7 0500 bbce 0580 46cb 0500
000003c0: 4c96 0500 fe67 0580 4987 0500 c582 0680
000003d0: 3779 0500 b793 0680 8f59 0580 e4d4 0600
000003e0: 5f96 0500 27e6 0500 4d6b 0500 0561 0500
000003f0: 7073 0500 783e 0600 55bb 0580 1a8f 0580
4.97474e-40 5.45947e-40 4.97474e-40 5.3086e-40 5.1969e-40 4.94772e-40 -5.12357e-40 -4.96997e-40
-5.67401e-40 -4.91737e-40 -4.92252e-40 5.23655e-40 -4.90844e-40 -5.04708e-40 5.13251e-40 -4.9334e-40
5.38593e-40 -5.10088e-40 -5.00446e-40 5.15042e-40 5.81871e-40 -4.9745e-40 -4.94209e-40 -5.04725e-40
4.91693e-40 -5.03178e-40 -5.30617e-40 -4.97157e-40 -5.03323e-40 4.97346e-40 5.11234e-40 4.92873e-40
5.02628e-40 -5.07584e-40 -5.61797e-40 -5.22712e-40 -5.12874e-40 4.9942e-40 -6.20681e-40 6.03137e-40
5.24558e-40 6.20457e-40 5.19247e-40 -4.9963e-40 4.99641e-40 -5.27304e-40 -5.00116e-40 4.96543e-40
-5.08325e-40 4.9609e-40 5.01647e-40 -5.2969e-40 -6.14413e-40 4.9711e-40 4.91933e-40 5.00925e-40
4.9835e-40 -4.9122e-40 5.25141e-40 -5.28926e-40 4.91409e-40 -5.078e-40 5.08453e-40 -5.25294e-40
-4.93637e-40 5.02769e-40 -5.48901e-40 5.96517e-40 5.13314e-40 5.52204e-40 4.9909e-40 -5.38722e-40
-4.94189e-40 5.05154e-40 -5.20902e-40 5.06128e-40 -5.83439e-40 4.99131e-40 5.09312e-40 5.31636e-40
5.5442e-40 -4.93222e-40 -5.51097e-40 -5.38382e-40 5.3264e-40 -4.96093e-40 4.91487e-40 5.19006e-40
4.92237e-40 -6.1166e-40 -5.11415e-40 -4.97713e-40 -6.19266e-40 5.92994e-40 5.0197e-40 5.91768e-40
-5.12947e-40 -6.28726e-40 4.92443e-40 -4.9199e-40 5.04595e-40 4.96025e-40 6.2795e-40 4.91407e-40
-4.95785e-40 4.92837e-40 -5.04053e-40 -5.03147e-40 -5.06813e-40 -5.97641e-40 -5.67538e-40 -4.98246e-40
6.29105e-40 -4.93298e-40 -6.03988e-40 5.23793e-40 4.92974e-40 5.09526e-40 -5.30222e-40 5.47256e-40
4.91556e-40 -4.95349e-40 -5.14728e-40 4.91765e-40 -5.05902e-40 -5.0803e-40 4.98421e-40 -5.1091e-40
5.79972e-40 -5.05391e-40 -5.00726e-40 -4.97541e-40 -4.97336e-40 5.01626e-40 -5.3554e-40 5.48764e-40
5.12376e-40 4.93743e-40 -5.83938e-40 4.92217e-40 4.96083e-40 4.97939e-40 4.9179e-40 -5.00514e-40
5.13104e-40 5.00229e-40 5.18762e-40 -4.94904e-40 4.93757e-40 5.08893e-40 -4.97122e-40 5.7493e-40
-4.92046e-40 -4.95667e-40 5.08139e-40 4.98237e-40 -5.0741e-40 4.93941e-40 -5.2886e-40 -5.46726e-40
5.81863e-40 6.01116e-40 4.96753e-40 5.03122e-40 4.91056e-40 -4.95258e-40 5.0069e-40 5.30558e-40
-4.98352e-40 -5.00034e-40 -4.90958e-40 5.0101e-40 -5.53465e-40 -4.99549e-40 5.03597e-40 -5.00992e-40
4.9723e-40 4.92576e-40 -4.91189e-40 -5.6995e-40 -5.01205e-40 -4.91246e-40 -5.79035e-40 -4.96615e-40
5.71707e-40 5.75201e-40 -5.65327e-40 5.05737e-40 5.10707e-40 4.94735e-40 5.36564e-40 5.29395e-40
-5.39697e-40 5.08299e-40 4.93188e-40 5.10189e-40 -4.92645e-40 -5.56482e-40 -5.02719e-40 5.11065e-40
-5.17012e-40 -6.17338e-40 5.54012e-40 -5.40339e-40 -5.42743e-40 5.12836e-40 -6.05892e-40 4.99018e-40
4.99182e-40 -5.17375e-40 -4.97537e-40 5.49047e-40 4.96734e-40 6.07872e-40 5.01617e-40 -5.00985e-40
4.98745e-40 -5.05038e-40 -5.11789e-40 -4.99514e-40 -5.6606e-40 5.48597e-40 -5.14201e-40 5.21289e-40
4.94005e-40 5.04222e-40 4.93309e-40 -4.99151e-40 -5.42409e-40 -5.24566e-40 5.02883e-40 5.43366e-40
-5.2025e-40 5.41428e-40 4.94448e-40 -4.99658e-40 -5.02422e-40 5.19166e-40 -5.33338e-40 5.32098e-40
5.13094e-40 -4.96483e-40 5.07709e-40 -5.97924e-40 5.02661e-40 -6.04003e-40 -4.91305e-40 6.27384e-40
5.1312e-40 5.4174e-40 4.9767e-40 4.93982e-40 5.00589e-40 5.73423e-40 -5.2638e-40 -5.10513e-40

encoder.2.0.bias f4 [8]
00000000: 1262 0500 b99d 0580 6472 0500 7694 0580
00000010: d473 0580 427d 0580 5358 0680 4859 0500
4.94358e-40 -5.15758e-40 5.00213e-40 -5.12435e-40 -5.00729e-40 -5.04112e-40 -5.82698e-40 4.91206e-40

encoder.2.2.weight f4 [8, 8, 3, 3]
00000000: a46a 0500 6e70 0580 3259 0500 cc4c 0600
00000010: 5d67 0580 336a 0580 a469 0500 d584 0580
00000020: a49e 0580 9962 0500 efcb 0600 3d89 0500
00000030: c7ff 0580 af6a 0500 cf8d 0580 5c59 0580
00000040: 9f74 0500 0177 0580 9e70 0580 de7c 0500
00000050: 1f8a 0500 8663 0500 c6dd 0580 ba9c 0500
00000060: 5476 0500 87c6 0500 84d8 0580 a25c 0580
00000070: cec9 0500 6ba0 0580 169a 0500 746e 0500
00000080: d786 0580 fd81 0500 856e 0580 7e6c 0500
00000090: 13af 0580 9fd0 0500 b971 0580 088e 0500
000000a0: c85d 0500 2fed 0580 c36f 0580 b2bc 0500
000000b0: 15a6 0580 0c58 0580 2a67 0500 7fd6 0500
000000c0: 1785 0500 6ac9 0500 abb1 0500 fc7a 0580
000000d0: 9363 0500 d383 0580 c873 0580 8f65 0580
000000e0: 5360 0500 4295 0500 0458 0580 c38a 0500
000000f0: bf74 0580 82c6 0500 1eb8 0680 308c 0580
00000100: 7267 0500 0bf5 0500 e763 0580 355d 0580
00000110: 915b 0580 8462 0580 1d67 0580 0982 0580
00000120: 5786 0500 c862 0500 57d1 0600 42ee 0500
00000130: b15a 0500 937b 0580 c7e6 0580 056b 0580
00000140: 06e0 0500 1598 0500 3f66 0500 14a4 0680
00000150: b680 0500 d570 0500 fa71 0580 eb90 0580
00000160: f2bc 0580 d2c5 0500 8b78 0580 c05a 0500
00000170: 1e81 0500 74a4 0500 8e67 0500 029a 0500
00000180: 35d8 0500 0623 0600 e857 0580 f8d6 0500
00000190: 09bd 0580 2896 0580 f88c 0580 146d 0500
000001a0: af68 0500 9364 0580 1f87 0580 4fc7 0680
000001b0: 926f 0580 66c9 0500 e382 0580 6863 0600
000001c0: 2663 0500 7d84 0500 6ed5 0500 1266 0580
000001d0: 5ea8 0500 0f79 0500 6876 0580 bfd1 0600
000001e0: eb5d 0580 dd57 0580 df5d 0500 f52e 0600
000001f0: 1171 0500 f066 0580 6187 0580 55a0 0500
00000200: af7d 0580 cc7c 0580 a1ac 0580 6187 0500
00000210: d717 0680 dba1 0580 1e5c 0500 9a8e 0580
00000220: 8364 0580 537e 0580 077c 0500 c3be 0500
00000230: 307f 0500 9e5a 0580 e68c 0580 1c61 0500
00000240: d27c 0500 ba5a 0580 135d 0580 12e3 0580
00000250: 3583 0580 7e78 0500 7468 0580 3db1 0580
00000260: 5f7e 0600 296c 0580 9068 0500 0558 0500
00000270: dc74 0580 b6ab 0500 b859 0580 80ae 0500
00000280: 00a5 0500 9379 0500 b6b1 0580 5a35 0600
00000290: 965d 0580 f45d 0580 866b 0580 5c6a 0500
000002a0: c715 0680 4d6d 0580 7387 0580 f67e 0500
000002b0: a06d 0580 ff83 0500 8b82 0580 ae63 0500
000002c0: e9d8 0580 b17b 0580 0678 0580 ebf9 0500
000002d0: 6fbe 0600 bc79 0500 e17d 0580 0d67 0580
000002e0: efc9 0680 f989 0500 b061 0580 c467 0500
000002f0: 30fb 0580 df92 0500 bd65 0580 a17d 0500
00000300: 8875 0580 d4bc 0600 5848 0680 c7f0 0580
00000310: 185f 0580 e8d2 0580 c677 0500 e898 0580
00000320: b757 0500 4f5b 0580 1795 0600 a867 0580
00000330: 2d7b 0580 e76f 0580 6396 0580 dc75 0580
00000340: bb88 0500 c573 0500 7b92 0580 4097 0500
00000350: 9a81 0500 4060 0580 3d79 0600 e466 0580
00000360: ed07 0680 feb4 0580 0567 0580 7abb 0580
00000370: ad7d 0500 be6a 0500 e204 0680 7a61 0580
00000380: f597 0580 dc87 0500 df84 0500 2670 0500
00000390: 596f 0500 ae71 0580 6870 0580 53b2 0500
000003a0: 6faa 0580 471f 0600 7e97 0580 1688 0500
000003b0: 5379 0580 e776 0500 c859 0500 bbce 0580
000003c0: 3d70 0680 8089 0500 249e 0680 ee61 0500
000003d0: 455e 0580 3f76 0500 8a6e 0580 375d 0500
000003e0: a957 0580 df7d 0580 cbbd 0500 a37c 0500
000003f0: da71 0500 b5b1 0580 c565 0580 4d69 0500
4.97433e-40 -4.9951e-40 4.91175e-40 5.78563e-40 -4.96257e-40 -4.97275e-40 4.97074e-40 -5.06829e-40
-5.16087e-40 4.94548e-40 6.2417e-40 5.0841e-40 -5.50933e-40 4.97448e-40 -5.10049e-40 -4.91234e-40
5.01013e-40 -5.01868e-40 -4.99577e-40 5.03971e-40 5.08726e-40 4.9488e-40 -5.38735e-40 5.154e-40
5.01626e-40 5.30396e-40 -5.36849e-40 -4.92408e-40 5.31571e-40 -5.16725e-40 5.14453e-40 4.988e-40
-5.07549e-40 5.05808e-40 -4.98824e-40 4.98097e-40 -5.21982e-40 5.34017e-40 -4.99973e-40 5.10129e-40
4.9282e-40 -5.44263e-40 -4.9927e-40 5.26869e-40 -5.18756e-40 -4.90763e-40 4.96186e-40 5.36124e-40
5.06921e-40 5.31431e-40 5.22913e-40 -5.03296e-40 4.94898e-40 -5.06467e-40 -5.00712e-40 -4.9561e-40
4.93732e-40 5.12721e-40 -4.90752e-40 5.08956e-40 -5.01058e-40 5.30389e-40 -6.17062e-40 -5.09467e-40
4.96287e-40 5.47082e-40 -4.95016e-40 -4.92614e-40 -4.92025e-40 -4.94518e-40 -4.96168e-40 -5.05825e-40
5.0737e-40 4.94614e-40 6.2611e-40 5.44648e-40 4.91711e-40 -5.03508e-40 -5.41965e-40 -4.97569e-40
5.39542e-40 5.13734e-40 4.95856e-40 -6.09873e-40 5.0535e-40 4.99654e-40 -5.00065e-40 -5.11164e-40
-5.26958e-40 5.30142e-40 -5.0242e-40 4.91732e-40 5.05496e-40 5.18172e-40 4.96326e-40 5.14425e-40
5.36738e-40 5.63577e-40 -4.90712e-40 5.36294e-40 -5.2699e-40 -5.13043e-40 -5.09748e-40 4.98307e-40
4.96731e-40 -4.95257e-40 -5.0765e-40 -6.22511e-40 -4.99201e-40 5.31426e-40 -5.06131e-40 5.86673e-40
4.94745e-40 5.06705e-40 5.35742e-40 -4.95793e-40 5.19576e-40 5.02605e-40 -5.01654e-40 6.26256e-40
-4.92869e-40 -4.90697e-40 4.92852e-40 5.67858e-40 4.99738e-40 -4.96104e-40 -5.07742e-40 5.16694e-40
-5.04264e-40 -5.03946e-40 -5.21105e-40 5.07742e-40 -5.59565e-40 -5.1724e-40 4.92223e-40 -5.10333e-40
-4.95234e-40 -5.04494e-40 5.0367e-40 5.2761e-40 5.04804e-40 -4.91685e-40 -5.09722e-40 4.94014e-40
5.03955e-40 -4.91724e-40 -4.92566e-40 -5.40635e-40 -5.06246e-40 5.02402e-40 -4.96648e-40 -5.22759e-40
5.96346e-40 -4.97978e-40 4.96687e-40 4.90753e-40 -5.01099e-40 5.20776e-40 -4.91363e-40 5.21776e-40
5.18368e-40 5.0279e-40 -5.22928e-40 5.70152e-40 -4.9275e-40 -4.92882e-40 -4.9775e-40 4.97332e-40
-5.58825e-40 -4.98387e-40 -5.07768e-40 5.04722e-40 -4.98504e-40 5.06529e-40 -5.06007e-40 4.94936e-40
-5.3699e-40 -5.0355e-40 -5.02234e-40 5.48831e-40 6.19328e-40 5.02848e-40 -5.04334e-40 -4.96145e-40
-6.23453e-40 5.08673e-40 -4.94221e-40 4.96402e-40 -5.49287e-40 5.11865e-40 -4.95674e-40 5.04245e-40
-5.0134e-40 6.18752e-40 -5.76965e-40 -5.45552e-40 -4.9329e-40 -5.34836e-40 5.02144e-40 -5.1403e-40
4.90644e-40 -4.91933e-40 6.04496e-40 -4.96362e-40 -5.03365e-40 -4.9932e-40 -5.13126e-40 -5.01457e-40
5.08227e-40 5.00708e-40 -5.11725e-40 5.13436e-40 5.0567e-40 -4.93705e-40 5.94505e-40 -4.96088e-40
-5.53856e-40 -5.24105e-40 -4.96134e-40 -5.26431e-40 5.04261e-40 4.9747e-40 -5.52765e-40 -4.94145e-40
-5.1369e-40 5.07915e-40 5.06843e-40 4.99409e-40 4.99121e-40 -4.99958e-40 -4.99501e-40 5.23148e-40
-5.20318e-40 5.62233e-40 -5.13523e-40 5.07996e-40 -5.027e-40 5.01832e-40 4.91385e-40 -5.33338e-40
-5.91276e-40 5.08503e-40 -6.07743e-40 4.94308e-40 -4.92995e-40 5.01596e-40 -4.98831e-40 4.92617e-40
-4.90624e-40 -5.04332e-40 5.27262e-40 5.03889e-40 5.0002e-40 -5.22927e-40 -4.95686e-40 4.96952e-40

encoder.2.2.bias f4 [8]
00000000: b865 0580 9bb9 0500 7b5b 0580 abbd 0500
00000010: f172 0500 3a83 0500 a3a0 0580 99ee 0580
-4.95667e-40 5.2576e-40 -4.91994e-40 5.27218e-40 5.0041e-40 5.06253e-40 -5.16803e-40 -5.4477e-40

encoder.3.weight f4 [16, 8, 5, 5]
00000000: 9774 0580 f057 0580 1b6d 0500 a4a0 0580
00000010: 9590 0500 4c95 0580 c245 0600 d6ae 0600
00000020: 8fda 0500 3359 0580 2880 0500 1bdd 0580
00000030: 1f64 0580 887c 0500 1c00 0600 7c69 0500
00000040: dc94 0580 fd58 0580 d26e 0580 aac5 0580
00000050: 8f6b 0600 4267 0580 b1b6 0500 cca4 0580
00000060: 78cd 0580 5c98 0500 3e81 0580 1bb4 0500
00000070: 179e 0500 e695 0500 139e 0500 a77a 0680
00000080: 4ab6 0580 6079 0500 0666 0500 bf61 0580
00000090: 276e 0500 e39e 0500 fbf5 0500 ea2f 0680
000000a0: 188d 0580 267b 0500 1401 0680 99d8 0580
000000b0: 0aa9 0500 2865 0500 35b0 0500 0c89 0500
000000c0: a987 0500 76bc 0500 74ba 0580 6a98 0580
000000d0: 716a 0580 c984 0580 385b 0580 266f 0580
000000e0: a51d 0600 087b 0500 78d2 0580 1ff0 0580
000000f0: 6e6e 0500 5a7a 0500 68b6 0680 c957 0580
00000100: c0a7 0580 8ee9 0500 5a72 0500 5484 0500
00000110: be1b 0600 08a9 0580 6aa4 0500 083a 0680
00000120: d94f 0680 327b 0580 c9ad 0500 9f8b 0500
00000130: 7246 0600 b8d2 0680 f869 0500 b829 0600
00000140: 7cf0 0580 41c3 0580 32e9 0580 a0be 0580
00000150: 819a 0600 dbc8 0580 2387 0500 db9f 0580
00000160: 12bd 0500 b57c 0680 7763 0580 2972 0580
00000170: 0f94 0580 d83a 0680 a9a7 0580 bbb8 0500
00000180: 21a0 0500 1275 0580 859b 0580 4295 0500
00000190: 24d7 0500 04aa 0500 2061 0580 ce70 0500
000001a0: 76c1 0580 ea70 0500 91ea 0500 3557 0580
000001b0: b00b 0680 699e 0580 b9a9 0500 0694 0580
000001c0: 788d 0500 f464 0580 939a 0500 07a1 0500
000001d0: 085d 0580 42af 0580 3daf 0580 3079 0500
000001e0: e569 0580 7fa3 0580 a2bc 0580 61f5 0580
000001f0: 678c 0680 fc9e 0680 13dd 0580 ee89 0680
00000200: 455a 0500 537f 0580 f566 0580 26b1 0500
00000210: c02b 0680 32bd 0500 96c7 0500 6b73 0500
00000220: 8386 0580 915b 0680 26b6 0580 ec66 0600
00000230: 5ea0 0580 5a99 0500 1a90 0580 4372 0580
00000240: fc8a 0580 b493 0500 8586 0580 4320 0600
00000250: bc8f 0500 475d 0680 f771 0500 b158 0580
00000260: 4c9e 0680 009e 0580 3a9b 0580 8ecd 0580
00000270: c081 0580 f846 0600 2c4a 0680 ffcf 0500
00000280: 10a6 0500 75a1 0500 128b 0500 5821 0680
00000290: 9aaf 0580 ec21 0680 d96d 0500 be58 0500
000002a0: ee72 0580 275e 0580 bc7e 0680 0aa5 0500
000002b0: 515f 0580 9379 0580 f0fc 0580 906c 0580
000002c0: 168e 0680 f8e9 0500 ab64 0500 dd8d 0500
000002d0: 175e 0580 d779 0500 44e1 0500 7be9 0500
000002e0: c993 0500 3a5f 0580 545d 0580 7472 0580
000002f0: ed91 0580 95fa 0500 c17b 0500 1168 0580
00000300: 90be 0580 5077 0500 2289 0500 415b 0500
00000310: c2a5 0580 0903 0680 15df 0580 aa97 0500
00000320: fea0 0500 ef34 0680 428f 0600 bea4 0500
00000330: a676 0580 e99f 0580 068e 0580 0486 0580
00000340: 6968 0600 d4d3 0580 07a6 0500 ea8a 0580
00000350: 49c6 0500 3b8c 0580 2e85 0580 ee81 0580
00000360: 330e 0680 d0e1 0580 ee80 0500 c9a2 0600
00000370: c963 0500 0fb5 0500 d06c 0500 7bb4 0580
00000380: d8da 0580 b12f 0600 ef60 0580 0965 0500
00000390: 416d 0600 ad9a 0680 3a0f 0600 2c9c 0580
000003a0: c996 0500 a5f2 0580 2681 0580 835a 0600
000003b0: 878f 0580 d265 0500 cea4 0580 2366 0500
000003c0: 07bd 0500 3478 0600 4ff8 0500 92d1 0500
000003d0: 9bce 0580 c9b9 0580 ef98 0580 4678 0580
000003e0: 26b1 0500 daa3 0580 4299 0580 70ab 0580
000003f0: 8382 0580 73d6 0580 3788 0500 948b 0500
-5.01002e-40 -4.90724e-40 4.98317e-40 -5.16804e-40 5.11044e-40 -5.12735e-40 5.76037e-40 6.13732e-40
5.37582e-40 -4.91176e-40 5.05151e-40 -5.38495e-40 -4.95094e-40 5.03851e-40 5.51052e-40 4.97018e-40
-5.12578e-40 -4.911e-40 -4.98932e-40 -5.30086e-40 5.89598e-40 -4.9622e-40 5.24715e-40 -5.18295e-40
-5.32886e-40 5.13834e-40 -5.05541e-40 5.23787e-40 5.1589e-40 5.12951e-40 5.15884e-40 -5.95012e-40
-5.2457e-40 5.02719e-40 4.95777e-40 -4.94242e-40 4.98693e-40 5.16175e-40 5.47419e-40 -5.68201e-40
-5.09792e-40 5.03355e-40 -5.514e-40 -5.36878e-40 5.19817e-40 4.95466e-40 5.22389e-40 5.0834e-40
5.07843e-40 5.26785e-40 -5.26064e-40 -5.13853e-40 -4.97361e-40 -5.06812e-40 -4.919e-40 -4.9905e-40
5.61647e-40 5.03313e-40 -5.3468e-40 -5.45317e-40 4.98792e-40 5.03069e-40 -6.16448e-40 -4.90669e-40
-5.19355e-40 5.42961e-40 5.00199e-40 5.06648e-40 5.60965e-40 -5.19814e-40 5.18158e-40 -5.7183e-40
-5.79657e-40 -5.03372e-40 5.2152e-40 5.09264e-40 5.76284e-40 -6.26605e-40 4.97192e-40 5.65979e-40
-5.45447e-40 -5.29221e-40 -5.42832e-40 -5.27561e-40 6.06439e-40 -5.31231e-40 5.07655e-40 -5.16523e-40
5.27003e-40 -5.9575e-40 -4.94859e-40 -5.0013e-40 -5.12291e-40 -5.72122e-40 -5.19323e-40 5.25446e-40
5.16621e-40 -5.01174e-40 -5.14967e-40 5.12721e-40 5.36355e-40 5.20168e-40 -4.9402e-40 4.99644e-40
-5.28578e-40 4.99683e-40 5.43324e-40 -4.90461e-40 -5.55206e-40 -5.16004e-40 5.20062e-40 -5.12278e-40
5.09927e-40 -4.95393e-40 5.14628e-40 5.16943e-40 -4.92551e-40 -5.22048e-40 -5.22041e-40 5.02651e-40
-4.97165e-40 -5.17829e-40 -5.26846e-40 -5.47203e-40 -6.0138e-40 -6.08046e-40 -5.38484e-40 -6.00493e-40
4.9156e-40 -5.04853e-40 -4.96112e-40 5.22726e-40 -5.66708e-40 5.27048e-40 5.30775e-40 5.00582e-40
-5.07431e-40 -5.83861e-40 -5.2452e-40 5.87934e-40 -5.16706e-40 5.1419e-40 -5.10871e-40 -5.00167e-40
-5.09036e-40 5.12163e-40 -5.07434e-40 5.62586e-40 5.1074e-40 -5.84475e-40 5.0006e-40 -4.90994e-40
-6.07799e-40 -5.15857e-40 -5.14862e-40 -5.32917e-40 -5.05723e-40 5.76472e-40 -5.77621e-40 5.33792e-40
5.1875e-40 5.17097e-40 5.09067e-40 -5.62974e-40 -5.22171e-40 -5.63182e-40 4.98583e-40 4.91012e-40
-5.00406e-40 -4.92953e-40 -5.96477e-40 5.18382e-40 -4.9337e-40 -5.0279e-40 -5.49914e-40 -4.98122e-40
-6.01984e-40 5.4311e-40 4.9529e-40 5.10068e-40 -4.9293e-40 5.02885e-40 5.39988e-40 5.42934e-40
5.12193e-40 -4.93338e-40 -4.92657e-40 -5.00236e-40 -5.11526e-40 5.4907e-40 5.03572e-40 -4.9651e-40
-5.27538e-40 5.01979e-40 5.08371e-40 4.91913e-40 -5.1864e-40 -5.52102e-40 -5.39204e-40 5.13584e-40
5.1693e-40 -5.70002e-40 6.02404e-40 5.18276e-40 -5.0174e-40 -5.16542e-40 -5.10126e-40 -5.07253e-40
5.88468e-40 -5.35167e-40 5.18737e-40 -5.0901e-40 5.30309e-40 -5.09483e-40 -5.06953e-40 -5.05787e-40
-5.56107e-40 -5.40184e-40 5.05429e-40 6.09409e-40 4.94974e-40 5.24129e-40 4.98212e-40 -5.23922e-40
-5.37684e-40 5.68121e-40 -4.93951e-40 4.95422e-40 5.90206e-40 -6.065e-40 5.56475e-40 -5.15201e-40
5.13269e-40 -5.46222e-40 -5.05507e-40 5.83482e-40 -5.10665e-40 4.95704e-40 -5.18298e-40 4.95817e-40
5.26988e-40 5.94134e-40 5.48254e-40 5.34357e-40 -5.33294e-40 -5.25825e-40 -5.1404e-40 -5.02323e-40
5.22726e-40 -5.17956e-40 -5.14156e-40 -5.20678e-40 -5.05996e-40 -5.36107e-40 5.08042e-40 5.09249e-40

encoder.3.bias f4 [16]
00000000: 5bd1 0500 5408 0680 942f 0600 90a6 0580
00000010: d0ea 0580 467d 0500 b6d1 0580 107b 0500
00000020: 5b7d 0580 7a80 0500 24c4 0500 e98c 0680
00000030: e576 0600 c283 0580 c057 0580 f4e6 0580
5.3428e-40 -5.54e-40 5.68081e-40 -5.18929e-40 -5.43412e-40 5.04117e-40 -5.34408e-40 5.03324e-40
-5.04147e-40 5.05266e-40 5.2954e-40 -6.01562e-40 5.93664e-40 -5.06443e-40 -4.90656e-40 -5.42028e-40

encoder.5.0.weight f4 [16, 16, 3, 3]
00000000: 3d32 0680 4061 0580 3063 0500 426f 0500
00000010: 35cc 0500 bcba 0500 33eb 0580 ad5e 0500
00000020: f792 0580 a1c2 0500 9448 0680 1e81 0580
00000030: 626a 0580 9128 0680 3eba 0580 ad7a 0500
00000040: 5c68 0580 9fc5 0580 11c6 0580 206c 0580
00000050: 1f7a 0580 9d9e 0580 a0f4 0500 678c 0580
00000060: be5a 0580 9049 0600 7898 0500 608e 0580
00000070: 40d1 0500 c07b 0500 869e 0580 10c5 0600
00000080: 1a83 0580 475b 0580 adac 0580 9f84 0580
00000090: 2d81 0580 b373 0500 5b93 0580 eb4f 0600
000000a0: 9972 0500 2d62 0680 3f5b 0580 15ea 0500
000000b0: dd8c 0580 4285 0500 4278 0500 a966 0580
000000c0: cc67 0580 e124 0680 afe4 0580 5e5f 0580
000000d0: 0e8e 0500 a171 0500 1f67 0500 77a1 0580
000000e0: 385e 0680 4d8e 0580 c4d0 0500 aece 0500
000000f0: d57f 0580 f4c8 0500 6abc 0580 d7be 0500
00000100: 3e28 0600 3093 0580 e483 0580 ac0a 0600
00000110: 86cd 0500 c381 0580 c1fe 0500 b675 0500
00000120: e806 0680 f0f7 0580 e63b 0600 5edf 0500
00000130: 1c6c 0680 9194 0580 cdbc 0600 e087 0580
00000140: 9959 0500 e07c 0500 b738 0680 027b 0580
00000150: f386 0580 387e 0580 5e73 0600 1a59 0580
00000160: b376 0600 357b 0500 2a85 0580 afa8 0500
00000170: 25f5 0500 957a 0580 c86d 0680 2776 0580
00000180: 4b88 0500 7570 0500 4df1 0580 be81 0500
00000190: 146f 0580 b3fa 0500 eb59 0580 42c0 0500
000001a0: 2c43 0680 8550 0600 9499 0600 f478 0600
000001b0: c285 0500 f3df 0580 a371 0500 6cf3 0580
000001c0: 591f 0600 fd71 0580 c1e1 0500 9ab8 0600
000001d0: 6f6d 0580 8e75 0580 461c 0680 01d2 0500
000001e0: fa80 0580 6605 0600 2269 0680 4f88 0580
000001f0: 14bc 0500 ac8c 0500 835e 0500 3b92 0580
00000200: fa40 0680 f1a2 0500 1381 0600 bc99 0500
00000210: cec2 0580 522f 0680 3c98 0580 d37a 0500
00000220: 6e77 0580 3b66 0600 7693 0500 3542 0680
00000230: 846d 0500 ca59 0580 365a 0500 c54b 0680
00000240: b48b 0500 bb93 0580 5c64 0580 a58d 0580
00000250: a4ef 0500 f08e 0500 4260 0580 be93 0500
00000260: de7e 0500 3b59 0500 0479 0580 b8b3 0680
00000270: c983 0580 37a4 0500 aa8e 0600 9beb 0580
00000280: 0a7b 0500 f7d3 0580 e9b7 0600 d578 0500
00000290: 462b 0680 2a0f 0680 b99d 0580 dd97 0500
000002a0: 56dd 0680 e985 0580 6958 0600 236b 0580
000002b0: 8185 0580 c1c5 0580 8266 0500 6082 0580
000002c0: 5b5b 0580 996a 0580 487f 0600 ea9d 0680
000002d0: c765 0580 2cd2 0600 9878 0500 7dc7 0500
000002e0: 186f 0580 2db7 0680 2465 0680 bca7 0500
000002f0: 5c91 0500 3cc5 0580 c1a6 0580 386c 0500
00000300: 92f7 0500 708f 0500 3a65 0580 c421 0600
00000310: c17e 0500 2d8b 0500 02c4 0580 137b 0500
00000320: ee83 0580 056a 0580 1287 0580 83be 0500
00000330: 5ed8 0500 1782 0580 bc73 0580 87cb 0500
00000340: 5978 0600 8a2b 0600 eb66 0580 cd67 0580
00000350: 3caf 0680 52cd 0680 ab84 0500 1599 0580
00000360: 0dcc 0500 5a5f 0580 6698 0500 3611 0680
00000370: 72a7 0580 4868 0500 0961 0680 de6b 0500
00000380: b683 0500 07f1 0500 e3a6 0580 4d75 0580
00000390: 966b 0580 9275 0580 075c 0500 cea3 0500
000003a0: df66 0580 8973 0500 b796 0580 b46a 0600
000003b0: b095 0600 4a5d 0500 0ca7 0500 4cad 0580
000003c0: 73b6 0500 e889 0680 5cb1 0580 5991 0500
000003d0: 547f 0500 8d6d 0500 9b87 0580 7d9c 0580
000003e0: 6e71 0580 2670 0500 8477 0580 d64a 0680
000003f0: d0c9 0680 fe7b 0500 855f 0500 ab57 0580
-5.69035e-40 -4.94064e-40 4.94759e-40 4.99089e-40 5.32433e-40 5.26165e-40 -5.43551e-40 4.93141e-40
-5.11899e-40 5.28997e-40 -5.77049e-40 -5.05496e-40 -4.9734e-40 -5.65565e-40 -5.25989e-40 5.03185e-40
-4.96615e-40 -5.3007e-40 -5.3023e-40 -4.97965e-40 -5.02986e-40 -5.16077e-40 5.46932e-40 -5.09544e-40
-4.9173e-40 5.77402e-40 5.13873e-40 -5.10252e-40 5.34242e-40 5.0357e-40 -5.16045e-40 6.21706e-40
-5.06208e-40 -4.91922e-40 -5.21122e-40 -5.06753e-40 -5.05517e-40 5.00683e-40 -5.12039e-40 5.79682e-40
5.00287e-40 -5.86232e-40 -4.9191e-40 5.4315e-40 -5.0971e-40 5.06981e-40 5.02318e-40 -4.96005e-40
-4.96413e-40 -5.64243e-40 -5.41214e-40 -4.93389e-40 5.10137e-40 4.9994e-40 4.9617e-40 -5.171e-40
-5.84812e-40 -5.10225e-40 5.34068e-40 5.3332e-40 -5.05035e-40 5.31266e-40 -5.26768e-40 5.27638e-40
5.65449e-40 -5.11978e-40 -5.06491e-40 5.54841e-40 5.32905e-40 -5.05727e-40 5.50566e-40 5.01404e-40
-5.5349e-40 -5.4812e-40 5.725e-40 5.39307e-40 -5.89795e-40 -5.12473e-40 6.18742e-40 -5.0792e-40
4.91319e-40 5.03974e-40 -5.71358e-40 -5.03304e-40 -5.07588e-40 -5.04456e-40 5.92399e-40 -4.91141e-40
5.93594e-40 5.03376e-40 -5.06948e-40 5.1969e-40 5.47119e-40 -5.03152e-40 -5.90395e-40 -5.01563e-40
5.0807e-40 4.9952e-40 -5.4574e-40 5.0572e-40 -4.99025e-40 5.49111e-40 -4.91434e-40 5.28147e-40
-5.7511e-40 5.79898e-40 6.06106e-40 5.94403e-40 5.07161e-40 -5.39515e-40 4.99943e-40 -5.46501e-40
5.62258e-40 -5.00069e-40 5.40163e-40 6.17236e-40 -4.98435e-40 -5.01348e-40 -5.61156e-40 5.34513e-40
-5.05446e-40 5.5295e-40 -5.88728e-40 -5.08076e-40 5.26647e-40 5.09641e-40 4.93082e-40 -5.11635e-40
-5.74322e-40 5.1763e-40 5.97316e-40 5.14327e-40 -5.2906e-40 -5.67988e-40 -5.13789e-40 5.03239e-40
-5.02021e-40 5.87686e-40 5.12076e-40 -5.74764e-40 4.98464e-40 -4.91388e-40 4.91539e-40 -5.78194e-40
5.09294e-40 -5.12173e-40 -4.9518e-40 -5.0999e-40 5.45144e-40 5.10454e-40 -4.93708e-40 5.12177e-40
5.04689e-40 4.91187e-40 -5.0259e-40 -6.15484e-40 -5.06453e-40 5.18087e-40 6.02191e-40 -5.43697e-40
5.03316e-40 -5.35216e-40 6.16988e-40 5.02524e-40 -5.66537e-40 -5.56453e-40 -5.15758e-40 5.13656e-40
-6.30413e-40 -5.07215e-40 5.82729e-40 -4.97611e-40 -5.0707e-40 -5.30118e-40 4.9595e-40 -5.05947e-40
-4.9195e-40 -4.97418e-40 5.96673e-40 -6.07662e-40 -4.95688e-40 6.26408e-40 5.02438e-40 5.3074e-40
-4.9903e-40 -6.16724e-40 -5.87295e-40 5.19349e-40 5.11323e-40 -5.29932e-40 -5.18998e-40 4.97999e-40
5.47989e-40 5.10633e-40 -4.95491e-40 5.63126e-40 5.04648e-40 5.09104e-40 -5.29492e-40 5.03328e-40
-5.06505e-40 -4.9721e-40 -5.07632e-40 5.2752e-40 5.36795e-40 -5.05845e-40 -5.00695e-40 5.3219e-40
5.94186e-40 5.66632e-40 -4.96097e-40 -4.96414e-40 -6.13875e-40 -6.24668e-40 5.0677e-40 -5.14093e-40
5.32377e-40 -4.93383e-40 5.13848e-40 -5.57187e-40 -5.19246e-40 4.96587e-40 -5.85823e-40 4.97873e-40
5.06426e-40 5.45642e-40 -5.19045e-40 -5.01257e-40 -4.97772e-40 -5.01354e-40 4.9219e-40 5.1794e-40
-4.9608e-40 5.00624e-40 -5.13244e-40 5.89291e-40 6.04711e-40 4.92643e-40 5.19103e-40 -5.21345e-40
5.24628e-40 -6.00484e-40 -5.22802e-40 5.11318e-40 5.04854e-40 4.98477e-40 -5.07824e-40 -5.15315e-40
-4.99868e-40 4.99409e-40 -5.02052e-40 -5.77859e-40 -6.2341e-40 5.03657e-40 4.93443e-40 -4.90627e-40

encoder.5.0.bias f4 [16]
00000000: e26d 0580 c15a 0500 f7c0 0580 3be0 0500
00000010: 3503 0600 cf7f 0500 3ee0 0500 7e7c 0580
00000020: 3abd 0680 27ce 0580 9a1a 0600 599a 0580
00000030: 295f 0500 87f5 0500 569d 0580 94ca 0500
-4.98596e-40 4.91734e-40 -5.284e-40 5.39616e-40 5.52163e-40 5.05027e-40 5.3962e-40 -5.03837e-40
-6.18895e-40 -5.33131e-40 5.60556e-40 -5.14547e-40 4.93315e-40 5.47256e-40 -5.15619e-40 5.31849e-40

encoder.5.2.weight f4 [16, 16, 3, 3]
00000000: df7b 0500 9561 0500 f3c1 0500 3680 0500
00000010: 1edd 0500 01a1 0580 ce59 0580 3dc4 0580
00000020: b75d 0500 d288 0580 9e8e 0500 e866 0580
00000030: 076a 0580 d0a9 0600 4778 0580 63fc 0500
00000040: adae 0580 ea9f 0500 fe69 0580 1da6 0600
00000050: dd62 0680 8cb8 0500 3069 0500 0513 0600
00000060: 178d 0500 5bd1 0580 cd8e 0580 a59f 0580
00000070: 3fa0 0580 4c62 0580 733d 0680 1280 0580
00000080: 86d9 0580 36d0 0580 bcb1 0680 90e0 0500
00000090: c263 0500 69b6 0500 418c 0580 887a 0580
000000a0: c873 0500 9790 0500 8ee9 0580 227b 0580
000000b0: b6a7 0500 8386 0580 665f 0580 ab68 0680
000000c0: 8474 0580 0885 0580 e187 0500 dc82 0500
000000d0: e85a 0580 a40e 0600 2ddb 0580 c6ec 0580
000000e0: 2270 0580 a691 0500 7ad6 0600 697e 0580
000000f0: b45b 0500 2d57 0680 1183 0500 5168 0580
00000100: e145 0600 4753 0600 569d 0500 8372 0580
00000110: 8f74 0500 3e76 0580 5890 0580 49f6 0500
00000120: eb86 0580 285b 0500 8458 0500 a074 0580
00000130: 3383 0500 86ef 0580 f368 0500 d9ca 0580
00000140: 48bb 0500 8685 0500 eb7d 0500 0552 0680
00000150: 9368 0580 51f5 0500 e883 0580 cdb8 0500
00000160: bb66 0580 d96f 0500 f562 0580 872b 0680
00000170: 968a 0580 3f40 0600 f4e0 0580 975f 0580
00000180: e66c 0500 bf81 0500 7d8c 0500 bac8 0580
00000190: 7aa4 0680 a465 0580 2696 0500 d380 0500
000001a0: 125e 0580 0c1d 0600 e299 0580 ec03 0600
000001b0: f263 0580 c459 0580 cb95 0500 557b 0580
000001c0: cc5d 0580 388e 0500 20d9 0580 0861 0580
000001d0: e7f6 0500 f779 0580 be5a 0580 245c 0580
000001e0: 95c5 0580 4699 0580 6970 0580 8cb1 0680
000001f0: fa74 0500 f3b0 0680 1281 0580 c663 0580
00000200: acdd 0600 7481 0500 e0ec 0580 a083 0580
00000210: 7589 0580 5f80 0500 ce83 0580 2b86 0580
00000220: 3d7b 0500 ba68 0500 1db5 0500 6d8e 0580
00000230: 1559 0580 1676 0580 1ae8 0500 62a3 0580
00000240: bb90 0580 cd83 0500 90ab 0680 bb94 0500
00000250: d23b 0600 ffa3 0680 1d70 0580 42bc 0580
00000260: 2d6a 0500 2673 0580 4fd1 0680 1a07 0600
00000270: c5b9 0500 d858 0580 a794 0600 2458 0580
00000280: bd7c 0580 b9bc 0500 7cb8 0580 e0be 0680
00000290: e85a 0580 e673 0580 fa20 0680 8dc2 0600
000002a0: efd7 0500 ac82 0500 2139 0680 689d 0580
000002b0: 8b68 0580 7670 0680 496f 0500 d4bb 0500
000002c0: 06c9 0500 5734 0680 3098 0580 1341 0680
000002d0: 1f79 0580 2f8d 0500 766a 0580 d785 0500
000002e0: 6dae 0500 abad 0580 3d63 0600 32af 0500
000002f0: b25f 0580 c57c 0500 ec88 0680 57dd 0680
00000300: c0de 0500 144d 0680 db8c 0500 7837 0600
00000310: 3585 0500 5088 0500 1e91 0580 0d66 0580
00000320: 9e67 0580 36dc 0580 5957 0680 6e8b 0580
00000330: fb9a 0580 7766 0500 4959 0500 53ac 0500
00000340: 636d 0580 63f6 0580 10f7 0500 155d 0580
00000350: fe5b 0500 9d90 0580 6f6f 0580 1a13 0600
00000360: e46e 0500 6f2b 0680 8d64 0580 9c8e 0580
00000370: f981 0500 c573 0500 bf74 0580 2b5d 0580
00000380: 27ae 0680 af6a 0580 7409 0600 be5c 0580
00000390: 7563 0580 d27f 0580 d287 0680 7f0f 0680
000003a0: 5a7d 0500 3e9c 0580 a061 0580 d66a 0680
000003b0: 4d74 0500 79ad 0580 4686 0580 1dda 0500
000003c0: 0b96 0580 7c5d 0600 fc88 0500 0e86 0500
000003d0: eebf 0580 ec8b 0580 af8d 0580 0ae1 0580
000003e0: 1485 0580 a800 0600 146c 0580 8565 0500
000003f0: d4cd 0500 d004 0680 a40f 0680 1e7f 0500
5.03614e-40 4.94183e-40 5.28753e-40 5.05171e-40 5.385e-40 -5.16935e-40 -4.91393e-40 -5.29575e-40
4.92796e-40 -5.0826e-40 5.10339e-40 -4.96093e-40 -4.97213e-40 6.1193e-40 -5.02325e-40 5.49717e-40
-5.2184e-40 5.16544e-40 -4.972e-40 6.10603e-40 -5.86478e-40 5.2538e-40 4.96912e-40 5.57836e-40
5.09791e-40 -5.3428e-40 -5.10405e-40 -5.16447e-40 -5.16663e-40 -4.9444e-40 -5.73057e-40 -5.0512e-40
-5.3721e-40 -5.3387e-40 -6.14772e-40 5.39735e-40 4.94964e-40 5.24614e-40 -5.09491e-40 -5.03133e-40
5.00712e-40 5.11047e-40 -5.42961e-40 -5.03349e-40 5.19341e-40 -5.07431e-40 -4.934e-40 -5.88561e-40
-5.00975e-40 -5.069e-40 5.07922e-40 5.06121e-40 -4.91788e-40 5.56265e-40 -5.37803e-40 -5.44116e-40
-4.99403e-40 5.11426e-40 6.27953e-40 -5.04525e-40 4.92074e-40 -5.82286e-40 5.06195e-40 -4.96599e-40
5.76081e-40 5.80887e-40 5.15619e-40 -5.00257e-40 5.00991e-40 -5.01595e-40 -5.10958e-40 5.47528e-40
-5.07577e-40 4.91878e-40 4.90931e-40 -5.01015e-40 5.06243e-40 -5.45102e-40 4.96826e-40 -5.31946e-40
5.26361e-40 5.07077e-40 5.04348e-40 -5.80436e-40 -4.96692e-40 5.4718e-40 -5.06497e-40 5.25472e-40
-4.9603e-40 4.99301e-40 -4.94677e-40 -5.66628e-40 -5.08893e-40 5.7406e-40 -5.39875e-40 -4.93469e-40
4.98243e-40 5.05722e-40 5.09575e-40 -5.31185e-40 -6.10016e-40 -4.95639e-40 5.1304e-40 5.05391e-40
-4.92924e-40 5.61433e-40 -5.1438e-40 5.5242e-40 -4.95031e-40 -4.9138e-40 5.12913e-40 -5.0342e-40
-4.92825e-40 5.10196e-40 -5.37067e-40 -4.93986e-40 5.4775e-40 -5.0293e-40 -4.9173e-40 -4.92231e-40
-5.30057e-40 -5.14162e-40 -4.99503e-40 -6.14705e-40 5.01141e-40 -6.1449e-40 -5.05479e-40 -4.9497e-40
6.30534e-40 5.05617e-40 -5.44152e-40 -5.06396e-40 -5.08488e-40 5.05228e-40 -5.0646e-40 -5.07308e-40
5.03387e-40 4.96746e-40 5.24149e-40 -5.1027e-40 -4.91134e-40 -5.01539e-40 5.4244e-40 -5.17788e-40
-5.11097e-40 5.06459e-40 -6.12558e-40 5.12532e-40 5.72472e-40 -6.09844e-40 -4.99396e-40 -5.26712e-40
4.97266e-40 -5.00485e-40 -6.26099e-40 5.5356e-40 5.25819e-40 -4.91049e-40 6.0434e-40 -4.90796e-40
-5.03925e-40 5.26878e-40 -5.25358e-40 -6.19486e-40 -4.91788e-40 -5.00754e-40 -5.62843e-40 6.20805e-40
5.3664e-40 5.06054e-40 -5.71507e-40 -5.15644e-40 -4.9668e-40 -5.91356e-40 4.99099e-40 5.26558e-40
5.31291e-40 -5.69789e-40 -5.13772e-40 -5.74357e-40 -5.02628e-40 5.09825e-40 -4.97368e-40 5.0719e-40
5.2175e-40 -5.21478e-40 5.86613e-40 5.22026e-40 -4.93506e-40 5.03936e-40 -6.00131e-40 -6.30415e-40
5.39085e-40 -5.78663e-40 5.09707e-40 5.70911e-40 5.06963e-40 5.08077e-40 -5.11236e-40 -4.95786e-40
-4.96348e-40 -5.38174e-40 -5.82347e-40 -5.09195e-40 -5.14774e-40 4.95935e-40 4.91207e-40 5.20996e-40
-4.98418e-40 -5.47564e-40 5.47807e-40 -4.92569e-40 4.92178e-40 -5.11055e-40 -4.99152e-40 5.57865e-40
4.98958e-40 -5.66594e-40 -4.95248e-40 -5.10336e-40 5.05803e-40 5.00708e-40 -5.01058e-40 -4.926e-40
-6.13487e-40 -4.97448e-40 5.54404e-40 -4.92447e-40 -4.94856e-40 -5.05031e-40 -5.99736e-40 -5.56572e-40
5.04145e-40 -5.15227e-40 -4.94199e-40 -5.89338e-40 5.00898e-40 -5.21408e-40 -5.07346e-40 5.37422e-40
-5.13003e-40 5.84549e-40 5.08318e-40 5.07267e-40 -5.28029e-40 -5.09372e-40 -5.10004e-40 -5.39906e-40
-5.06917e-40 5.51248e-40 -4.97949e-40 4.95596e-40 5.33015e-40 -5.5274e-40 -5.56624e-40 5.04779e-40

encoder.5.2.bias f4 [16]
00000000: 1164 0500 dfc8 0600 7bc4 0500 6246 0600
00000010: c065 0600 2c82 0500 fd6e 0580 8296 0500
00000020: b795 0580 56cc 0500 827a 0500 92fa 0580
00000030: 6966 0500 e3c1 0680 47a9 0580 f018 0600
4.95075e-40 6.23072e-40 5.29661e-40 5.76262e-40 5.87514e-40 5.05874e-40 -4.98993e-40 5.1317e-40
-5.12885e-40 5.3248e-40 5.03125e-40 -5.49065e-40 4.95915e-40 -6.20566e-40 -5.19903e-40 5.59959e-40

encoder.6.weight f4 [32, 16, 3, 3]
00000000: 6b96 0580 3329 0600 9093 0580 958f 0580
00000010: e889 0580 127e 0500 f788 0580 5be7 0580
00000020: 4d07 0680 1c5e 0580 3c75 0680 d175 0680
00000030: 7e61 0500 42aa 0580 8b80 0580 64f2 0500
00000040: 90be 0580 ffff 0580 a48d 0580 1676 0500
00000050: 5c81 0500 ba99 0580 8bb9 0500 a591 0580
00000060: 896e 0500 0800 0680 11aa 0600 6209 0600
00000070: 529d 0580 f878 0500 0578 0500 bc9d 0500
00000080: f0a4 0580 776b 0500 dbae 0500 dcb5 0580
00000090: 2af4 0500 9982 0680 e64a 0600 5843 0600
000000a0: 7d08 0680 63c3 0500 813a 0680 4bd2 0580
000000b0: 861e 0600 a734 0600 bd92 0600 ac79 0580
000000c0: 114f 0600 7784 0500 4ed5 0500 5081 0500
000000d0: a7c9 0500 2fa3 0500 5b8c 0580 bf90 0500
000000e0: e769 0580 a875 0580 eb64 0500 50b8 0580
000000f0: 32de 0580 086f 0580 2e9c 0580 70a3 0580
00000100: 5179 0500 51a5 0500 b1dd 0500 6b65 0500
00000110: 1c5c 0500 ce5a 0500 4d5d 0500 dea0 0500
00000120: b413 0600 cd91 0680 469d 0580 3cd5 0500
00000130: 7461 0580 1780 0500 1c8f 0580 1cee 0500
00000140: ba13 0600 416c 0500 b871 0500 888b 0580
00000150: a598 0500 3fb7 0580 5acd 0580 8ed3 0500
00000160: bcc5 0680 5370 0680 b3a6 0580 15ce 0680
00000170: c64c 0680 b793 0580 86bb 0500 44b6 0500
00000180: ffe9 0580 058b 0580 d7a2 0580 c17c 0500
00000190: 04c6 0500 64a0 0600 6178 0500 2bc4 0500
000001a0: 1824 0600 591d 0680 d862 0600 836b 0580
000001b0: 53b6 0500 8361 0580 0dc4 0580 6a7f 0680
000001c0: 2865 0500 b776 0580 5097 0580 c49f 0500
000001d0: 6b71 0580 c7ae 0580 0172 0580 eb6d 0580
000001e0: 28a7 0500 185d 0500 ad95 0500 e278 0580
000001f0: 91c2 0680 cfb0 0500 c963 0500 4be0 0580
00000200: 6e8a 0500 aedc 0600 c86e 0580 7001 0680
00000210: 2887 0500 cb61 0500 5c66 0580 84bd 0500
00000220: be75 0580 59c7 0580 f38f 0580 bba5 0600
00000230: e4b5 0680 388b 0580 e16a 0580 857f 0580
00000240: 0173 0500 e86b 0580 ed51 0680 ea4f 0680
00000250: a47d 0580 ca62 0500 5664 0500 698f 0500
00000260: ca6e 0500 596e 0500 bd5f 0500 2f66 0580
00000270: 3191 0500 4cc3 0500 a871 0500 0c14 0680
00000280: a32e 0600 a959 0580 436e 0500 a82c 0600
00000290: 33a2 0580 f071 0580 782c 0600 2cf9 0580
000002a0: 8389 0500 2372 0500 1090 0580 5b5f 0580
000002b0: d47a 0580 f7b4 0500 84bf 0580 c307 0600
000002c0: f014 0600 3986 0500 f975 0500 9b64 0500
000002d0: ee67 0680 e19b 0500 8c7f 0500 5e67 0600
000002e0: ff77 0580 7dc6 0500 82b0 0580 6365 0580
000002f0: 2e80 0580 266e 0580 036b 0580 d97e 0580
00000300: 007f 0580 50bc 0580 b783 0580 1568 0500
00000310: 1578 0580 f174 0500 4883 0600 36a4 0600
00000320: bf60 0500 e76b 0500 ab82 0500 0f9c 0500
00000330: 74a7 0500 8be2 0500 dab8 0580 729e 0600
00000340: b383 0500 57c2 0500 bf25 0600 f66c 0580
00000350: 1920 0600 b87f 0500 c285 0580 c85c 0500
00000360: b359 0500 8d58 0500 8eeb 0500 3a89 0500
00000370: cd85 0580 22b8 0500 8f90 0580 b27f 0580
00000380: c296 0580 ebcf 0500 5b91 0580 11bd 0580
00000390: 0974 0580 ed90 0500 9b74 0600 5765 0500
000003a0: 23b9 0580 fb4a 0680 289a 0580 2590 0580
000003b0: 9368 0500 d2a8 0500 26b4 0580 b47c 0500
000003c0: d5a4 0580 e56f 0500 ae84 0580 0b85 0680
000003d0: a65a 0580 0fdb 0500 2a91 0580 4b5c 0580
000003e0: 2799 0600 9777 0500 4780 0580 14cd 0680
000003f0: 61cb 0500 b0d5 0580 6fad 0500 d82a 0680
-5.13137e-40 5.65792e-40 -5.12113e-40 -5.10685e-40 -5.08649e-40 5.04403e-40 -5.08311e-40 -5.42172e-40
-5.53632e-40 -4.92938e-40 -5.93069e-40 -5.93278e-40 4.94151e-40 -5.20254e-40 -5.0529e-40 5.46131e-40
-5.27538e-40 -5.51012e-40 -5.09989e-40 5.01539e-40 5.05583e-40 -5.14324e-40 5.25738e-40 -5.11425e-40
4.9883e-40 -5.51024e-40 6.12021e-40 5.54379e-40 -5.15613e-40 5.02573e-40 5.02232e-40 5.15762e-40
-5.18346e-40 4.97729e-40 5.21904e-40 -5.24416e-40 5.46767e-40 -5.97863e-40 5.77881e-40 5.75171e-40
-5.54058e-40 5.29269e-40 -5.72e-40 -5.34616e-40 5.61963e-40 5.69901e-40 6.03653e-40 -5.02825e-40
5.79377e-40 5.06697e-40 5.35697e-40 5.05566e-40 5.31517e-40 5.17717e-40 -5.09528e-40 5.11103e-40
-4.97168e-40 -5.01385e-40 4.9538e-40 -5.25296e-40 -5.38886e-40 -4.99008e-40 -5.15204e-40 -5.17808e-40
5.02698e-40 5.18482e-40 5.38705e-40 4.9556e-40 4.9222e-40 4.91752e-40 4.92647e-40 5.16886e-40
5.58081e-40 -6.03316e-40 -5.15597e-40 5.35672e-40 -4.94137e-40 5.05127e-40 -5.10515e-40 5.44595e-40
5.5809e-40 4.98012e-40 4.99972e-40 -5.09232e-40 5.13936e-40 -5.24914e-40 -5.32844e-40 5.35069e-40
-6.21947e-40 -5.91307e-40 -5.18978e-40 -6.24941e-40 -5.78554e-40 -5.12168e-40 5.26448e-40 5.24562e-40
-5.4312e-40 -5.09048e-40 -5.17593e-40 5.03931e-40 5.30212e-40 6.0855e-40 5.02361e-40 5.29549e-40
5.63961e-40 -5.61541e-40 5.86471e-40 -4.97745e-40 5.24583e-40 -4.94158e-40 -5.29507e-40 -5.9672e-40
4.95466e-40 -5.01764e-40 -5.13458e-40 5.1649e-40 -4.99864e-40 -5.21876e-40 -5.00074e-40 -4.98609e-40
5.19142e-40 4.92573e-40 5.12871e-40 -5.02542e-40 -6.2081e-40 5.22604e-40 4.94974e-40 -5.39639e-40
5.08837e-40 6.30178e-40 -4.98918e-40 -5.51529e-40 5.07662e-40 4.94259e-40 -4.95897e-40 5.27163e-40
-5.01415e-40 -5.3069e-40 -5.10817e-40 6.10466e-40 -6.16263e-40 -5.0912e-40 -4.97518e-40 -5.04923e-40
5.00433e-40 -4.97887e-40 -5.80402e-40 -5.79681e-40 -5.04249e-40 4.94616e-40 4.95171e-40 5.10623e-40
4.98921e-40 4.98763e-40 4.93522e-40 -4.95834e-40 5.11262e-40 5.29237e-40 4.9995e-40 -5.58204e-40
5.67743e-40 -4.91341e-40 4.98732e-40 5.67033e-40 -5.17364e-40 -5.0005e-40 5.66965e-40 -5.48564e-40
5.08507e-40 5.00122e-40 -5.10857e-40 -4.93385e-40 -5.0324e-40 5.24095e-40 -5.2788e-40 5.53797e-40
5.58524e-40 5.07327e-40 5.01498e-40 4.95268e-40 -5.88296e-40 5.15096e-40 5.04933e-40 5.88094e-40
-5.02224e-40 5.30382e-40 -5.22497e-40 -4.95548e-40 -5.0516e-40 -4.98691e-40 -4.97566e-40 -5.04682e-40
-5.04736e-40 -5.26731e-40 -5.06428e-40 4.96515e-40 -5.02255e-40 5.01128e-40 5.98108e-40 6.09921e-40
4.93883e-40 4.97886e-40 5.06052e-40 5.15161e-40 5.19248e-40 5.40446e-40 -5.2549e-40 6.07852e-40
5.06422e-40 5.28893e-40 5.64554e-40 -4.98265e-40 5.62527e-40 5.04994e-40 -5.07161e-40 4.92461e-40
4.91355e-40 4.90944e-40 5.43679e-40 5.08405e-40 -5.07176e-40 5.25232e-40 -5.11035e-40 -5.04986e-40
-5.13259e-40 5.33764e-40 -5.11321e-40 -5.27002e-40 -5.00803e-40 5.11167e-40 5.92843e-40 4.95531e-40
-5.25592e-40 -5.77911e-40 -5.14478e-40 -5.10887e-40 4.96692e-40 5.19739e-40 -5.23803e-40 5.03913e-40
-5.18308e-40 4.99318e-40 -5.06774e-40 -5.9874e-40 -4.91696e-40 5.37761e-40 -5.11253e-40 -4.92286e-40
6.05954e-40 5.02078e-40 -5.05195e-40 -6.24581e-40 5.32136e-40 -5.35834e-40 5.21394e-40 -5.66382e-40

encoder.6.bias f4 [32]
00000000: 6460 0580 b47d 0500 b2ee 0500 5c88 0580
00000010: a338 0600 e492 0580 7f68 0500 e46a 0600
00000020: e9b8 0500 053d 0600 e88e 0500 0fa3 0580
00000030: bd8a 0580 9a59 0580 3df6 0580 120e 0600
00000040: 8931 0600 ef90 0500 b289 0580 7191 0580
00000050: 3e0f 0680 5f8d 0600 272d 0680 ab3f 0600
00000060: 89e7 0580 dc79 0580 3cc8 0500 cd90 0500
00000070: ce8d 0580 ba7f 0580 227b 0500 8378 0500
-4.93756e-40 5.04271e-40 5.44805e-40 -5.08094e-40 5.7133e-40 -5.11872e-40 4.96664e-40 5.89358e-40
5.25511e-40 5.72903e-40 5.10443e-40 -5.17672e-40 -5.08947e-40 -4.9132e-40 -5.47511e-40 5.5606e-40
5.68783e-40 5.1117e-40 -5.08573e-40 -5.11352e-40 -5.56481e-40 6.01727e-40 -5.6721e-40 5.73853e-40
-5.42237e-40 -5.02892e-40 5.31008e-40 5.11122e-40 -5.10047e-40 -5.04997e-40 5.03349e-40 5.02409e-40
