Autoencoder RealBlur_R Dataset/autoencoder_model_full6.pth (torch, 785318 bytes, 16 tensors)

encoder.0.weight f4 [16, 3, 3, 3]
4.9089e-40 4.96044e-40 4.92806e-40 4.91836e-40 4.91667e-40 4.90836e-40 4.91259e-40 4.92251e-40
4.92792e-40 4.93673e-40 -4.98896e-40 -4.9279e-40 4.96306e-40 -4.96678e-40 -4.90571e-40 4.98548e-40
-4.9661e-40 -4.92694e-40 4.98302e-40 -4.90642e-40 -4.95028e-40 4.99396e-40 -4.93537e-40 -4.96772e-40
4.98424e-40 -4.9486e-40 -4.91442e-40 0.07813929 0.0827102 0.092695616 0.084410466 0.08813599
0.10489643 0.03916467 0.12691823 0.10614039 -0.022424137 -0.046347223 0.021621265 -0.07376487
0.018531654 -0.04666722 -0.060423903 -0.01005841 -0.0188533 0.16765463 0.19857493 0.22299597
0.16161634 0.19373755 0.22230776 0.13063857 0.19133538 0.2281514 4.949e-40 4.98676e-40
4.94162e-40 4.94445e-40 4.92227e-40 4.92084e-40 4.95796e-40 4.97014e-40 4.92182e-40 -4.90868e-40
-4.91365e-40 -4.9897e-40 -4.90785e-40 -5.01272e-40 -4.98656e-40 -5.01697e-40 -5.01595e-40 -4.96236e-40
4.923e-40 5.0036e-40 4.9906e-40 -5.044e-40 5.02322e-40 4.91147e-40 -5.01556e-40 5.01928e-40
4.9455e-40 0.29904774 0.35275993 0.33800375 0.3572455 0.40477276 0.38926464 0.34354758
0.40226883 0.38710275 0.07810352 0.11555072 0.10134585 0.1082883 0.14790659 0.1272692
0.11954279 0.15130194 0.13723439 -0.10653035 -0.08940892 -0.09678616 -0.09544644 -0.07610065
-0.08582895 -0.08463158 -0.06456994 -0.07431254 -0.025890052 -0.09972566 0.04323859 0.080562025
-0.012783174 -0.07640374 -0.006672333 -0.09244577 0.042343035 0.03281669 0.1800593 0.02881658
0.10172406 0.042874098 0.0862643 0.1727852 0.10404215 0.1301431 -0.0037410234 -0.17650029
-0.14989589 -0.08405059 -0.15271132 -0.15026021 -0.14350049 -0.13210745 -0.10804287 0.034775157
0.092094906 0.07560927 0.046248995 0.06381811 0.079550445 0.06663223 0.078478776 0.06975986
-0.010879495 -0.007855696 0.015541191 -0.041767254 0.031780038 0.0085941255 0.0064559737 0.023055611
0.049774755 -0.0040212166 0.035161898 0.016489964 -0.02887989 -0.017464444 0.03930979 0.016950993
0.03725314 -0.023064036 -4.93802e-40 -4.94905e-40 -4.939e-40 -4.92519e-40 -4.92257e-40 -4.93677e-40
-4.92107e-40 -4.93897e-40 -4.90475e-40 -4.93968e-40 -4.94717e-40 -4.93103e-40 -4.93434e-40 -4.91075e-40
-4.92598e-40 -4.95146e-40 -4.91e-40 -4.9114e-40 -4.90567e-40 -4.91011e-40 -4.91874e-40 -4.92328e-40
-4.90885e-40 -4.93805e-40 -4.94122e-40 -4.92107e-40 -4.94347e-40 0.021443503 0.035827354 0.07386449
-0.017732149 0.047060262 0.0350176 0.033765256 0.07850969 0.055189986 0.13814591 0.18233865
0.16538554 0.15527683 0.15095533 0.201076 0.14507093 0.22898988 0.16985571 0.15601765
0.20904581 0.21074459 0.13892491 0.2199081 0.22213566 0.17151622 0.25727826 0.2342109
0.22890331 0.29990706 0.28341705 0.30424565 0.39234406 0.36454082 0.30904454 0.38721767
0.3677927 0.32907972 0.41657966 0.38748986 0.41496965 0.48522282 0.4624733 0.41543123
0.4947109 0.47333217 0.12491621 0.19867845 0.1741213 0.1846169 0.2495328 0.23357369
0.18696518 0.25863653 0.24189328 0.2829343 0.328047 0.3128649 0.29803562 0.35736945
0.3157184 0.27717996 0.3483716 0.32787538 -0.16632204 -0.12863305 -0.13501115 -0.15339832
00000000: 6758 0500 c566 0500 be5d 0500 0a5b 0500
00000010: 915a 0500 4058 0500 6e59 0500 325c 0500
00000020: b45d 0500 2960 0500 b86e 0580 b35d 0580
00000030: 8067 0500 8968 0580 8357 0580 c06d 0500
00000040: 5968 0580 6e5d 0580 106d 0500 b657 0580
00000050: f063 0580 1d70 0500 c85f 0580 cc68 0580
00000060: 676d 0500 7863 0580 f159 0580 7e07 a03d
00000070: f763 a93d 33d7 bd3d 65df ac3d a480 b43d
00000080: f1d3 d63d 226b 203d daf6 013e 2260 d93d
00000090: d3b2 b7bc 96d6 3dbd 141f b13c 0912 97bd
000000a0: b2cf 973c 2026 3fbd 0e7f 77bd 07cc 24bc
000000b0: 3c72 9abc a8ad 2b3e 3a57 4b3e 0e59 643e
000000c0: c17e 253e 2363 463e a5a4 633e 1ec6 053e
000000d0: 6ced 433e 85a0 693e 9463 0500 1b6e 0500
000000e0: 8661 0500 5062 0500 215c 0500 bb5b 0500
000000f0: 1466 0500 7969 0500 015c 0500 5758 0580
00000100: ba59 0580 ed6e 0580 1c58 0580 5875 0580
00000110: 0d6e 0580 8776 0580 3e76 0580 4e67 0580
00000120: 555c 0500 cd72 0500 2d6f 0500 107e 0580
00000130: 4578 0500 1e59 0500 2276 0580 2c77 0500
00000140: 9b62 0500 c91c 993e f39c b43e d40e ad3e
00000150: e2e8 b63e 603e cf3e b24d c73e 78e5 af3e
00000160: 2ef6 cd3e 5532 c63e bdf4 9f3d dba5 ec3d
00000170: 6a8e cf3d 42c6 dd3d d374 173e db52 023e
00000180: dad2 f43d e5ee 1a3e 2c87 0c3e 962c dabd
00000190: 061c b7bd d237 c6bd 6c79 c3bd a8da 9bbd
000001a0: 17c7 afbd 5253 adbd 3f3d 84bd 2c31 98bd
000001b0: 6017 d4bc f83c ccbd f31a 313d b4fd a43d
000001c0: 8570 51bc 9079 9cbd 96a3 dabb 3554 bdbd
000001d0: e46f 2d3d cb6a 063d 7761 383e c010 ec3c
000001e0: b454 d03d c09c 2f3d 56ab b03d 9aee 303e
000001f0: 0d14 d53d 3c44 053e f52b 75bb 7ebc 34be
00000200: 4f7e 19be b722 acbd 5b60 1cbe d0dd 19be
00000210: cbf1 12be 2d47 07be 9545 ddbd 6570 0e3d
00000220: 419c bc3d 08d9 9a3d 966f 3d3d 12b3 823d
00000230: 58eb a23d 7b76 883d 7bb9 a03d 42de 8e3d
00000240: e93f 32bc 2db5 00bc 7ba0 7e3c 2414 2bbd
00000250: c92b 023d 60ce 0c3c a28c d33b 1fdf bc3c
00000260: 9de0 4b3d 69c4 83bb ec05 103d f615 873c
00000270: 8595 ecbc 9811 8fbc 4d03 213d cfdc 8a3c
00000280: c096 183d caf0 bcbc 8560 0580 9863 0580
00000290: cb60 0580 f15c 0580 365c 0580 2c60 0580
000002a0: cb5b 0580 c960 0580 3f57 0580 fb60 0580
000002b0: 1263 0580 925e 0580 7e5f 0580 eb58 0580
000002c0: 2a5d 0580 4464 0580 b558 0580 1959 0580
000002d0: 8057 0580 bd58 0580 255b 0580 695c 0580
000002e0: 6358 0580 8760 0580 6961 0580 cb5b 0580
000002f0: 0a62 0580 49aa af3c b4bf 123d 4446 973d
00000300: 0343 91bc 43c2 403d 9d6e 0f3d 704d 0a3d
00000310: b0c9 a03d e50e 623d 1f76 0d3e fcb6 3a3e
00000320: d45a 293e e400 1f3e 0994 1a3e dee6 4d3e
00000330: 798d 143e 537c 6a3e a8ee 2d3e 17c3 1f3e
00000340: 1b10 563e 6ecd 573e 5542 0e3e 972f 613e
00000350: 8877 633e f3a1 2f3e fab9 833e fbd4 6f3e
00000360: a165 6a3e 6b8d 993e 0a1c 913e 16c6 9b3e
00000370: 52e1 c83e 18a5 ba3e 163b 9e3e 6541 c63e
00000380: 534f bc3e 237d a83e ee49 d53e 1265 c63e
00000390: e776 d43e 206f f83e 4dc9 ec3e 67b3 d43e
000003a0: bf4a fd3e 9858 f23e 12d4 ff3d 5d72 4b3e
000003b0: db4c 323e 360c 3d3e 8785 7f3e f12d 6f3e
000003c0: cd73 3f3e 026c 843e dfb2 773e c4dc 903e
000003d0: c7f5 a73e d42f a03e 2098 983e 21f9 b63e
000003e0: d8a5 a13e 88ea 8d3e c35d b23e 48df a73e
000003f0: 5350 2abe 62b8 03be 5d40 0abe 7314 1dbe

encoder.0.bias f4 [16]
4.9328e-40 -0.08230111 4.92234e-40 0.079675 0.60987717 -0.43325877 4.91134e-40 -0.04847543
-0.079129264 0.15281181 0.64725804 -0.05289751 0.059785567 0.5765509 0.63549733 0.25157273
00000000: 105f 0500 7c8d a8bd 265c 0500 a52c a33d
00000010: e920 1c3f 18d4 ddbe 1559 0500 2c8e 46bd
00000020: 860e a2bd b37a 1c3e b4b2 253f 0fab 58bd
00000030: b6e1 743d d798 133f f4af 223f 24ce 803e

encoder.2.weight f4 [32, 16, 3, 3]
4.91559e-40 -6.15887e-40 4.98614e-40 -5.32645e-40 -5.04291e-40 5.1239e-40 4.9499e-40 -4.95091e-40
-4.99487e-40 5.59642e-40 5.05806e-40 5.11893e-40 4.92062e-40 4.99826e-40 5.0558e-40 5.11742e-40
5.03014e-40 4.97572e-40 5.96105e-40 -5.759e-40 -6.04823e-40 5.88676e-40 -5.44913e-40 -5.00771e-40
-5.37603e-40 -6.2e-40 6.09038e-40 -4.90554e-40 -4.95199e-40 5.78033e-40 4.96266e-40 4.9737e-40
4.96556e-40 4.97932e-40 4.97273e-40 4.94074e-40 -5.11516e-40 -4.95662e-40 -5.0691e-40 5.04402e-40
5.22476e-40 4.97378e-40 5.20479e-40 4.98777e-40 -5.2428e-40 -5.21404e-40 5.27005e-40 5.23416e-40
-5.56558e-40 5.55888e-40 5.16072e-40 6.24228e-40 5.23193e-40 5.44229e-40 6.03494e-40 5.88087e-40
5.78677e-40 5.94372e-40 -5.68235e-40 5.35652e-40 6.1536e-40 -5.6596e-40 -5.76155e-40 -4.93316e-40
-4.96954e-40 -4.94193e-40 -4.9463e-40 -4.98628e-40 5.78236e-40 4.96253e-40 4.9081e-40 4.93223e-40
4.94874e-40 4.9299e-40 4.9535e-40 4.92181e-40 4.90669e-40 4.94228e-40 4.94936e-40 4.92844e-40
4.94088e-40 -4.92841e-40 -4.93778e-40 -5.0124e-40 -5.01024e-40 -4.9835e-40 -5.02961e-40 -4.94591e-40
-4.98078e-40 -4.93854e-40 5.02904e-40 4.9829e-40 4.97474e-40 5.04467e-40 -5.32227e-40 -6.25869e-40
-4.94946e-40 -4.93535e-40 -5.00946e-40 4.93694e-40 4.91996e-40 4.9363e-40 -5.88156e-40 -5.25008e-40
-4.95547e-40 -4.9201e-40 -4.9419e-40 -4.91727e-40 -5.39098e-40 -5.67356e-40 -5.58577e-40 -5.66755e-40
-6.06213e-40 -6.04695e-40 5.21171e-40 -5.31632e-40 -5.62868e-40 -5.13762e-40 5.56967e-40 5.11213e-40
5.00241e-40 4.99318e-40 4.94344e-40 5.06917e-40 4.92395e-40 5.05695e-40 -5.24098e-40 -5.74581e-40
-5.50305e-40 -4.97652e-40 -5.02986e-40 -6.30038e-40 -5.30599e-40 -4.92905e-40 -5.21772e-40 5.50646e-40
6.05061e-40 -5.93858e-40 4.99183e-40 -5.99562e-40 6.00347e-40 5.09626e-40 -5.88698e-40 5.71985e-40
5.35275e-40 5.40604e-40 4.93693e-40 5.28431e-40 5.52717e-40 5.1364e-40 -6.24482e-40 -5.6203e-40
5.254e-40 -0.00066328875 -0.0010303331 -0.00042466985 -0.00035890876 -0.00040634596 0.00020767258 -0.001294815
-0.0010637074 -5.191054e-06 -5.64372e-40 -5.2867e-40 5.50029e-40 5.78584e-40 -5.49781e-40 -5.94174e-40
5.46557e-40 6.29767e-40 5.49731e-40 0.0021700645 0.0011727847 0.001454003 0.0020186892 0.0012399718
0.0014417998 0.0010042118 0.00043381736 0.0010060469 0.0053108395 0.0054043 0.0049351547 0.005273209
0.0053318734 0.0048717866 0.005132363 0.005118908 0.004631829 0.0013896271 0.0014440707 0.0013230713
0.0013135211 0.0013692032 0.00127793 0.0011813117 0.0012449042 0.0012110893 4.96413e-40 4.9563e-40
-4.90759e-40 4.94136e-40 4.97509e-40 -4.90796e-40 5.05123e-40 5.0061e-40 -4.9158e-40 0.001175868
0.0006591638 0.0013207047 0.0015450417 0.0013901454 0.0020556485 0.00044618113 0.0006013518 0.0017696626
0.0019462479 0.001112991 0.0016252947 0.0021265922 0.0016530016 0.0021372105 0.00088559015 0.0007106605
0.0017163499 0.00086741685 0.00013510406 0.00057985226 0.00081822654 0.0002707051 0.00066155696 0.00017477294
-0.00019364654 0.00048167672 0.003007782 0.0032302842 0.003617805 0.0034411843 0.003814256 0.004275224
0.003482473 0.0039495775 0.004497645 0.0016025415 0.0011469987 0.0018201845 0.00206012 0.0020003992
0.0027024767 0.0008789727 0.0011370132 0.002384011 0.0002052996 0.00013248644 0.000138592 0.00020694752
00000000: 445a 0500 d8b4 0680 ef6d 0500 cccc 0580
00000010: c27d 0580 5694 0500 d563 0500 1d64 0580
00000020: 5e70 0580 0e18 0600 fb81 0500 f392 0500
00000030: ab5b 0500 5071 0500 5a81 0500 8792 0500
00000040: 337a 0500 076b 0500 b37d 0600 6045 0680
00000050: 0096 0680 fd68 0600 ffee 0580 f273 0580
00000060: 9eda 0580 4fc0 0680 c0a1 0600 7757 0580
00000070: 6a64 0580 524b 0600 6367 0500 776a 0500
00000080: 3268 0500 086c 0500 326a 0500 4761 0500
00000090: e691 0580 b465 0580 0f85 0580 117e 0500
000000a0: 73b0 0500 7d6a 0500 e2aa 0500 636e 0500
000000b0: 7bb5 0580 76ad 0580 13bd 0500 12b3 0500
000000c0: 750f 0680 970d 0600 999e 0500 18cc 0600
000000d0: 73b2 0500 17ed 0500 4c92 0600 5967 0600
000000e0: 1e4d 0600 de78 0600 0230 0680 2ed5 0500
000000f0: 60b3 0600 ab29 0680 1646 0680 2a5f 0580
00000100: 4e69 0580 9c61 0580 d462 0580 f96d 0580
00000110: e34b 0600 5a67 0500 2e58 0500 e85e 0500
00000120: 8263 0500 415e 0500 d664 0500 005c 0500
00000130: c957 0500 b561 0500 ae63 0500 d95d 0500
00000140: 5161 0500 d75d 0580 7460 0580 4175 0580
00000150: a774 0580 326d 0580 0d7a 0580 b862 0580
00000160: 706c 0580 aa60 0580 e479 0500 086d 0500
00000170: c16a 0500 407e 0500 a2cb 0580 abd0 0680
00000180: b563 0580 c65f 0580 6f74 0580 3860 0500
00000190: 7c5b 0500 0a60 0500 8a67 0680 82b7 0580
000001a0: 6265 0580 865b 0580 9a61 0580 bc5a 0580
000001b0: c9de 0580 8f2d 0680 1615 0680 e22b 0680
000001c0: e099 0680 a595 0680 d0ac 0500 f9c9 0580
000001d0: 0c21 0680 2998 0580 9910 0600 0e91 0500
000001e0: 7872 0500 e56f 0500 0862 0500 1485 0500
000001f0: 995c 0500 ac81 0500 f9b4 0580 b341 0680
00000200: 07fe 0580 406b 0580 1f7a 0580 4adc 0680
00000210: 18c7 0580 055e 0580 7dae 0580 fafe 0500
00000220: aa96 0600 6f77 0680 856f 0500 5687 0680
00000230: 8689 0600 a18c 0500 0d69 0680 763a 0600
00000240: 21d4 0500 fce2 0500 3760 0500 0dc1 0500
00000250: c004 0600 d297 0500 cdcc 0680 b61e 0680
00000260: 9ab8 0500 8ee0 2dba 3e0c 87ba 39a6 deb9
00000270: eb2b bcb9 d50a d5b9 afc2 5939 c8b6 a9ba
00000280: 196c 8bba d02e aeb6 3d25 0680 b8c1 0580
00000290: 42fd 0500 db4c 0600 91fc 0580 5178 0680
000002a0: 94f3 0500 89db 0600 6dfc 0500 a437 0e3b
000002b0: 20b8 993a 3f94 be3a fc4b 043b 8d86 a23a
000002c0: c6fa bc3a c29f 833a fb71 e339 55dd 833a
000002d0: 8d06 ae3b 8e16 b13b 14b7 a13b e2ca ac3b
000002e0: ffb6 ae3b 82a3 9f3b 622d a83b 83bc a73b
000002f0: 99c6 973b 2624 b63a f946 bd3a e86a ad3a
00000300: 742a ac3a d676 b33a 3780 a73a 3ed6 9a3a
00000310: 0e2c a33a 6abd 9e3a cc67 0500 9d65 0500
00000320: 0958 0580 7361 0500 da6a 0500 2458 0580
00000330: 1480 0500 7f73 0500 535a 0580 951f 9a3a
00000340: bccb 2c3a 7f1b ad3a ff82 ca3a 8a35 b63a
00000350: 0fb8 063b 6bed e939 09a4 1d3a 06f4 e73a
00000360: 3e19 ff3a c8e1 913a d707 d53a 4c5e 0b3b
00000370: 88a9 d83a 7110 0c3b f326 683a 9e4b 3a3a
00000380: 25f7 e03a 5c63 633a b8aa 0d39 3a01 183a
00000390: 417e 563a 6ced 8d39 566c 2d3a 4143 3739
000003a0: 990d 4bb9 8e89 fc39 351e 453b 2db3 533b
000003b0: b218 6d3b 7e85 613b 99f8 793b 2e17 8c3b
000003c0: 343a 643b 756b 813b fb60 933b 5f0c d23a
000003d0: e456 963a 4293 ee3a 1403 073b 2119 033b
000003e0: 091c 313b dc6a 663a d507 953a 113d 1c3b
000003f0: b145 5739 0fec 0a39 0253 1139 0d00 5939

encoder.2.bias f4 [32]
-4.90977e-40 0.005551791 0.2401086 0.009287647 0.011544834 -0.012278717 4.91266e-40 0.040025506
0.24618258 0.25830278 0.13185836 -0.006860521 4.94525e-40 -4.93292e-40 4.9338e-40 -0.09992454
0.19587998 4.93976e-40 0.018980788 0.03335894 0.18504487 0.0016949243 -0.0103707565 4.95091e-40
0.036815096 4.9314e-40 -4.9355e-40 -0.0140455505 -0.016180087 -0.012141312 -0.008759743 -0.0086622285
00000000: a558 0580 cceb b53b 07df 753e 372b 183c
00000010: 8b26 3d3c ac2c 49bc 7359 0500 c9f1 233d
00000020: 4917 7c3e 4340 843e e105 073e 39ce e0bb
00000030: 8962 0500 195f 0580 585f 0500 3da5 ccbd
00000040: c394 483e 0161 0500 997d 9b3c 62a3 083d
00000050: 677c 3d3e 3928 de3a 1bea 29bc 1d64 0500
00000060: 6dcb 163d ac5e 0500 d15f 0580 4f1f 66bc
00000070: 1a8c 84bc 5aec 46bc 0685 0fbc 05ec 0dbc

encoder.4.weight f4 [64, 32, 3, 3]
5.64034e-40 5.15518e-40 5.78875e-40 5.471e-40 6.25245e-40 6.28541e-40 3.25403e-40 -5.39578e-40
5.72966e-40 -0.00413017 -0.0028443194 -0.0029557198 -0.004003651 -0.0024325443 -0.0011585827 -0.005688463
-0.004572961 -0.0021137728 0.02677008 0.052300964 0.06647327 0.038944077 0.06454543 0.075785324
0.041478567 0.06490591 0.07581561 -0.009829954 0.003779208 -0.013737797 -0.022922097 0.0031290164
-0.012202186 -0.021721914 0.0069633215 0.0027165993 -0.002736004 -0.0017788545 -0.0018843333 -0.0030921919
-0.002471924 0.0010421469 -0.0048009013 -0.005454519 -0.00028474632 -0.028105566 -0.024737306 -0.020644538
-0.056252476 -0.052541524 -0.01877212 -0.08303373 -0.08931035 -0.03871145 5.25923e-40 6.13874e-40
4.90914e-40 5.02422e-40 6.17723e-40 5.4242e-40 -5.25794e-40 6.20785e-40 -5.70165e-40 -0.011280838
-0.0018061327 -0.0001375512 -0.01055464 -0.00090787327 0.008591499 -0.011811969 -0.005081389 0.010338928
-0.008368629 0.015711585 0.02782494 0.0005786393 0.026283354 0.03181751 0.005319756 0.033128805
0.0360362 -0.0070219724 0.015950922 0.03199736 0.0024889486 0.02520359 0.03399812 0.009098645
0.033973787 0.038083654 -0.00840245 0.0054681795 0.009467936 0.00061761984 0.018161701 0.016479373
0.0015093787 0.018727396 0.018823218 -0.00027048835 0.006034507 0.0015299346 -0.01954203 -0.010657524
-0.0027367026 -0.020184448 -0.013280514 0.0002850029 6.0675e-40 4.99168e-40 5.239e-40 6.20858e-40
-5.072e-40 5.51715e-40 6.02107e-40 5.88416e-40 4.77488e-40 5.3501e-40 -4.99377e-40 5.14628e-40
5.23997e-40 5.26605e-40 -5.23922e-40 5.1087e-40 5.98504e-40 -5.2573e-40 5.47398e-40 5.72328e-40
-5.98382e-40 -6.07078e-40 -5.05893e-40 5.71091e-40 -5.96114e-40 4.92646e-40 -5.46945e-40 0.0056711473
0.005153438 0.004437994 0.0009849425 0.005037004 0.005666662 6.0435946e-07 0.00047364435 0.0021577158
-0.003431104 0.017114677 0.023966491 0.0075757573 0.030943006 0.03260227 0.009369777 0.031959597
0.03352891 -5.10129e-40 2.39797e-40 5.89502e-40 -5.2568e-40 5.33666e-40 -5.52711e-40 5.10848e-40
2.93463e-40 5.55615e-40 0.0058488194 0.034016516 0.008842061 -0.0126191005 0.037847187 0.022877311
-0.0281084 0.02331183 0.031280257 -0.0033831731 -0.012659858 0.014136893 0.005194385 -0.02534726
0.016287515 0.0073854695 -0.031020645 0.00074289396 -0.0032815977 0.016566802 0.025499709 0.0061591053
0.02583542 0.031169828 0.011621205 0.031075632 0.03198507 0.013309813 0.016085997 0.01758022
0.0089533515 0.013339933 0.017270556 0.00066387013 0.0038639894 0.010394077 0.011308113 0.0036000742
0.029595522 -0.018319635 -0.047037516 0.019441443 -0.044564426 -0.091887176 -0.017946001 -5.94288e-40
-5.35697e-40 -2.2533e-40 -9.5707e-41 4.93211e-40 -2.02752e-40 -6.13854e-40 5.47312e-40 4.10327e-40
-0.01365944 0.0034712204 -0.019081086 -0.019904228 0.012599543 -0.0131566115 -0.02321032 0.012176121
-0.0009395533 -5.23559e-40 -5.10801e-40 5.51932e-40 -6.05812e-40 -5.17202e-40 5.15641e-40 -6.02553e-40
5.30691e-40 -5.13544e-40 -5.84728e-40 -5.51663e-40 -5.27799e-40 5.77739e-40 5.52015e-40 -5.23951e-40
5.11363e-40 5.09848e-40 5.72757e-40 0.0063897637 0.012141607 0.025101857 -0.03699602 -0.03512414
0.020417603 -0.084418096 -0.09960232 -0.017110009 -0.00035819894 0.002634488 0.0061530625 -0.02507244
00000000: 4c24 0600 0e9d 0500 ab4d 0600 18f5 0500
00000010: eece 0600 1ed8 0600 178b 0300 20e0 0580
00000020: 323d 0600 6156 87bb c367 3abb c0b4 41bb
00000030: 0f31 83bb 526b 1fbb 96db 97ba 4966 babb
00000040: c7d8 95bb 3987 0abb ed4c db3c 8939 563d
00000050: 2323 883d d383 1f3d 6530 843d 5635 9b3d
00000060: 6ee5 293d 64ed 843d 3745 9b3d d10d 21bc
00000070: 97ac 773b 7f14 61bc 1fc7 bbbc 2f10 4d3b
00000080: adeb 47bc 28f2 b1bc 932c e43b f908 323b
00000090: 884e 33bb 7428 e9ba bcfb f6ba 5fa6 4abb
000000a0: 0100 22bb a698 883a e150 9dbb d2bb b2bb
000000b0: 014a 95b9 a53d e6bc e4a5 cabc bc1e a9bc
000000c0: ff68 66bd c835 57bd fdc7 99bc 970d aabd
000000d0: 58e8 b6bd e68f 1ebd 0fba 0500 3baf 0600
000000e0: 7858 0500 8c78 0500 f6b9 0600 0ce8 0500
000000f0: b3b9 0580 7fc2 0600 6335 0680 44d3 38bc
00000100: c2bb ecba 9e3b 10b9 5eed 2cbc 58fe 6dba
00000110: 5cc3 0c3c fd86 41bc c881 a6bb 9b64 293c
00000120: 931c 09bc 95b5 803c 21f1 e33c d3af 173a
00000130: 3050 d73c 1453 023d 5951 ae3b 12b2 073d
00000140: b29a 133d 9318 e6bb 82ab 823c aa0f 033d
00000150: a11d 233b c277 ce3c 9d41 0b3d 7c12 153c
00000160: 1928 0b3d 9bfd 1b3d 6eaa 09bc 6a2e b33b
00000170: 671f 1b3c c4e7 213a d9c7 943c c0ff 863c
00000180: 58d6 c53a 326a 993c 2633 9a3c 55d0 8db9
00000190: 1dbd c53b 1688 c83a 9b16 a0bc e59c 2ebc
000001a0: 405a 33bb db59 a5bc 8396 59bc 716c 9539
000001b0: 5f9b 0600 7a6f 0500 6cb4 0500 b3c2 0600
000001c0: de85 0580 f501 0600 6e8e 0600 4468 0600
000001d0: 0b33 0500 64d3 0500 0f70 0580 939a 0500
000001e0: b1b4 0500 f6bb 0500 7bb4 0580 1990 0500
000001f0: 6384 0600 85b9 0580 ecf5 0500 6b3b 0600
00000200: 0c84 0680 499c 0680 3982 0580 f837 0600
00000210: b97d 0680 4c5d 0500 a9f4 0580 08d5 b93b
00000220: 2cde a83b 986c 913b 3019 813a 740d a53b
00000230: 68af b93b 443b 2235 7853 f839 7768 0d3b
00000240: 5fdc 60bb 1434 8c3c 6055 c43c 0f3e f83b
00000250: 307c fd3c f589 053d b183 193c 11e8 023d
00000260: 9c55 093d 088e 0580 759c 0200 4b6b 0600
00000270: 62b9 0580 a5cf 0500 bc04 0680 0990 0500
00000280: 0e32 0300 d40c 0600 74a7 bf3b e754 0b3d
00000290: 4bde 103c 58c0 4ebc a705 1b3d 3369 bb3c
000002a0: 9643 e6bc 73f8 be3c ba1f 003d 3ab8 5dbb
000002b0: 4b6b 4fbc 6d9e 673c a935 aa3b 0fa5 cfbc
000002c0: 656d 853c cf01 f23b 021f febc c5be 423a
000002d0: 1310 57bb 1ab7 873c c4e4 d03c 52d2 c93b
000002e0: cda4 d33c de57 ff3c de66 3e3c 5392 fe3c
000002f0: c702 033d 6711 5a3c c8c6 833c 6504 903c
00000300: 14b1 123c bc8f 5a3c fb7a 8d3c 9207 2e3a
00000310: fc3a 7d3b eb4b 2a3c aa45 393c 39ef 6b3b
00000320: 4f72 f23c 0f13 96bc 69aa 40bd a943 9f3c
00000330: 3089 36bd 582f bcbd 7e03 93bc a278 0680
00000340: 4ed5 0580 2174 0280 cb0a 0180 df5e 0500
00000350: 3135 0280 2daf 0680 aff5 0500 d377 0400
00000360: d8cb 5fbc 6a7d 633b f04f 9cbc 310e a3bc
00000370: 506e 4e3c d48e 57bc 9223 bebc 5a7e 473c
00000380: 5b4c 76ba 78b3 0580 e88f 0580 9002 0600
00000390: c298 0680 c0a1 0580 669d 0500 ac8f 0680
000003a0: 5ac7 0500 8d97 0580 fc5d 0680 d001 0680
000003b0: 4abf 0580 804a 0600 cb02 0600 90b4 0580
000003c0: 7991 0500 408d 0500 9d3c 0600 3961 d13b
000003d0: 97ed 463c 69a2 cd3c 2389 17bd 55de 0fbd
000003e0: d142 a73c 65e3 acbd 4dfc cbbd 4a2a 8cbc
000003f0: a6cc bbb9 60a7 2c3b a19f c93b b864 cdbc

encoder.4.bias f4 [64]
0.011869817 0.00072594854 0.0028469195 0.04227721 -4.96259e-40 0.0076442547 0.005191291 0.009375457
-0.00046115645 -0.07737928 0.007379352 0.014952554 0.0011912436 -0.002247887 0.0012691034 0.0014416195
-0.004797103 0.003944842 -0.0002191817 0.0037140301 0.010896382 0.009446704 -0.033324596 -0.0007535644
0.0021544616 -0.0007139473 0.009390231 0.017546553 -0.00024413347 0.00484092 0.00228646 0.0048979097
-0.00031384293 0.022160567 0.011266556 0.0069329557 0.051492378 0.0052490407 0.0028828352 -0.034722596
-2.2224716e-05 0.003142379 0.041357066 -0.002009008 0.019852037 0.005034768 0.0045845094 0.00496178
0.014461978 0.010626943 0.0104882335 0.0048970445 -0.00036285544 0.0035099906 0.013454055 0.0076855314
0.004423168 0.007814074 -6.634017e-05 0.013324158 -0.0010510453 3.9179358e-07 -0.00013983548 0.0035396344
00000000: 9f79 423c 954d 3e3a 6293 3a3b de2a 2d3d
00000010: 5e67 0580 a87c fa3b b51b aa3b 849b 193c
00000020: 5fc7 f1b9 0779 9ebd 7ece f13b 8ffb 743c
00000030: 8123 9c3a 4951 13bb 0b58 a63a b9f4 bc3a
00000040: 0431 9dbb bc43 813b 24d4 65b9 1667 733b
00000050: bd86 323c 59c6 1a3c 5f7f 08bd da8a 45ba
00000060: de31 0d3b 3128 3bba 7cd9 193c cabd 8f3c
00000070: 14fe 7fb9 95a0 9e3b 6fd8 153b a57e a03b
00000080: 498b a4b9 148a b53c 5c97 383c d92d e33b
00000090: ace9 523d 2500 ac3b f3ed 3c3b 4839 0ebd
000000a0: 376f bab7 5ff0 4d3b 0766 293d 90a9 03bb
000000b0: bda0 a23c b2fa a43b a739 963b 6d96 a23b
000000c0: eff1 6c3c a11c 2e3c d7d6 2b3c 6377 a03b
000000d0: a23d beb9 df07 663b 666e 5c3c e9d6 fb3b
000000e0: 39f0 903b 9a06 003c 1c20 8bb8 924d 5a3c
000000f0: 3ac3 89ba b357 d234 cda0 12b9 36f9 673b

encoder.6.weight f4 [128, 64, 3, 3]
-0.0004754392 -0.024093436 -0.018903835 0.012676778 -0.014143631 -0.010513142 0.02054345 0.00012205221
0.009554648 -0.008994661 -0.00846354 -0.0034363726 -0.009373526 -0.009292684 -0.004633515 -0.008394695
-0.01027234 -0.0076509733 0.0080491975 -0.0028259647 -0.021126136 -0.0008595906 -0.0012381522 -0.02124801
-0.014504572 0.004051844 -0.0018083693 0.0009255385 0.0006144398 0.00040092002 0.00042101284 0.00020662109
6.479271e-05 8.0749465e-05 -0.0001168508 -0.00029508444 -4.9897e-40 -4.94189e-40 -4.92674e-40 -4.9268e-40
-5.02859e-40 -4.92349e-40 -5.0117e-40 -4.92503e-40 -5.01989e-40 -0.0060534296 -0.011720034 -0.007615533
-0.008530743 -0.018295236 -0.0096164765 -0.011319972 -0.009931031 -0.008750575 0.013470891 0.018040705
0.019516429 0.015030174 0.018582147 0.019299641 0.016078906 0.017033156 0.016624622 -0.009200083
-0.011939648 0.0024129236 -0.011485467 -0.009709177 0.0021821405 0.00648713 0.0012731288 0.020075109
-0.00408062 -0.005016222 -0.0050164377 -0.0041697905 -0.004176842 -0.004238775 -0.0035521754 -0.0041447505
-0.004358804 -0.0130443005 -0.020739954 -0.014785097 -0.006282424 -0.0123322625 -0.011746302 0.006304595
-0.009886074 0.004029043 -0.000694906 -0.0012610728 0.0017031176 -0.0043704524 -0.010171112 -0.0029758308
-0.0032326325 -0.0050669317 -0.006794993 0.0050370796 0.009057432 -0.0049660695 0.0022609616 0.008741138
-0.00642877 -0.0036287983 0.007618431 -0.017967217 0.023331424 0.025606459 0.026956363 0.019361446
0.023714881 0.02523492 0.017429681 0.02132089 0.022426613 3.7731607e-10 -4.240332e-10 -9.390365e-10
1.0291831e-09 1.8926845e-09 -2.9932967e-09 4.998664e-10 4.6591825e-10 -1.00395955e-10 -1.7837467e-05 6.1024743e-06
1.52197445e-05 -2.547956e-05 -5.5421237e-06 1.5250482e-05 3.2855794e-05 -2.3760856e-05 -3.037479e-05 -0.008851995
0.015467475 0.022904987 0.0014690855 -0.0067587 -0.0051703383 -0.022715598 0.006919501 -0.010504128
0.014877195 0.015222274 0.017855773 0.012008208 0.013079476 0.016509773 0.01058722 0.012706719
0.016909666 0.01217334 -0.012312609 -0.012166535 0.014631276 -0.011024315 -0.014706302 0.009935356
0.0045224926 0.0035688053 7.937654e-07 -1.3524991e-06 1.1217863e-06 7.33121e-07 8.9325704e-07 -1.4365827e-06
-2.035324e-06 1.9421405e-08 3.3625233e-06 -0.0041508945 -0.005625681 -0.005095086 -0.0056949747 -0.00947622
-0.0075344173 -0.0063284812 -0.008144677 -0.0056394693 0.0002443807 0.00017701852 8.6214844e-05 0.00021280147
6.128852e-05 -1.4094724e-05 9.9746656e-05 -5.0308987e-05 -9.336955e-05 -0.0025766268 -0.002235871 -0.018182646
0.0015961208 0.0005411325 -0.013492302 -0.01767972 -0.0051259035 -0.00443851 0.0009925995 -0.0029090545
0.00045774248 3.5136063e-06 -0.0015886545 0.0014098418 0.00014381118 -0.00055699534 0.0018903589 -0.008404187
-0.008190414 -0.0037051379 -0.008559239 -0.0089144185 -0.0046354737 -0.0071879653 -0.009914396 -0.008073177
-0.012381589 -0.015706679 -0.016291853 -0.020585703 -0.022821352 0.006395679 -0.00091235904 -0.006423382
0.0033772972 -0.004503383 -0.0053665102 -0.005336949 -0.004596612 -0.0045617637 -0.00461841 -0.00398179
-0.004503657 -0.0047381674 0.019266868 0.017991556 0.018971764 0.018287346 0.018052334 0.019567646
0.018900888 0.017383954 0.01912285 4.175125e-05 -0.00010721965 0.02393515 -0.0068011056 -0.022769373
-0.011960359 -0.016295299 -0.004985308 -0.02012615 0.0005030241 -0.0001683015 -0.0054636025 -0.00065669446
00000000: 5f44 f9b9 995f c5bc 37dc 9abc 43b2 4f3c
00000010: b0ba 67bc 503f 2cbc bd4a a83c 48f6 ff38
00000020: 198b 1c3c 585e 13bc a9aa 0abc c434 61bb
00000030: 6b93 19bc 5740 18bc bed4 97bb e789 09bc
00000040: 514d 28bc 04b5 fabb c8e0 033c d233 39bb
00000050: b810 adbc 2656 61ba 7e49 a2ba 4f10 aebc
00000060: 96a4 6dbc 55c5 843b ce06 edba d69f 723a
00000070: 5b12 213a 9332 d239 63bb dc39 6da8 5839
00000080: 52e1 8738 0a58 a938 cc0d f5b8 90b5 9ab9
00000090: ed6e 0580 9961 0580 605d 0580 645d 0580
000000a0: c479 0580 785c 0580 0f75 0580 e65c 0580
000000b0: 5777 0580 d95b c6bb 6305 40bc b98b f9bb
000000c0: 88c4 0bbc e4df 95bc 6d8e 1dbc 6777 39bc
000000d0: c3b5 22bc 925e 0fbc 03b5 5c3c 1aca 933c
000000e0: ebe0 9f3c 1e41 763c 9639 983c 481a 9e3c
000000f0: e9b7 833c 1e89 8b3c 5c30 883c f2bb 16bc
00000100: 839e 43bc 2422 1e3b 8a2d 3cbc 3d13 1fbc
00000110: 3e02 0f3b fe91 d43b 1ddf a63a 8e74 a43c
00000120: b9b6 85bb 1f5f a4bb ee60 a4bb bda2 88bb
00000130: e4dd 88bb 6ce5 8abb 9dcb 68bb b0d0 87bb
00000140: 4cd4 8ebb c3b7 55bc d6e6 a9bc 313d 72bc
00000150: cbdc cdbb 420d 4abc 9073 40bc c796 ce3b
00000160: 33f9 21bc 1006 843b 5a2a 36ba 954a a5ba
00000170: 253b df3a 0336 8fbb bca4 26bc 2806 43bb
00000180: 93da 53bb 8108 a6bb 88a8 debb 160e a53b
00000190: a065 143c 69ba a2bb a42c 143b fd36 0f3c
000001a0: 6ea8 d2bb 22d1 6dbb 08a4 f93b fc2f 93bc
000001b0: 8b21 bf3c a3c4 d13c 97d3 dc3c e59b 9e3c
000001c0: b645 c23c 77b9 ce3c b1c8 8e3c 26a9 ae3c
000001d0: 04b8 b73c 846e cf2f 5e1d e9af 690f 81b0
000001e0: 2973 8d30 7510 0231 a2b2 4db1 f966 0930
000001f0: 1512 0030 e6c5 dcae aba1 95b7 dbc3 cc36
00000200: 4e58 7f37 f0bc d5b7 7bf6 b9b6 52dc 7f37
00000210: a4ce 0938 0d52 c7b7 5dcd feb7 f507 11bc
00000220: 4b6b 7d3c 3da3 bb3c 548e c03a 1678 ddbb
00000230: f16b a9bb 1016 babc fbbc e23b 8219 2cbc
00000240: 7abf 733c d866 793c 4546 923c 13be 443c
00000250: 4c4b 563c 813f 873c 0576 2d3c d82f 503c
00000260: 2486 8a3c b072 473c d3ba 49bc 2556 47bc
00000270: 05b8 6f3c 549f 34bc b4f2 70bc e7c7 223c
00000280: 6b31 943b 9ee2 693b 2513 5535 8487 b5b5
00000290: 4990 9635 b1cb 4435 28c8 6f35 9bd0 c0b5
000002a0: 9a96 08b6 1fd4 a632 b6a7 6136 3a04 88bb
000002b0: a257 b8bb aef4 a6bb e99c babb 2642 1bbc
000002c0: 46e3 f6bb 265f cfbb 4071 05bc 4ccb b8bb
000002d0: 3920 8039 0c9e 3939 3ece b438 7623 5f39
000002e0: 0688 8038 6178 6cb7 142f d138 dd02 53b8
000002f0: 65cf c3b8 a0dc 28bb b187 12bb c6f3 94bc
00000300: ed34 d13a cada 0d3a d10e 5dbc 0fd5 90bc
00000310: 32f7 a7bb ec70 91bb 1d1a 823a d6a5 3ebb
00000320: 28fd ef39 4ccb 6b36 663a d0ba 71ca b83a
00000330: 05cc 1639 5303 12ba ebc5 f73a b7b1 09bc
00000340: 1631 06bc e6d1 72bb 0d3c 0cbc c80d 12bc
00000350: 2ce5 97bb 0689 ebbb fe6f 22bc 5c45 04bc
00000360: 26dc 4abc 4bab 80bc 7e76 85bc 59a3 a8bc
00000370: d8f3 babc d892 d13b 612b 6fba 3c7b d2bb
00000380: a555 5d3b 1d91 93bb 8dd9 afbb 93e1 aebb
00000390: 2d9f 96bb d97a 95bb 0856 97bb ad79 82bb
000003a0: 6a93 93bb a142 9bbb 8dd5 9d3c 0763 933c
000003b0: ac6a 9b3c 58cf 953c 7de2 933c 544c a03c
000003c0: 09d6 9a3c cb68 8e3c 86a7 9c3c 101e 2f38
000003d0: 1cdb e0b8 a613 c43c cfdb debb d686 babc
000003e0: 62f5 43bc b87d 85bc cb5b a3bb 99df a4bc
000003f0: 60dd 033a 177a 30b9 0508 b3bb 0526 2cba

encoder.6.bias f4 [128]
-0.0076783863 -0.004406144 -0.0081568295 0.0014435172 -0.0023200884 0.004683116 -7.2973584e-05 -0.0033458332
-0.0074115554 0.004582399 0.0017217249 -0.006503655 -0.002183922 0.0031561994 -0.003999723 -0.00432802
0.0051091244 -0.0068002422 -0.00094053755 -0.0009117454 -0.005469669 -0.0041038827 -0.012421018 -0.0016891804
-0.0015467753 -0.003012801 -0.003221968 -0.012568949 -0.042435028 -0.00847364 -0.0064076637 0.0021612288
4.772866e-06 0.00064165815 -0.010887656 -0.0021842292 -0.0050206752 0.0036942533 -0.0030508407 0.0035215023
0.012855284 -0.0069367876 -0.0036317753 -0.00040539308 -0.011056873 -0.0014305831 -0.0050851577 -0.0034321928
-0.0022411197 -0.004421459 0.007954188 0.0026337206 -0.0060916035 0.0019068111 -0.0017627623 -0.011443392
-0.00031855496 -0.0031469688 0.0053445483 -0.0016214876 0.000464695 -0.010163466 0.010478613 -0.005944318
-0.0032744939 0.004025556 0.00019891563 0.014445152 -0.00186778 -2.1313985e-05 0.0013775695 -0.0028133704
-0.0059513967 -0.0043037897 -0.0025369949 0.009181227 0.0021810124 0.0029000724 0.0055145705 0.04248036
-0.00011295904 -0.0004500953 -0.0020596678 0.003972996 -4.6325446e-09 0.0049791345 -0.0049387505 -0.004095311
-0.007338639 0.00087862485 0.0011423227 -0.0025425244 0.0019317733 0.00093353156 -0.0054203216 -0.00699383
-0.007037155 -0.0034591034 -0.0033370964 -0.0010144499 0.0069949687 0.0016958811 0.005507931 0.0038200575
0.0017820452 -0.0005086047 -0.0019994418 9.673631e-05 0.0030665835 0.0020505572 -0.0022063719 -0.005907622
-0.0014847784 -0.005743611 -0.009217281 -0.0047728186 -0.0074712196 -0.016846575 0.001510669 -0.0017756392
-0.006305564 -0.007595006 -0.005884174 0.0018473507 -0.008069489 -0.0066177705 -0.0027957996 -0.001976881
00000000: f99a fbbb 6a61 90bb 39a4 05bc 6634 bd3a
00000010: a00c 18bb d374 993b 6509 99b8 c445 5bbb
00000020: a2dc f2bb f327 963b 80ab e13a 9d1c d5bb
00000030: 2220 0fbb 3dd8 4e3b 1c10 83bb 10d2 8dbb
00000040: 716a a73b 91d4 debb 688e 76ba 3302 6fba
00000050: e93a b3bb dd79 86bb 8781 4bbc 7d67 ddba
00000060: 2bbd caba 6a72 45bb a727 53bb feed 4dbc
00000070: 5ad0 2dbd 06d5 0abc 61f7 d1bb 67a3 0d3b
00000080: 9b26 a036 f334 283a 2462 32bc 4925 0fbb
00000090: 7a84 a4bb 491b 723b 9df0 47bb 01c9 663b
000000a0: f89e 523c fe4d e3bb 1403 6ebb f08a d4b9
000000b0: e327 35bc 6782 bbba 65a1 a6bb a4ee 60bb
000000c0: c0df 12bb e3e1 90bb 4852 023c 809a 2c3b
000000d0: 139c c7bb f7ed f93a 7d0c e7ba 117d 3bbc
000000e0: b903 a7b9 603d 4ebb 5221 af3b 1888 d4ba
000000f0: 4fa2 f339 ab84 26bc 7dae 2b3c 8ec8 c2bb
00000100: e498 56bb d0e8 833b 0294 5039 5cab 6c3c
00000110: 4cd0 f4ba 6fcb b2b7 908f b43a 8660 38bb
00000120: ef03 c3bb ce06 8dbb b643 26bb db6c 163c
00000130: 51ef 0e3b 240f 3e3b 92b3 b43b e3ff 2d3d
00000140: 6ce4 ecb8 c5fa ebb9 7efb 06bb e82f 823b
00000150: 4b2c 9fb1 0228 a33b 3ed5 a1bb f531 86bb
00000160: f778 f0bb 8453 663a fdb9 953a 7ba0 26bb
00000170: 8e33 fd3a 3eb8 743a f49c b1bb 802c e5bb
00000180: ef97 e6bb 20b2 62bb 30b3 5abb 4af7 84ba
00000190: 0d36 e53b 5448 de3a e07b b43b ee59 7a3b
000001a0: 8493 e93a e253 05ba 1109 03bb e9de ca38
000001b0: bcf8 483b a462 063b c798 10bb ba94 c1bb
000001c0: e59c c2ba e734 bcbb 1404 17bc 4e65 9cbb
000001d0: 22d1 f4bb d401 8abc a401 c63a 91bc e8ba
000001e0: e89e cebb 87df f8bb 07d0 c0bb ce22 f23a
000001f0: e435 04bc e2d9 d8bb bc39 37bb 8f8e 01bb

decoder.0.weight f4 [128, 64, 3, 3]
0.0012212293 5.5926e-40 0.002432756 0.008783821 0.0038059773 0.0017387787 0.020654926 5.79646e-40
0.025552439 0.01594502 0.006623671 0.024121467 0.0076421574 -0.0007884025 -0.02003926 0.0068351477
0.032298356 -0.0132741565 5.6672294e-09 0.0017719369 -7.50398e-05 -0.00012167856 -0.0074197957 -0.00011676724
-5.0800804e-07 0.016941836 5.052203e-05 -0.008271185 0.035921346 0.0013289091 -0.018567331 0.06904521
0.026288955 -0.007867766 0.0099910805 -0.0025924668 -8.282652e-05 -0.00024843952 -4.1166615e-05 -6.0110354e-11
-2.0574453e-05 -2.1316612e-10 9.348222e-05 0.00043741622 -0.00014050546 2.5068255e-07 -0.042140346 -0.006194461
-0.0022941167 0.011114168 -0.02368108 -0.00022695001 -0.011100817 0.0029086769 -0.0010025472 0.0017541888
0.0059880954 -0.015877068 -0.012278589 0.0018874601 -0.013264443 -0.0037347362 -0.011643082 3.8265324e-10
-0.00923312 -3.3734705e-05 4.98438e-40 -0.010405993 4.95743e-40 1.4965817e-05 -0.024584599 -0.00017809412
-4.92918e-40 0.0058893664 4.92004e-40 0.0145958355 -0.005865179 -0.0103090415 -4.90937e-40 0.02859211
-4.9476e-40 0.0008429113 -0.0033578007 0.003099395 0.001119338 -0.012256459 -0.00765925 -0.0012938967
-0.025704758 0.019458584 -9.549892e-06 0.00014212461 3.8206763e-05 0.0024420505 0.006219645 0.016760498
0.00015545366 3.4003882e-05 -0.00028000248 -7.672494e-05 6.328161e-05 -5.7684883e-05 6.376592e-05 -1.4785194e-05
-3.7292313e-05 9.644083e-05 0.00020613403 1.1488039e-05 0.0005845695 -0.025541063 0.0008045959 0.0001470389
-0.00011985174 -9.75494e-06 0.0033161368 -0.0076414067 0.0015638343 -0.01324223 -0.0001589107 -0.029822333
2.3396817e-07 -8.370648e-05 -2.1605125e-05 0.00039787724 0.00012603748 -0.012871505 0.0036235065 -0.00067447475
0.011621866 0.011086028 -0.015243865 -0.0024165614 -0.0045736968 -0.0059751607 -0.0101793315 4.94283e-40
0.00073538505 4.947e-40 0.00016347639 0.0033086876 0.010799384 4.93924e-40 0.0020242801 -5.93943e-40
2.036552e-05 2.5244007e-10 -4.6463208e-07 -0.009972078 0.014879163 -0.0025299313 0.000107607106 -1.2584872e-10
0.000100179845 -0.008970673 -0.015518091 0.0067353444 -0.028716758 -0.040718775 -0.0020062185 -0.007046293
-0.014384471 -0.0014067563 3.735617e-05 -4.92848e-40 -2.9634586e-05 4.97298e-40 -0.010734409 6.19976e-40
-3.5809087e-05 -4.94047e-40 -1.4977367e-05 9.7932516e-11 -0.0007000893 1.975837e-11 0.019090507 -4.441787e-31
0.033770937 4.3600578e-11 0.009224095 -4.2484415e-11 4.94241e-40 -0.011118666 -9.929673e-12 0.0012279126
-0.01771979 -0.004778525 -2.7650226e-11 0.028038971 1.4223825e-09 -0.0061085834 -0.009166962 0.010983823
-0.020679323 -0.020813843 0.0036098678 0.003870218 -0.009395497 -0.014705431 0.0074016396 -0.008934573
-0.005426031 0.012397541 -0.0072305864 0.011914288 -0.007103071 0.008891855 0.00936808 4.037962e-05
2.234551e-05 0.00040160716 -9.006622e-05 -0.00038745513 0.0025406685 -0.00016839942 -0.00097241736 0.002341087
-0.019983146 0.004166584 0.0024810417 -0.00277844 0.02342022 -0.0153235635 0.034191072 -0.0050666165
-0.015734892 -0.030675853 0.0055830055 -0.0070967376 -0.018609228 -0.02166229 0.009436908 0.0046318267
0.005610211 0.042500626 0.0021992503 0.014120399 -0.033326942 -0.009011606 -0.029116843 -0.048774324
-0.011820531 0.044707123 0.008555598 0.011174089 -6.05735e-40 -0.0543588 0.013146072 -6.06342e-40
-0.0095678335 0.039641585 5.52128e-40 0.02398123 -2.9554827e-05 9.129819e-10 -0.027446637 -2.9825833e-11
00000000: a811 a03a fd16 0600 df6e 1f3b 04ea 0f3c
00000010: b46d 793b bbe7 e33a 8534 a93c d14f 0600
00000020: 5953 d13c 219f 823c 610b d93b 629a c53c
00000030: 106b fa3b ccac 4eba 6029 a4bc 60f9 df3b
00000040: 484b 043d d97b 59bc 7ab9 c231 5640 e83a
00000050: b05e 9db8 ae2d ffb8 c221 f3bb efe0 f4b8
00000060: 0c5e 08b5 9bc9 8a3c 9ee7 5338 dd83 07bc
00000070: 4322 133d ca2e ae3a 841a 98bc 9367 8d3d
00000080: ef5b d73c cde7 00bc a1b1 233c 60e6 29bb
00000090: 26b3 adb8 fd40 82b9 51aa 2cb8 1f2f 84ae
000000a0: 4d97 acb7 ee60 6aaf e20b c438 0355 e539
000000b0: a654 13b9 8c95 8634 5b9b 2cbd e8fa cabb
000000c0: e458 16bb 3318 363c d3fe c1bc 6ef9 6db9
000000d0: 33e0 35bc 809f 3e3b e767 83ba cfec e53a
000000e0: c937 c43b a010 82bc 232c 49bc a764 f73a
000000f0: 1b53 59bc 7ac2 74bb a0c2 3ebc a85d d22f
00000100: 8346 17bc 5d7e 0db8 716d 0500 e67d 2abc
00000110: ee65 0500 b215 7b37 a465 c9bc c7be 3ab9
00000120: 0e5e 0580 96fb c03b 825b 0500 5f23 6f3c
00000130: b030 c0bb 41e7 28bc 8858 0580 003a ea3c
00000140: 3163 0580 d2f6 5c3a 8c0e 5cbb 381f 4b3b
00000150: c0b6 923a 51cf 48bc 72fa fabb f897 a9ba
00000160: c992 d2bc 9c67 9f3c 7938 20b7 4907 1539
00000170: 3340 2038 cf0a 203b 2ace cb3b 504d 893c
00000180: 4601 2339 649f 0e38 4ccd 92b9 63e7 a0b8
00000190: 0eb6 8438 acf2 71b8 11ba 8538 ed0d 78b7
000001a0: 516a 1cb8 4740 ca38 af25 5839 c0bc 4037
000001b0: cc3d 193a 7e3b d1bc 84eb 523a 742e 1a39
000001c0: ea58 fbb8 26a9 23b7 8b53 593b c464 fabb
000001d0: 92f9 cc3a f0f5 58bc 44a1 26b9 f74d f4bc
000001e0: ae38 7b34 938b afb8 a73c b5b7 2e9a d039
000001f0: ee28 0439 01e3 52bc 5a78 6d3b 3ccf 30ba
00000200: a469 3e3c 2ca2 353c 67c1 79bc 2c5f 1ebb
00000210: f3de 95bb 48cb c3bb 36c7 26bc dc61 0500
00000220: dbc6 403a 0663 0500 dc6a 2b39 91d6 583b
00000230: e6ef 303c dc60 0500 c9a9 043b ac77 0680
00000240: 9fd6 aa37 c8c7 8a2f 8c72 f9b4 ed61 23bc
00000250: bcc7 733c 34cd 25bb 20ab e138 445f 0aaf
00000260: a517 d238 bbf9 12bc 973f 7ebc 2ab4 dc3b
00000270: 683f ebbc bbc8 26bd c37a 03bb 97e4 e6bb
00000280: d8ac 6bbc e962 b8ba e2ae 1c38 dc5d 0580
00000290: ca97 f8b7 446a 0500 60df 2fbc 3ec0 0600
000002a0: b731 16b8 3461 0580 4d47 7bb7 1b5b d72e
000002b0: 3386 37ba e5cb ad2d b263 9c3c ec24 108d
000002c0: 6553 0a3d e3c1 3f2e a920 173c 33d9 3aae
000002d0: be61 0500 112b 36bc 46af 2ead e9f1 a03a
000002e0: 1829 91bc 2c95 9cbb c636 f3ad fcb1 e53c
000002f0: a37d c330 832a c8bb 0631 16bc 7ef5 333c
00000300: af67 a9bc cb81 aabc 8893 6c3b 7ca3 7d3b
00000310: 92ef 19bc 0cef 70bc 7489 f23b 5162 12bc
00000320: d9cc b1bb 0e1f 4b3c 8eee ecbb 2534 433c
00000330: e1c0 e8bb 25af 113c 937c 193c 495d 2938
00000340: 9e72 bb37 cd8e d239 efe1 bcb8 5923 cbb9
00000350: 5881 263b 6094 30b9 d3e9 7eba ec6c 193b
00000360: b2b3 a3bc d787 883b f998 223b 7d16 36bb
00000370: c3db bf3c af0f 7bbc f00b 0c3d dc05 a6bb
00000380: 76e6 80bc ed4b fbbc a5f1 b63b c08b e8bb
00000390: 6172 98bc 1d75 b1bc 439d 1a3c 94c6 973b
000003a0: dcd5 b73b 2315 2e3d 4c21 103b 3f59 673c
000003b0: d581 08bd 6aa5 13bc 7286 eebc 96c7 47bd
000003c0: e7aa 41bc d11e 373d c72c 0c3c 8713 373c
000003d0: 8b98 0680 55a7 5ebd 9f62 573c 3c9a 0680
000003e0: 67c2 1cbc 375f 223d 1c03 0600 4974 c43c
000003f0: 82ec f7b7 64f5 7a30 c5d7 e0bc e72c 03ae

decoder.0.bias f4 [64]
-0.009434009 -0.020726284 -0.015092682 0.0760161 0.013573778 -0.0030062802 0.016592564 -0.03570021
-0.0025028542 -0.033012517 -0.0027944813 0.0058989166 0.002203664 -0.04643118 -0.01482797 -0.017351845
-0.013147501 -0.0043240665 -0.0035980663 -0.008053497 0.0017184325 0.004836845 -0.008738321 -0.01529352
-0.07646477 0.0037069516 0.039222427 -0.012882978 -0.0063873036 -0.00872416 -0.022197891 -0.015327459
-0.007757866 0.027339892 0.005349075 -0.0068940134 -0.022544142 0.012423714 0.0029651055 0.16521361
0.0026944668 3.447319e-06 -0.00586782 0.0115112495 -4.0170904e-05 -0.08230387 0.025160763 0.021436205
0.008326254 -0.024264004 0.00025415246 -0.0347997 -0.0018249876 -0.0005036947 -0.004520286 -0.031008378
-0.014976632 -0.016603185 -0.009627405 0.0004895035 0.023270955 -0.011029091 0.0008419374 -0.008207032
00000000: 1a91 1abc 2bca a9bc 4c47 77bc 54ae 9b3d
00000010: 8d64 5e3c 0305 45bb 21ed 873c 623a 12bd
00000020: ed06 24bb 2238 07bd 9e23 37bb b34b c13b
00000030: 596b 103b 9f2e 3ebd 04f1 72bc 7525 8ebc
00000040: 9e68 57bc e6b0 8dbb 89cd 6bbb d1f2 03bc
00000050: 073d e13a 667e 9e3b 2d2b 0fbc ac91 7abc
00000060: 9099 9cbd 54f0 723b b2a7 203d 2013 53bc
00000070: 964c d1bb c7ef 0ebc 5ad8 b5bc 0620 7bbc
00000080: b235 febb e9f7 df3c 4b47 af3b 2de7 e1bb
00000090: 7eae b8bc d58c 4b3c 3752 423b c22d 293e
000000a0: a795 303b 7d58 6736 d746 c0bb ae99 3c3c
000000b0: 2e7d 28b8 ee8e a8bd f21d ce3c fb9a af3c
000000c0: d76a 083c 4ec5 c6bc c43f 8539 218a 0ebd
000000d0: 6c34 efba 610a 04ba e81e 94bb 4805 febc
000000e0: 8c60 75bc 6703 88bc 43bc 1dbc 0652 003a
000000f0: bba2 be3c 5cb3 34bc 76b5 5c3a ca76 06bc

decoder.2.weight f4 [64, 32, 3, 3]
0.040818598 0.005700912 -0.018073065 0.054957118 0.01597991 -0.027594144 0.035228264 0.0077787237
-0.021063529 0.008529392 -0.0123621 -0.0019292721 -0.0043988437 0.015363717 -0.00578335 0.0036376044
-0.007866603 -0.0097659435 -0.02142648 -0.008357184 0.00555656 -0.025838394 -0.02613447 0.0051174383
-0.008242695 -0.008279185 0.0041814307 0.0072391774 -0.020434463 0.0029910642 0.0046791667 0.00671792
0.012381188 0.008299921 -0.0146004995 -0.008796689 0.009675227 -0.00029045672 -0.04024819 0.022374632
0.019258095 -0.05515208 0.0074675907 -0.0016875725 -0.038735252 0.00037452206 -0.0024726246 -0.017324833
0.009476938 0.016732123 -0.011920927 0.0019084536 0.004117912 -0.007541833 -0.00069111853 -0.0033518039
0.015550743 0.009403708 -0.035711385 0.0020334488 0.0156090325 -0.009601563 0.0073511046 0.008211711
0.0016051395 0.011930219 0.024298063 0.016701967 -0.018396689 0.03003858 0.022508172 -0.021154458
0.04807942 -0.025621708 -0.05363554 0.022428807 -0.0035951699 -0.071574114 0.054969728 0.004522305
-0.061699554 -0.013706331 -0.0010008876 0.035632525 -0.021119911 0.014261552 0.04572752 -0.009932761
0.000100769 0.03144216 -0.0057311133 -0.0018200472 -0.04324313 0.0010036326 0.0016001455 -0.048178878
0.00067315204 -0.016194439 -0.040108692 -0.02636838 0.010519754 0.058850843 -0.026170624 -0.015087548
0.065889634 -0.031996287 -0.0020690723 0.051747397 0.0031287512 -0.0071365205 -0.023739785 0.06669287
-0.0033774164 -0.07187976 0.0434776 0.0034803373 -0.046778835 0.0071163815 -0.014810551 -0.019819133
0.018444365 0.0030310142 -0.026041215 0.010637184 -0.0054100137 -0.019367313 -0.005046417 0.004544237
0.025172478 -0.024578054 -0.02870644 0.037236776 -0.0053700027 -0.01877073 0.019062469 0.01157825
-0.0052731247 -0.03818436 -0.010267022 0.0026946627 -0.009094611 -0.03664663 -0.013007956 0.009999219
-0.009381453 0.008811502 0.016004652 -0.019622304 0.005853197 0.035334595 -0.012452215 0.0054570017
0.018078264 -0.0065763365 -0.019045563 -0.017833605 0.011702207 -0.010537036 -0.021092827 0.00058343034
-0.009482011 -0.0070279026 0.005609732 6.373257e-05 -0.015855093 0.07013189 0.03462651 -0.0056681735
0.0058889226 0.010986793 -0.008557623 -0.02340131 -0.0045086597 0.012931685 -0.03860671 -0.02171525
0.03175923 -0.023450438 -0.009814731 0.02185318 -0.013929662 -0.013983113 -0.021724347 0.00493933
-0.011801949 -0.042419974 -0.006113669 -0.014699546 -0.034472905 0.017912893 -0.012103405 -0.06029444
0.03818939 0.008294709 -0.07621671 0.009061642 0.011583511 -0.03279517 0.012130795 -0.01227862
-0.035223443 0.04030872 -4.6708843e-05 -0.07576127 0.009703942 -0.0010733751 -0.04373509 -0.011767871
0.00037960868 0.0018239613 -0.004303104 -0.00058492296 -0.021210417 0.011875087 0.010606847 -0.013965608
-0.014360558 -0.0055410224 0.0318772 -0.018424166 4.9347e-40 0.035938382 -0.008438251 -0.011192235
0.009333605 -0.029557182 -0.0026124243 0.02780869 -0.027221996 -0.0111606475 0.039478827 -0.02150712
-0.002186892 0.034213215 -0.010666806 -0.0054266984 0.00079108786 -0.002573501 0.0041531413 -0.005607556
-0.017198524 -0.0034369028 0.0076821684 0.022823853 0.0043609627 0.006076322 0.03451754 0.015275681
-0.005128804 0.026952267 0.006951287 -0.00386354 -0.019560615 0.0064302087 0.032456283 -0.045506995
00000000: 6731 273d b7ce ba3b f70d 94bc b71a 613d
00000010: 4de8 823c 1d0d e2bc 834b 103d aae4 fe3b
00000020: 6c8d acbc ddbe 0b3c 688a 4abc a1df fcba
00000030: 2d24 90bb 1ab8 7b3c 4282 bdbb e064 6e3b
00000040: ede2 00bc 5601 20bc 9686 afbc 92ec 08bc
00000050: ce13 b63b 0aab d3bc f517 d6bc 2fb0 a73b
00000060: 5e0c 07bc 6ba5 07bc 6204 893b 9f36 ed3b
00000070: 2d66 a7bc bb05 443b b253 993b ff21 dc3b
00000080: 77da 4a3c 64fc 073c ef36 6fbc fd1f 10bc
00000090: d884 1e3c 7148 98b9 49db 24bd 014b b73c
000000a0: 27c3 9d3c 26e7 61bd b1b2 f43b 8931 ddba
000000b0: dba8 1ebd 805b c439 c20b 22bb cfec 8dbc
000000c0: 2945 1b3c ce11 893c fe4f 43bc 1425 fa3a
000000d0: 8def 863b 7b21 f7bb 2e2c 35ba f0a9 5bbb
000000e0: 8bc8 7e3c 0312 1a3c 1a46 12bd 9c43 053b
000000f0: 07bd 7f3c e04f 1dbc 89e1 f03b 6a8a 063c
00000100: 8b63 d23a f776 433c bb0c c73c 90d2 883c
00000110: a7b4 96bc 7813 f63c 0f63 b83c 1d4c adbc
00000120: edee 443d 9ee4 d1bc f1b0 5bbd 9ebc b73c
00000130: f19c 6bbb 7395 92bd f027 613d d82f 943b
00000140: acb8 7cbd 8590 60bc 3730 83ba 69f3 113d
00000150: aa03 adbc 49a9 693c c84c 3b3d 05bd 22bc
00000160: f253 d338 7fc9 003d 10cc bbbb a68e eeba
00000170: b51f 31bd 528c 833a f9bb d13a 3757 45bd
00000180: 7876 303a 33aa 84bc 0349 24bd 8002 d8bc
00000190: 0c5b 2c3c 950d 713d c763 d6bc c331 77bc
000001a0: 25f1 863d 8a0e 03bd 4699 07bb 14f5 533d
000001b0: bc0b 4d3b 79d9 e9bb f079 c2bc 4596 883d
000001c0: a557 5dbb b235 93bd 9115 323d 5f16 643b
000001d0: 2a9b 3fbd 8930 e93b f4a7 72bc bc5b a2bc
000001e0: a318 973c fba3 463b 6354 d5bc 9547 2e3c
000001f0: 7c46 b1bb 33a8 9ebc 6a5c a5bb d3e7 943b
00000200: 8336 ce3c ea57 c9bc c529 ebbc 9785 183d
00000210: d9f6 afbb 13c5 99bc e528 9c3c b3b2 3d3c
00000220: 2dca acbb 3467 1cbd 0337 28bc f098 303b
00000230: 9001 15bc c71a 16bd 521f 55bc c4d3 233c
00000240: aab4 19bc 1e5e 103c 301c 833c f4be a0bc
00000250: 2dcc bf3b 02bb 103d 6004 4cbc a6d0 b23b
00000260: de18 943c 4f7e d7bb 7105 9cbc c817 92bc
00000270: 9dba 3f3c 88a3 2cbc ddca acbc 59f1 183a
00000280: 705a 1bbc 524a e6bb d8d1 b73b 2aa8 8538
00000290: 8ae2 81bc 4fa1 8f3d 87d4 0d3d 16bc b9bb
000002a0: ddf7 c03b f301 343c 4635 0cbc 1bb4 bfbc
000002b0: 61bd 93bb 6bdf 533c 1222 1ebd 2ee4 b1bc
000002c0: f715 023d 221b c0bc f7cd 20bc 7105 b33c
000002d0: 3d39 64bc 6d19 65bc 42f7 b1bc 1ada a13b
000002e0: f65c 41bc 91c0 2dbd 2c55 c8bb 5dd6 70bc
000002f0: 7633 0dbd 0fbe 923c 5c4d 46bc 4df7 76bd
00000300: 7a6c 1c3d 88e6 073c 8217 9cbd 4877 143c
00000310: c4c8 3d3c 3a54 06bd 3ec0 463c 442c 49bc
00000320: 7546 10bd c21a 253d 3de9 43b8 ba28 9bbd
00000330: 48fd 1e3c 7eb0 8cba 9123 33bd 07ce 40bc
00000340: 3706 c739 fc11 ef3a 0d01 8dbb 8455 19ba
00000350: 78c1 adbc ba8f 423c 57c8 2d3c 01d0 64bc
00000360: 8c48 6bbc 7791 b5bb ab91 023d 47ee 96bc
00000370: 985f 0500 2034 133d 9740 0abc a35f 37bc
00000380: faeb 183c e721 f2bc 3535 2bbb 0dcf e33c
00000390: aa00 dfbc 26db 36bc 8db4 213d b32f b0bc
000003a0: f651 0fbb 2823 0c3d d4c3 2ebc 72d2 b1bb
000003b0: 0261 4f3a 2fa8 28bb 1317 883b 97bf b7bb
000003c0: ebe3 8cbc a93d 61bb b3ba fb3b 17f9 ba3c
000003d0: 68e6 8e3b e21b c73b 4462 0d3d da46 7a3c
000003e0: 870f a8bb 00cb dc3c 9fc7 e33b 7233 7dbb
000003f0: 953d a0bc 80b4 d23b e1f0 043d 8b65 3abd

decoder.2.bias f4 [32]
0.19490236 -0.02521511 -0.02632434 -0.020290257 0.034979623 0.09701308 0.013081757 0.09983069
0.089257516 -0.05109582 0.0022831939 -0.048444554 0.11585572 0.036449604 -0.052978557 0.086544044
0.054266147 0.027212879 0.09493346 -0.07420864 0.024903007 0.06804274 0.006463497 0.006941828
-0.073510125 -0.016705899 -0.016930459 0.14180645 -0.11529701 -0.009485621 0.12515715 -0.014145722
00000000: 7c94 473e eb8f cebc 24a6 d7bc c137 a6bc
00000010: cb46 0f3d cbae c63d de54 563c 0874 cc3d
00000020: a5cc b63d da49 51bd a3a1 153b cc6d 46bd
00000030: c445 ed3d 2e4c 153d 0b00 59bd 013e b13d
00000040: 2e46 5e3d 8bed de3c 796c c23d b3fa 97bd
00000050: 6401 cc3c fe59 8b3d becb d33b 4678 e33b
00000060: 7a8c 96bd cfda 88bc bfb1 8abc b635 113e
00000070: d720 ecbd 9469 1bbc 3229 003e 75c3 67bc
