Autoencoder Helen Dataset/autoencoder_model_helen.pth (torch, 785318 bytes, 16 tensors)

encoder.0.weight f4 [16, 3, 3, 3]
00000000: b99d 933b ab94 bfbd 0903 0cbe 1a94 8dba
00000010: c067 40bc dd18 3f38 815d 55bc f6af 03be
00000020: 63e2 f73d 72fa 003e 4182 773c d36d 3f3e
00000030: dd48 413a 11bd 10be 7103 063e 529d f23c
00000040: fce3 80bc 88f0 27bd a7cf 253e 4a42 da3c
00000050: 79d9 973d 55c0 e4bd 0ee9 92bd 9ef6 193e
00000060: e806 a63d cdb9 1d3e 8ccd 153e 395f d83c
00000070: a063 373e 82e4 653c 270f 64bd ea2a 1e3e
00000080: 69b8 fc3d 4d7d 883c 5d50 013d 8cad 05be
00000090: 889f 5ebd f964 88bc 352a 54bd db77 b93d
000000a0: 699c 033e 20f3 0c3b 5991 2f3d 385d 1dbe
000000b0: 1891 4d3d a11c 6e3d 967b b93d 2e1d 1d3e
000000c0: 04dc 1cbd 15aa 9c3d 61ed 5d3d 6227 aabd
000000d0: 2431 713d c69d 0c3e 7e7e 4abd 3c57 143e
000000e0: 88b9 893d f364 3bbd e550 9c3d 8bdc 4a3d
000000f0: 8a35 a63d 4b77 343d dcb6 7a3e 62e0 bf3d
00000100: 96ef b6ba f62a 21be e3b3 57bd 3925 37bd
00000110: 8030 603c 640a e0bd c675 bc3d 148c a8bc
00000120: c2ec 01be 25d2 7a3d 53a3 11be f675 3abe
00000130: cdf4 b63d 0ea8 45bd b252 073e f183 1ebc
00000140: 7026 193d 5e17 8abd d5a7 593d a112 bbbd
00000150: c995 e4bd 4521 e3bb 8378 c43d 0394 a63d
00000160: bf6e debd 2eac f9bd cc20 4dbd 0b73 4ebd
00000170: 9200 d73c a7e0 c83c f09b 8f3d 45ce 263e
00000180: b136 cfbd d6e9 9bbd efb3 d7bd d844 053e
00000190: f90b 7bbd 02ab 003e ba79 cb3a da86 ef3d
000001a0: f4a9 b93c 5781 8ebc 702b 50bd 6798 0a3e
000001b0: 5ca1 003e eb93 f6bd 8caa 253e aa9b 16be
000001c0: 0578 393c 796e 85bd a4c3 b8bd 5962 4a3c
000001d0: e33a 483d 2d1a 053c 1083 13be 5be4 09be
000001e0: d23d a8bd 2129 463e 4f91 213e c413 363e
000001f0: bd76 b13c b0ba 93bd dc45 94bd c353 893c
00000200: f208 0cbe f4ba 44bd 45e8 313e f7b5 033d
00000210: a5a3 a9bd 971a b2bd 1818 8b3c 9af3 372c
00000220: 65e8 152a 9f3e 1e2a c572 892c f343 47ac
00000230: e8eb 20ab deab 8c2c 8983 312c 4368 21ab
00000240: 4d2f 342f 6605 a2ac fdb0 8fab 131a baac
00000250: bda5 422b 31db 3bad b0c3 8ab1 d392 012d
00000260: 7122 2b33 4c64 3d28 b2a7 fe29 47e1 3eaa
00000270: 07af 0629 9c6e 2b2a abe9 22b1 4971 92b7
00000280: a6a3 0e2a 3c54 0ab6 3e9c 3c3e 828c 213d
00000290: 31d5 0cbe 7515 063e 4d77 fe3c eb44 febd
000002a0: 24b4 56bd 4518 06be 4dca 8b3d 5889 fabd
000002b0: 7d1d 22be 22a7 773d 389a bbbd ac77 02bd
000002c0: 72d6 70bd f5b4 253e 03cc a2bd 0fce b5bd
000002d0: e96c fb3d aec7 e73c 375d 143d 177b d4bc
000002e0: bd24 23bb d0e7 3d3e 51c9 b4bd cadb 80bc
000002f0: 9abb b23d 0e2c b3bd 83f6 873c 197f 97bd
00000300: 8976 24bd 9d5f dbbd adf4 8bbd c757 3c3e
00000310: b68e 5cbd 2e11 893c cb03 493c df62 00be
00000320: 99e7 9d3d 505d 9abd 60cd 6c3d 4f94 343e
00000330: 36bf 063e f491 a33d e377 1c3e 00ca 19be
00000340: 41fd ed3d 3ec3 08be f924 2dbd 0022 9dbd
00000350: 5c3d 143e 1e6d 313e ca3b cebd f651 8d3d
00000360: 5454 af3c d345 b43c 80fa 863d 96c9 663e
00000370: 28d8 b1bd 7a26 903d 3321 c4bd 9d95 273e
00000380: 8eda 383e d384 1f3d 613b 7cbd 3bea 03ba
00000390: 34f0 b5bd 62b6 483d 80b8 13be 0ad4 5b3d
000003a0: bdb8 6abd ee02 a93d 8b10 24be 18a9 6abd
000003b0: 16ca 32bd f640 223d cce1 8bbd 3f3d 33be
000003c0: 429d 303c 3e11 4cbe 3cb8 3fbd 6d04 e1bd
000003d0: c26c d8bc dfcf 703c ba00 80bc a829 c13c
000003e0: befc 0d3d 46ac 293c 528a 0ebd 13ec 923d
000003f0: 5fc4 c5bd dab3 86bc 743f 3e3d fe32 ecbc
0.004504886 -0.09354528 -0.13673033 -0.0010801584 -0.011743486 4.5561104e-05 -0.013022781 -0.12860093
0.12103727 0.12595537 0.015106739 0.18694238 0.0007373223 -0.14134623 0.1308725 0.029616032
-0.015733711 -0.041000873 0.16192494 0.026642937 0.074145265 -0.11169497 -0.07173358 0.15035483
0.08106786 0.15402909 0.14629191 0.026412593 0.17909098 0.014031531 -0.055678513 0.15446058
0.12339861 0.01666131 0.03157078 -0.13054484 -0.05435136 -0.01664971 -0.051798064 0.09056064
0.12852634 0.0021507218 0.042863224 -0.15367591 0.0501872 0.05813277 0.09056775 0.15343162
-0.03829576 0.07649628 0.05418146 -0.08308293 0.058884755 0.13732061 -0.04943704 0.14486402
0.067248404 -0.04575057 0.07632617 0.049526732 0.081156805 0.04405908 0.24483818 0.093689695
-0.00139569 -0.15739045 -0.052661788 -0.044713233 0.013683438 -0.10939482 0.09202151 -0.020574607
-0.12687972 0.061235566 -0.1422246 -0.18209061 0.08933411 -0.048255973 0.1321514 -0.009675012
0.037390172 -0.06742738 0.053138573 -0.091344126 -0.11161382 -0.0069314563 0.09593298 0.081337
-0.10860967 -0.12191044 -0.050080106 -0.050402682 0.02624539 0.024521185 0.070121646 0.16289623
-0.101178534 -0.0761296 -0.105323665 0.13014543 -0.061290715 0.12565234 0.0015523948 0.11695643
0.022664048 -0.017395658 -0.050822675 0.135347 0.12561554 -0.12039932 0.1617834 -0.14707819
0.011320119 -0.065152116 -0.090216905 0.0123525495 0.048884284 0.008123917 -0.14405465 -0.13466017
-0.08214916 0.19351627 0.15778087 0.17780977 0.021663064 -0.07213342 -0.07239887 0.016763574
-0.13675287 -0.048029855 0.1737376 0.032155957 -0.08283166 -0.08696478 0.016979262 2.614109e-12
1.3314487e-13 1.4054945e-13 3.906516e-12 -2.831732e-12 -5.7170805e-13 3.9981204e-12 2.522623e-12 -5.734338e-13
1.6387709e-10 -4.6049163e-12 -1.0209885e-12 -5.2893328e-12 6.9152653e-13 -1.067839e-11 -4.0385757e-09 7.3654026e-12
3.9845364e-08 1.0513356e-14 1.13089564e-13 -1.6953549e-13 2.990579e-14 1.5226226e-13 -2.3706928e-09 -1.7457309e-05
1.266891e-13 -2.0612633e-06 0.18418977 0.03944064 -0.13753201 0.13094123 0.031062746 -0.12415489
-0.05241789 -0.13095196 0.06825695 -0.122332275 -0.15831561 0.060462125 -0.09160274 -0.03185241
-0.05879826 0.16182311 -0.079490684 -0.08877193 0.12276632 0.028293457 0.03622171 -0.0259376
-0.0024893724 0.1854546 -0.088274606 -0.015729804 0.087271884 -0.08748637 0.016597038 -0.07397289
-0.040152106 -0.10711596 -0.068337776 0.1839286 -0.053847037 0.016731825 0.012268971 -0.12537716
0.07710189 -0.07537329 0.05781305 0.176347 0.13158879 0.07986823 0.15280108 -0.15018463
0.1162057 -0.13355729 -0.042271588 -0.076725006 0.14476532 0.17326781 -0.100699976 0.069003984
0.021402515 0.022005951 0.06590748 0.22537836 -0.08683807 0.07038589 -0.09576645 0.16365667
0.18052122 0.03894503 -0.061580066 -0.00050321565 -0.08883706 0.04900206 -0.1442585 0.053669013
-0.057305086 0.08252512 -0.16021936 -0.057290167 -0.043649755 0.039612733 -0.06830177 -0.17503832
0.010779681 -0.19928452 -0.04680656 -0.10987172 -0.026419047 0.014697998 -0.015625346 0.023579434
0.03466486 0.010356015 -0.03479988 0.07173934 -0.096565954 -0.016443182 0.046447232 -0.028832909

encoder.0.bias f4 [16]
00000000: e8f7 52bd 8a7d bc3c b085 b5bc 2a10 4b3d
00000010: c0b2 073e afb4 05b2 e7f1 543e f92f 903d
00000020: 9ffe ed3c 527b 1a3b 86a5 b83d aab4 21be
00000030: 0b8d 3dbc 7586 e93d 6a15 d83d cfa9 d83d
-0.051505953 0.02300908 -0.022158474 0.049575962 0.13251781 -7.782702e-09 0.20795403 0.070404
0.029052077 0.002357204 0.09015946 -0.15791574 -0.011569272 0.11402599 0.105509594 0.105792634

encoder.2.weight f4 [32, 16, 3, 3]
00000000: a8dc 453d f55a 383b a65f f4bb 5088 4c3c
00000010: b67c 31bc 93d4 05bc 50e3 533d 2d12 46bc
00000020: de0a c9bc be2a 613d 6290 00bd ec42 983d
00000030: d02a 243d 634d adbc ece0 55bc 1650 00bc
00000040: 71dc 39bc b062 0abd dcf6 aa3d 153c 403d
00000050: 25d2 a33d d53d 623d 54a6 923d 3a9d 333d
00000060: ca60 803d d2f2 923d 5f8c a53d 1328 0dbd
00000070: 1af6 47bd 3549 9cbc 89a3 b4bd 72f8 fcbc
00000080: 1844 283c 58ff 92bd b06d 02bd 9f1a f0bc
00000090: 08e1 efbc e412 4dbd 75d6 cdbc 97d5 4bbd
000000a0: 23f7 6a3d 91bf f93b 6331 063d 51ba 313d
000000b0: c7f0 bfbc 5543 16aa 2a91 1aab 7280 99a9
000000c0: ac3d 76aa aaba 192e 4a03 23ab a879 21ab
000000d0: d05c 8c2a f2af cba9 2ec3 87bb 7a06 083c
000000e0: 4d7a 60bd 2f25 753d 6420 2fbb 19f0 b23c
000000f0: 3a14 71bd 76c3 e2ba c051 873c 9704 b13a
00000100: 48ac be3b 1203 993b 8a6e c7bc ed13 333d
00000110: 5f7d 063c 2b5f 24bc cc3f 38bd 9cd3 eabb
00000120: 50f6 c83c d822 b43d c9d3 743d 3814 ac3d
00000130: d958 6f3c 50ad 063c 8762 723d b3aa 0d3d
00000140: ce02 003c e896 0fbc f058 1e3d 2f12 74bc
00000150: ebbe b73c daed 883d 97f5 a43c db21 d3bb
00000160: fb48 3b3d b9e3 e3bb 9896 2b3d 6df0 8bb9
00000170: 260b d1bb 3b46 47bd e42b 1bbd 7c45 a6bc
00000180: 9c7a 4f3d fb01 46bd 4275 173c 7b15 4bbd
00000190: 81ca adbc 5d04 f2bb 543c ffbb e99d 2f3d
000001a0: b644 39bd 0852 193d db0b cdbc 97bf 353d
000001b0: b536 e8ad bebc bdac de44 c4ad d386 bcad
000001c0: aa01 e22d 07f1 ec2d fc0f 82ad c02b e9ad
000001d0: eefe 54ad c7ee 853c d314 293c 6a48 703c
000001e0: 8c8c 373d 5ead cf3c d110 0f3d d194 163d
000001f0: 2483 8f3c 1acb d23c dc1c 353d 1ee0 973d
00000200: 1657 61bc 7de6 673d 1d02 aa3c f713 b33c
00000210: e0a5 03bd dca3 723d f69b d0bc 7d32 603d
00000220: 7368 4bbc 1667 293d 7d1c 563b 721e f93b
00000230: a40d fc3b 7ccb 873d abdb 3c3d 57b5 d4bc
00000240: fdcc 97bd 2c94 09bd b847 b7bc 95d8 6abd
00000250: 025b 59bd a744 743b 2818 be3c a2ca 5bbd
00000260: 2fc6 31bd 5d06 21bd d74f eebc e22d 90bd
00000270: 6c7b 60bd 5e99 b5bd 8530 81bd ee6d 6abd
00000280: 76e7 403c 8f4a a23c ec00 a43c a2ba f8ba
00000290: d2df 88bc 280f 753b 3ef3 6b3c c1b8 56bc
000002a0: 2266 13bc 5016 52bc 7549 833c cecc 9d3d
000002b0: 6bd9 833c 0506 d23c f8c0 f63c 8e56 323d
000002c0: 06a3 233d d522 813d 9889 043d 8f7a 813d
000002d0: 1bfe fa3b b6f9 9c3c 64b3 06bd 671a 9e3d
000002e0: 6021 0c3d 539e c7bc e2c6 f33b 18d6 063d
000002f0: 8efc 113d e011 1ea8 7b19 4dae 2757 482a
00000300: 9cba 8cac 6169 df2d 5921 932c 0a4f 1729
00000310: 67e5 5d2e a300 932a 8958 ac3d 15d8 933c
00000320: 2b47 cb3c bfbe acbc a24b 443d abc2 5e3b
00000330: c526 1a3d 092c 5f3d c728 363d 50df a43b
00000340: d6ef 97bc 8c71 35bd b803 63bb 9431 3cbd
00000350: 01a5 5bbd 69b0 823d f599 8e3d 48f3 ccbb
00000360: 9c7e 893d 8268 5f3c 5151 873d e98f 013d
00000370: 3b23 683d 4818 3e3d 2ba6 523b 64b9 323d
00000380: c589 393d b772 9fbc d557 c6bc 97ba a3bd
00000390: de5e 11bd 24f7 e1bc 7860 7bbd 8319 afbc
000003a0: 8b78 603b 8c9f 15bd 5b37 09bd 47a0 493d
000003b0: 053e 763d 1ead 123d fb93 513b 03f5 5cbc
000003c0: 738e 1d3c 0004 fc3c 3886 823d 8336 a2bd
000003d0: 0adc bcbd 5923 09bd 0e08 97bc f860 6d3b
000003e0: 3e8a b6bc 834e 163c 5525 6a3c a088 0b3d
000003f0: b4c4 c8aa ee23 d9a9 a9d0 f829 f7c7 67ab
0.048306137 0.0028130386 -0.0074576912 0.012483671 -0.010832956 -0.008168357 0.051730454 -0.012089294
-0.024541315 0.054972403 -0.031387694 0.07434639 0.04007989 -0.021155065 -0.013054114 -0.007831594
-0.011344061 -0.033785522 0.08347866 0.0469323 0.07999066 0.05523475 0.07160631 0.043851115
0.06268461 0.071752205 0.08083414 -0.034462046 -0.048818685 -0.019077877 -0.08820254 -0.030880187
0.010270141 -0.07177609 -0.031842887 -0.029309569 -0.029282108 -0.050066844 -0.025126675 -0.049764242
0.057364594 0.0076217134 0.032761943 0.043390576 -0.023430241 -1.3346037e-13 -5.4913246e-13 -6.8168466e-14
-2.1870586e-13 3.4953963e-11 -5.79138e-13 -5.736752e-13 2.4933397e-13 -9.0455326e-14 -0.0041431403 0.008302325
-0.054804135 0.059849914 -0.0026722187 0.021843003 -0.05885718 -0.0017300684 0.016518474 0.0013505396
0.0058188774 0.0046695555 -0.024344701 0.043720175 0.008208602 -0.010032455 -0.044982716 -0.007166339
0.024531513 0.087957084 0.059772287 0.08402294 0.014608585 0.008220032 0.059175994 0.03458662
0.007813169 -0.008764006 0.038659036 -0.014896913 0.022429904 0.066859916 0.020136638 -0.006443245
0.045723896 -0.006954637 0.041891664 -0.00026691277 -0.006379503 -0.04865096 -0.037883654 -0.020296805
0.05065404 -0.048341732 0.009244265 -0.049581032 -0.021214725 -0.007385774 -0.007789174 0.042875204
-0.045231543 0.037431747 -0.025030067 0.044372167 -2.6399641e-11 -5.3926577e-12 -2.2313203e-11 -2.1433e-11
2.5693964e-11 2.6937131e-11 -1.4786387e-11 -2.6508462e-11 -1.21074106e-11 0.01634921 0.010319906 0.014665702
0.04481177 0.025351223 0.034928147 0.036763016 0.017518587 0.025731612 0.044216976 0.07415794
-0.013753673 0.056616295 0.02075296 0.021860106 -0.032140613 0.0592383 -0.025464993 0.05473565
-0.012415039 0.041358076 0.003267079 0.0076025063 0.007692056 0.066306084 0.04610793 -0.025965376
-0.07412145 -0.033588573 -0.022373065 -0.057335455 -0.053065307 0.0037272365 0.023204878 -0.053660043
-0.043401893 -0.03931271 -0.029090805 -0.070400015 -0.054805204 -0.08867143 -0.063080825 -0.057233743
0.011773935 0.019810943 0.02001997 -0.0018976519 -0.016708288 0.0037393067 0.014401255 -0.013105572
-0.008996518 -0.0128227025 0.016026238 0.07705079 0.016094884 0.025637636 0.030121312 0.043539576
0.039950393 0.06305472 0.032357782 0.06322204 0.0076596863 0.01916204 -0.032885924 0.077198796
0.034211516 -0.024367487 0.00743948 0.03291902 0.035641246 -8.774638e-15 -4.6634235e-11 1.7793805e-13
-3.999757e-12 2.5398962e-11 4.1816936e-12 3.359729e-14 5.0453332e-11 2.6112887e-13 0.08415324 0.018047372
0.024814209 -0.021087049 0.04792369 0.0033990543 0.03763463 0.054485355 0.044472482 0.0050315037
-0.01854698 -0.04429774 -0.0034639668 -0.04594572 -0.053624157 0.06381304 0.06962959 -0.0062545873
0.06713602 0.013635756 0.06607307 0.031631384 0.056674223 0.046409875 0.00321425 0.043633834
0.045297403 -0.01946388 -0.024211803 -0.079945736 -0.035490863 -0.027583666 -0.061371297 -0.02137447
0.0034251537 -0.03652911 -0.033500057 0.049225118 0.06011774 0.03580963 0.0031979072 -0.01348615
0.009616482 0.030763626 0.063732564 -0.079205535 -0.092216566 -0.033480976 -0.018436458 0.0036221128
-0.022282716 0.009173992 0.014291127 0.034065843 -3.5663627e-13 -9.6429687e-14 1.1049609e-13 -8.2345193e-13

encoder.2.bias f4 [32]
00000000: 83b1 17bb b2c7 a03d 155b 213d 7549 3ebd
00000010: 54f9 613d 9a0f 533d 08e6 88bd 01ce 7c3c
00000020: 7ea2 473d 3918 d3bc 8246 25bc 235d f8ba
00000030: 6add c2bc 334f 863d 5b9a 513d beb5 4c3d
00000040: af69 15bd 8810 ba3d acb7 813d d503 e53c
00000050: 047c 47bc 0438 b2bb fc69 5b3d 9d78 12bc
00000060: 446a 4e3d 236a b53d 5566 bbb9 acf0 32b2
00000070: 810b 83ba eb46 d73d e923 903c d299 343d
-0.0023146577 0.07850589 0.039393503 -0.046456773 0.05516942 0.05152855 -0.066845 0.0154299745
0.04873895 -0.025768386 -0.010087611 -0.0018948655 -0.02378722 0.06558075 0.051172595 0.04997801
-0.03647774 0.09085184 0.06333861 0.027955929 -0.012175564 -0.0054388065 0.05356787 -0.008939889
0.05039431 0.088581346 -0.00035743663 -1.0415686e-08 -0.0009997935 0.105115734 0.017595248 0.044092007

encoder.4.weight f4 [64, 32, 3, 3]
00000000: e6e6 1f3c 50eb 883c 8883 7ebc 70a4 c2bc
00000010: 0e05 003c 5d8e 943c d20b 813b ab5e 64bc
00000020: a37f c0bb 2de0 d23c d71c 2e3d 6436 503d
00000030: e2f7 d43c 25c3 f53c 1813 d9bb 710d 4e3c
00000040: 54d1 83bc e22b 633c 0f5a 51bd 6f02 5ebd
00000050: e2e2 38bd 49b2 74bc a952 c0bc 84d9 88bc
00000060: e623 97bc c15b 9cbc 65e0 84bc 313a 1a3d
00000070: ac83 fa3c fce8 d63c 3043 1f3d cfc9 253d
00000080: f033 173d c5fb b13c a555 02bb dcdf e93c
00000090: 227a 7dbc 5c6b 18bd 2268 983c 1e73 81bc
000000a0: 4874 8ebc d860 82bc 8006 d83c 29be 64bd
000000b0: 63f3 d53c 2f63 fcbc 8fd2 11bd 9db4 50bd
000000c0: a0e4 283b 0ea3 80bc dc5b 68bc faa8 51bc
000000d0: 6eed dbbc 8ab0 7abc ee98 c03c eddf 013a
000000e0: 5a17 583d cff1 d8bb 726b 363d 71b6 85bb
000000f0: 4bff 833d 8206 493d 399a 1c3b a836 a13c
00000100: 4572 ce3b 1222 c43c e4de ef3c 7e9a 8bbc
00000110: 6be0 373c 8367 303d f871 183d 1afa 9b3c
00000120: 50f1 4d3d ac4f f83c c12a d53c fccd 003d
00000130: 3ed8 1c3d d779 9f3c 56cf 7b3d 5794 9b3d
00000140: 711f df3c 83e3 813d 9c64 5f3c c968 283d
00000150: 91bb 72bc 2e24 313d 6951 5dbb a518 05bc
00000160: 0bb8 983d 6ac7 fb3c 9b7d 2fba 7cea 81b9
00000170: 5955 9e3a 28cc 043a 4552 6f3a cfb4 283b
00000180: f826 0e3a ee82 813a 3785 313b 3833 fd3c
00000190: 28ce df3c 2f26 3a3d e5d4 b03c 5f87 c93c
000001a0: 763e 1d3d 9bad 543d 3d72 063d 9dee 063d
000001b0: 6cab 87b9 b522 72b9 13e0 8bb9 71ae 62b9
000001c0: ae5c 5eb9 1735 78b9 6d9e 6eb9 599c 69b9
000001d0: 56bd 69b9 b679 003d c0f8 4ebb fbfb 173c
000001e0: b2c1 633d 122d fb3c e33d 8b3c 6399 023d
000001f0: 8138 b63c 4d0b f6bb 59d2 1dbc b07f b0bc
00000200: f012 79bc 9f85 c93c 7a47 9e3c 5a42 c5bc
00000210: bf17 11bd 9d6c 76bc c237 95bc e41c 5a3c
00000220: c6c7 c4bc 38d9 c23b 4ca3 58bb cb4d 10bd
00000230: 15e3 c73c 543b ecbc 56e8 d73c 4f62 8dbb
00000240: eb93 383a f228 9f3a 159e 323a be69 8b3a
00000250: ff11 c03a 1f68 083b 368e 853a 3409 e33a
00000260: 049d 0a3b 9b0a b9bc 2c50 dfbc 2423 9bbc
00000270: 2194 46bd 790a f0bc 73dd 1fbd 85f4 a93c
00000280: 678f efbc c98d 0a3c d70f c13a 9eff 5b3c
00000290: bd41 ca3c 10d2 fb3c db8a d03c ec11 973c
000002a0: 5466 af3c d8f3 153a 15f6 ed3c b06b 8abb
000002b0: 98c0 5bbc 76bf cf3b 3122 bcbc 1b6b 36bd
000002c0: 9f81 c2bc 6868 cebb 7683 ccbc d54c 29bc
000002d0: a9c3 18bc b45f 37ba cdc1 01bd 2a20 baba
000002e0: 13c2 ce3c c5d1 8fbc 0a9e 84bb 0ef2 d73c
000002f0: 0054 03bc 14bc 2aa7 bba8 07a7 db4b 6225
00000300: d750 0aa7 b9e4 5e26 718c eba6 d490 a5a6
00000310: 844e 66a7 c8f9 53a7 a155 333c f80c 5c3c
00000320: 29ce 6abc 12d0 cc3b 12f4 f13c c802 3cbd
00000330: 9009 f93b 3a67 7cb9 c6e2 0cbc cc42 023a
00000340: f2d0 0a3a e800 053a 8d99 0e3a 783f 133a
00000350: 6a68 0c3a 37e1 053a 1745 0f3a edc7 0b3a
00000360: 453e 02bd ae59 0d3d 1315 113d bb0a 203c
00000370: 2cdf 063d d751 b63c 2249 71bc a3e8 36b9
00000380: 178b 623c c017 2a3c f3f2 f73b 694b 77ba
00000390: d69e c2bc 4699 cfbb 179c 61bc 5c1f 703c
000003a0: bc28 b6bc ca95 813c b4d0 1baa d677 1aaa
000003b0: 5029 7c28 7f7c c7a9 f4d2 93a9 6bb0 452a
000003c0: d160 e0a9 6a5c e4a9 682e 272a c3ef 3230
000003d0: d628 3830 a3fa 3530 48af 3330 a6c1 3730
000003e0: aeb7 3630 e13a 2a30 8e14 4430 e4a2 2c30
000003f0: 3526 003d fd95 803d eec5 6c3d 8f2c 563d
0.00975964 0.016713768 -0.015534289 -0.02376005 0.007813705 0.01813429 0.0039381767 -0.013938586
-0.0058745905 0.025741661 0.042507973 0.05083312 0.025997106 0.030000279 -0.0066245906 0.012576447
-0.016091026 0.013865443 -0.051111277 -0.05420154 -0.045138247 -0.014935085 -0.023476915 -0.016705282
-0.018449735 -0.01908672 -0.01622028 0.037653152 0.030580364 0.026234142 0.038882434 0.040475663
0.036914766 0.021726498 -0.0019887474 0.028549127 -0.015471013 -0.03721176 0.018604342 -0.015801962
-0.017389432 -0.01591532 0.026370287 -0.055845413 0.026117032 -0.030809013 -0.035601195 -0.050953496
0.0025771037 -0.01570275 -0.014182057 -0.012796635 -0.026846614 -0.015300879 0.023510423 0.0004954327
0.052756645 -0.0066206227 0.04453606 -0.0040805866 0.06445178 0.049078472 0.0023895635 0.019679382
0.006300243 0.023942027 0.029281087 -0.017041441 0.011222939 0.043067466 0.037218064 0.019040156
0.05027896 0.030311428 0.026021363 0.031446442 0.038292162 0.019467277 0.061477028 0.07596653
0.027236672 0.063422225 0.013634827 0.041115556 -0.014815227 0.043247394 -0.0033770448 -0.0081235515
0.074569784 0.030734736 -0.0006694437 -0.00024779502 0.0012079879 0.0005065822 0.00091293856 0.0025742536
0.0005422677 0.0009880939 0.002708746 0.030908212 0.027319983 0.04544657 0.021585891 0.024600683
0.038389646 0.051923376 0.03282379 0.032942403 -0.00025876926 -0.00023091848 -0.00026679094 -0.00021618024
-0.00021206096 -0.000236709 -0.00022756467 -0.00022278856 -0.00022291145 0.031366073 -0.0031581372 0.009276385
0.055604644 0.03066114 0.016997283 0.031884562 0.02224374 -0.0075086714 -0.00963267 -0.021545261
-0.015202269 0.024599848 0.019321192 -0.02407949 -0.035423037 -0.015040544 -0.018215064 0.013312552
-0.02402104 0.0059463046 -0.0033056317 -0.03523044 0.024400273 -0.028836884 0.026355904 -0.004314698
0.00070410845 0.001214294 0.0006813717 0.0010636372 0.0014653801 0.0020814014 0.0010189477 0.0017321468
0.0021150718 -0.022588065 -0.027259909 -0.018937655 -0.04848111 -0.029301869 -0.03902955 0.020746479
-0.029243184 0.008456656 0.0014729452 0.013427643 0.02468955 0.030739814 0.025456836 0.018441163
0.021411099 0.00057202345 0.029048005 -0.004224263 -0.013412617 0.0063399626 -0.022965522 -0.044535737
-0.023743449 -0.0062990673 -0.02496503 -0.01033326 -0.009323993 -0.0006995157 -0.031678963 -0.001420026
0.025239026 -0.01755608 -0.00404716 0.026360538 -0.008015633 -2.3694197e-15 -1.8826483e-15 1.9628076e-16
-1.919517e-15 7.73317e-16 -1.6344467e-15 -1.1488431e-15 -3.1961475e-15 -2.941754e-15 0.0109457085 0.013430826
-0.014331379 0.00625039 0.029535327 -0.04590109 0.007600017 -0.00024071048 -0.008598989 0.000496906
0.00052954175 0.00050736824 0.0005439751 0.00056170626 0.0005356135 0.0005107107 0.0005465312 0.00053322205
-0.031797666 0.034509353 0.03542049 0.009768183 0.032927677 0.022255821 -0.014726909 -0.00017443536
0.013827107 0.010381639 0.0075668036 -0.0009433539 -0.02375738 -0.0063354103 -0.013770125 0.014655914
-0.02223622 0.015818495 -1.3839174e-13 -1.3719524e-13 1.3997768e-14 -8.858972e-14 -6.564706e-14 1.7558322e-13
-9.964393e-14 -1.0141265e-13 1.484868e-13 6.5096745e-10 6.699684e-10 6.620359e-10 6.536891e-10 6.6850203e-10
6.647224e-10 6.192931e-10 7.1333595e-10 6.2804717e-10 0.031286437 0.06278608 0.057805948 0.052288588

encoder.4.bias f4 [64]
00000000: 0a03 d93c fc73 fb3c 4676 3c3d f4c7 913d
00000010: 1812 a03d 9838 333d 5ff3 143d 5df0 573d
00000020: 3db6 023d f8b1 0ebc c492 5bbc 94e1 4b3c
00000030: f303 853d de9b f0bc fda3 8ebc 3a1d cd3c
00000040: 6075 f93b 3cd5 573d 4ffa b23c db8f a0bc
00000050: 5f59 813d 9eb5 c2bb 0ea0 c5ba c504 e93c
00000060: 7e19 583d e036 55bc 5064 873d 1627 5d3a
00000070: dbb1 b3bc e83c 12b3 63d1 8d3d 689d bb3c
00000080: c171 e8b8 f165 443c 4949 11bc 1e9d 3c3d
00000090: f1ba 9e3b 345d 353d d842 5f3c b37c 963d
000000a0: 398f 613a 3213 433d 3603 2fbb b8be d83c
000000b0: 553b 5f3d 4b97 a43c 551c c53c 55af 313d
000000c0: 7ede 293d b3c8 4d3d 66fd 083c ef65 24bd
000000d0: c4ab 7e3d 8350 483d 5bed fa3c 38d2 783c
000000e0: 7d6c 503d d579 25bb 561f 7b3d 331d ccb4
000000f0: 2684 4d3d 4d30 52bb bc58 9b3c ca7d 5c3d
0.026490707 0.030694954 0.04601123 0.07118216 0.07815951 0.043755144 0.03636491 0.052719463
0.031912077 -0.008709423 -0.013401691 0.012443919 0.06494894 -0.029371198 -0.01741218 0.02503835
0.007612869 0.05269359 0.021847872 -0.019599846 0.06315874 -0.0059420606 -0.0015077607 0.028444657
0.052758686 -0.0130135715 0.0661093 0.0008436305 -0.021935394 -3.4048668e-08 0.06924703 0.022902206
-0.000110838104 0.011987195 -0.00886757 0.046048276 0.0048440625 0.04427834 0.013626777 0.07348003
0.00086044107 0.047625728 -0.0026704795 0.02645813 0.054499943 0.020091673 0.024061361 0.0433801
0.04147195 0.05024023 0.008361196 -0.040136274 0.062175527 0.048904907 0.030630758 0.015186839
0.050884712 -0.002524962 0.06130918 -3.8019206e-07 0.050174855 -0.0032072247 0.01896321 0.0538309

encoder.6.weight f4 [128, 64, 3, 3]
00000000: 1a01 5cbb dd78 48bb 98a9 abbc 6082 beba
00000010: db69 b1bc ec33 ebbc ee69 55bc b757 65bc
00000020: cd41 90bc 90be dbba a875 a83b c305 1a3b
00000030: 0d2e 0c3c d64c d63c 20a9 183c 9e4b 033c
00000040: 2233 903c 8597 553c 782c 70bb 0a2d f23b
00000050: 1dd6 1ebb fb7a 853b f277 4f3c 7ec3 f33c
00000060: 05de 513c 04b8 103d 0d65 b23b 992a 2a3a
00000070: f66f 8c3c 7c37 8a3c ce7b 8e3c d0b9 c63c
00000080: 8560 4d3d c3eb 933a 90ff 6e3c b4ec b63c
00000090: 3583 9d39 ad9c 923c 07b9 a43c 9551 b63b
000000a0: 6084 b03c 25d7 0a3d 3d12 14bc da43 5b3c
000000b0: 1eb0 753c 1411 d1bb fefa 693c 9e46 d5ba
000000c0: 9ee5 9e3b 195c e73c d2a5 0f3d de41 0dbb
000000d0: 742a cbbb aaab 823c f99d cabc cb52 3c3c
000000e0: 0f09 4b3c ab82 903c 021a 093d e4ad 093d
000000f0: 7eb3 d5b9 e62c b53b 5730 4b3c 6a3a ed3c
00000100: 5809 0e3d fd13 6a3b dd5f 6b3c c0ff 053d
00000110: 5b3e eb3c 3c0e 133c 2d35 043c 48a2 de3c
00000120: 6981 073a 0a66 443c c254 953c 0218 113c
00000130: 3658 fdb9 f508 0a3d 04b0 8aba f795 05bc
00000140: de02 8d3c e574 acb6 582a ddb6 4bf9 00b7
00000150: b494 d8b6 f65d 0eb7 23ff 14b7 4fff ebb6
00000160: cfe3 07b7 c258 22b7 97b6 ea3c 90e8 af3c
00000170: a86d a53c eb8e 8c3c f40c e7bb 4ab6 50bc
00000180: a2fe b83c 5db4 be3b f2a3 dcb9 0a7c 8b3c
00000190: 8f15 cb3b 1c61 7b3c 0845 933c 697d c83c
000001a0: a749 453c 3211 9f3c 3c67 213d fbd0 983a
000001b0: 2037 abbc 1294 4f3c e94f 813c 4ce5 9cbb
000001c0: c277 0b3c b7ea 0b3d 9e32 ae3c 1894 eb3c
000001d0: 36b0 e53c 1bcb 093d 3ffe f13c d5fa e03c
000001e0: 0192 c63c 3792 9db9 f2cb 08bc 18c9 e03c
000001f0: d429 e23b e4f2 6bbb 5685 2f3b 204a 57ba
00000200: 3571 043c e3ef d23b eba8 22bc 9fbd 16bc
00000210: dbbe eb3a 3c35 feba aea9 98bb c2bb 9fbb
00000220: 4214 ddbc dfe0 49ba 78fe 02bc 6e70 c0bc
00000230: b101 08bd c6ee b93b 6dcb 79bc 3227 37bc
00000240: 6472 943c 219d ad3c 3543 c03c fa9b 443c
00000250: e143 4bbb ec20 b8bb c70d 723c b58b 563b
00000260: ebc9 12bb d169 a7b9 d39a ff3b 3bb6 813c
00000270: 6666 ac3c 89f5 663c 15bb 243d 2cf0 97bc
00000280: dfc0 f23b cc6a eb3c 89d1 16bc 9e25 a2bc
00000290: a209 dbbc 17f5 32bc 12e9 803c aec8 cf3c
000002a0: 12c2 0bbd 6244 37bc 290a 20ba 8309 85bc
000002b0: 1aab 413c d184 dfbc a883 54bc 1d27 ffbc
000002c0: 9702 b7bc 70b5 103a f79a 13bd 3267 c43a
000002d0: 27cd 543c 9f8b b03c 86d5 8e3c 1531 f8bb
000002e0: c2b0 543d 067b 5d3d e81d 00bc b1cd 3c3d
000002f0: d711 1c3b 9bc7 1d3c 7429 853b 198e f23b
00000300: 005b de3b 76d9 e2bb 1961 19bc d862 203c
00000310: 1e22 b03b 96ae 96ba 07fd 33bb e29e 3ebb
00000320: 3071 67ba 690a bfbb 3c58 0abc f502 a1bc
00000330: 0328 8eba 806a cfbb f1f9 17bc 8635 23bc
00000340: 6360 ec3c ab1a 323c 5870 c6ba 46e0 ec3c
00000350: 1cfa dd3c f7a0 5ebb 20de fdba 6761 e63c
00000360: 68c8 d6bc 4fa6 82bc 322b 75bc 6f32 e7bb
00000370: c50c 043d 3000 183d 176a fe3a ad16 e63c
00000380: c85e 213d b859 a939 dd8d 05bc ea8f 363a
00000390: 03fc c1bb ebd2 9abc 26ec 70bb ccf1 1c3c
000003a0: 57e1 513c 11a3 fb3c fa53 be3c 8735 04bc
000003b0: 1d9f 1ebc 7296 c2bb 5500 243c 7a93 223d
000003c0: 3992 593c bb9d f73c ff7f ef3c 2f15 033b
000003d0: 462d 9fbb 0fd0 2dba ce56 043c b641 13bc
000003e0: ce17 57bc dac9 ab3a 369d 04bb da76 35bc
000003f0: 5f8e 92bb b8b0 65bb 5373 96bb c5e4 efbb
-0.0033569993 -0.0030589618 -0.020954892 -0.0014534704 -0.021656921 -0.028711282 -0.013025744 -0.013997964
-0.017609501 -0.0016765166 0.005140979 0.002350197 0.008555901 0.026159685 0.009317666 0.008013634
0.017602507 0.013036613 -0.00366476 0.007390623 -0.0024236508 0.0040734983 0.012662875 0.029756304
0.012809281 0.03533174 0.005444175 0.0006491333 0.01714323 0.01687216 0.017393019 0.024258524
0.050140876 0.0011285472 0.014587298 0.022329666 0.0003004313 0.017896974 0.02010776 0.0055639246
0.021547496 0.033896584 -0.0090375515 0.013382876 0.014995603 -0.0063802097 0.014281033 -0.0016271656
0.00484915 0.028242158 0.035070248 -0.0021554152 -0.006200129 0.015950996 -0.02473353 0.011494349
0.012392296 0.017640432 0.03347207 0.0336131 -0.00040760258 0.005529034 0.012401662 0.028958518
0.03467688 0.003571748 0.014366117 0.032714605 0.028716257 0.008975562 0.008069319 0.027176991
0.0005169125 0.011987219 0.018228892 0.008855822 -0.00048321643 0.03369995 -0.0010581021 -0.00815343
0.017213281 -5.1396078e-06 -6.5912427e-06 -7.687438e-06 -6.454613e-06 -8.4857365e-06 -8.880891e-06 -7.0332676e-06
-8.099668e-06 -9.676618e-06 0.028651519 0.0214732 0.02019389 0.017157992 -0.0070511047 -0.012738774
0.022582356 0.005819841 -0.0004208382 0.01702692 0.0061976383 0.015342977 0.017977253 0.024473863
0.012041486 0.019417379 0.039405093 0.0011658961 -0.02090031 0.01266958 0.015785174 -0.0047880765
0.008512439 0.03415939 0.02126437 0.02875714 0.028038125 0.033640962 0.02954018 0.027463356
0.024239542 -0.00030054312 -0.008349406 0.027439639 0.006901959 -0.0036002928 0.0026782355 -0.00082126446
0.008083631 0.006437288 -0.0099279685 -0.009200483 0.0017985957 -0.0019394527 -0.0046588993 -0.0048746774
-0.026987199 -0.000770105 -0.00799524 -0.02349111 -0.033204738 0.005674216 -0.015246254 -0.0111787785
0.018120952 0.021193089 0.023469547 0.012000078 -0.00310158 -0.005619159 0.014773793 0.003273708
-0.0022398185 -0.00031931562 0.007800439 0.015833965 0.021044921 0.014096626 0.040217478 -0.01854714
0.007408246 0.028737448 -0.0092052305 -0.019793328 -0.026737992 -0.010922692 0.015736137 0.025364246
-0.034120627 -0.011185737 -0.00061050296 -0.016239887 0.011820579 -0.027285011 -0.012970842 -0.03114658
-0.022340102 0.00055202004 -0.036036458 0.0014984368 0.012988365 0.021550952 0.0174358 -0.0075742104
0.051926382 0.054072402 -0.00781963 0.0460946 0.0023814344 0.009630109 0.0040637795 0.0074021933
0.0067857504 -0.006922896 -0.009361529 0.009789191 0.005375161 -0.0011496122 -0.0027464048 -0.00290864
-0.0008828817 -0.0058300984 -0.008443888 -0.01965473 -0.0010845665 -0.0063298345 -0.009275899 -0.009961491
0.028854555 0.010870616 -0.0015139682 0.028915536 0.0270968 -0.0033970454 -0.0019368567 0.028122617
-0.026218608 -0.015948443 -0.014963912 -0.0070555727 0.03223874 0.037109554 0.0019410279 0.028086985
0.03939703 0.00032301038 -0.008151499 0.0006964194 -0.0059199347 -0.018899402 -0.003676185 0.009579133
0.012810073 0.030717405 0.023233403 -0.008069403 -0.00968149 -0.0059383446 0.010009845 0.039691426
0.013279491 0.030226579 0.029235838 0.002000164 -0.004857692 -0.00066304294 0.0080773365 -0.008987835
-0.013128234 0.0013106421 -0.0020235307 -0.0110757 -0.0044725384 -0.003504796 -0.0045913844 -0.0073209726

encoder.6.bias f4 [128]
00000000: f522 fa3c 7ae4 1dbb ccb4 ffbb 22b4 f3bb
00000010: 31b4 12bd c0a0 aabd 0a2a 01bd 3060 02bb
00000020: 7078 363d a38d 573d 37e3 a3bb 5f81 86bc
00000030: 396e c3bc 4428 243d 211a 363d 66c2 e6bb
00000040: fe81 db3b 4392 ffbc 5afb c3bd a0bc bb3b
00000050: a0b2 18bd 96ef a13b 8a3d bb3b fe9c 5b3c
00000060: a9ce 2f3d 5c5d 81b9 5f87 833c c70d 4e3b
00000070: 766d a3bd 7421 453d 29fc 523d b5ec 413d
00000080: 2df5 293c eba8 9fbd cae8 463c e2c1 2236
00000090: ffba 6839 ead1 1b38 afa5 da3c a410 693c
000000a0: 1d1e 36bc f14c 3a3d fa7c 36b7 8a5f cfbb
000000b0: a178 563d 0ab1 523d 244c f5bb 3ca9 abb6
000000c0: 9c19 1c3b 3cd9 373c 8864 64bd 732e 013c
000000d0: 1b3c dfbc 5dcf 363d c6bc 0b3d fde4 e43c
000000e0: 1a32 b53a 23bc 3e3d 4302 3bbc 77f4 0f3d
000000f0: 88c8 97ba 9b1f 0a3c 03d3 42bc 6f82 3cbc
00000100: 0dd8 b1bc ecf5 a1b4 e08b f43c 733c 073d
00000110: fb56 193d 2010 1e3d ef4d e73c 4a28 453c
00000120: abdb 8fb7 db5a 283d 2145 0b3c 92ad c43b
00000130: f7fe 963c 2717 c1b2 c87c 063d 4139 6934
00000140: bc87 be3c 892f 9cb8 86ef 5e3d 711e 54bd
00000150: 869c fc3b a60b d13c 5f39 583d 60ac 803c
00000160: 3b8b 443d 2d6a ed3b fe60 133c b9de 403d
00000170: 3d06 b7af 462c dd3c 0260 d6bc 9f2d 693c
00000180: 97ef 073c 4202 0fbd 6e0a 663b bd47 163d
00000190: 2123 39bb 708d 713d df1d a9bc 5a1c 0e3d
000001a0: 9e86 aebb b797 63ba f902 c43b 9496 d5b3
000001b0: 877f 19bd a387 603d 67e0 083d 5dd8 013d
000001c0: 9361 9c3d 062a 503d c61f 9fbc 3379 ae3c
000001d0: 9e6a b1ba a06a 273d a3a3 4d3d 2fdd 433d
000001e0: a0f5 653d fa16 26bd 2cf4 303d 69e4 2c3d
000001f0: 9244 1ebc f4d8 c63c 7395 e73c c284 babb
0.030534247 -0.0024092481 -0.007803535 -0.007437245 -0.035816375 -0.08331442 -0.031534232 -0.0019893758
0.044548452 0.05262531 -0.0050014514 -0.01641911 -0.02385627 0.040077463 0.044458512 -0.007042217
0.006698846 -0.031197673 -0.09569426 0.005729273 -0.037279725 0.004941891 0.005714123 0.013404129
0.042921696 -0.00024674356 0.01605576 0.0031441317 -0.079798624 0.048127607 0.05151001 0.047344882
0.010373396 -0.077958904 0.012140462 2.4252736e-06 0.00022194906 3.7150377e-05 0.026690332 0.014225159
-0.011115578 0.045483533 -1.0877144e-05 -0.006328528 0.052361134 0.05143837 -0.0074858833 -5.1158986e-06
0.0023818975 0.011221226 -0.055759937 0.0078846095 -0.02725034 0.04463135 0.034115575 0.027941221
0.0013824136 0.04656614 -0.011414113 0.03514525 -0.0011580149 0.008430387 -0.011891129 -0.011505707
-0.021709466 -3.016752e-07 0.029851854 0.033016633 0.037436467 0.038589597 0.028235404 0.012033531
-1.714922e-05 0.04110227 0.008500368 0.0060021365 0.018432124 -2.2478686e-08 0.032833844 2.1720645e-07
0.023258083 -7.447514e-05 0.054427646 -0.051786844 0.0077090887 0.02551825 0.05278909 0.015707195
0.047984343 0.007245323 0.008995293 0.047087405 -3.329194e-10 0.02699865 -0.026168827 0.014232068
0.008296869 -0.034914263 0.0035101431 0.03668951 -0.0028249698 0.058972776 -0.020644126 0.034695007
-0.005326106 -0.000868197 0.0059817997 -9.9459754e-08 -0.037475135 0.054816853 0.03341713 0.03170048
0.07635798 0.050821327 -0.01942433 0.021298027 -0.0013535803 0.04087317 0.050204884 0.04781836
0.05614245 -0.040549256 0.04320161 0.042210016 -0.009659903 0.024273373 0.028269505 -0.0056920955

decoder.0.weight f4 [128, 64, 3, 3]
00000000: f9fe 15bb 191f 8b28 f774 42bc 0a0f 033c
00000010: 50d6 bf3c 9c0e 95bb c993 28bc 7fd0 36a8
00000020: 198a 993c 80b9 8bbc 4c40 b6bb e2aa d7bc
00000030: 5a5c 9d3b 6129 8fba 0c56 903b 17b6 2dbc
00000040: defe 093d 1df2 aa3c 47d7 9abb 8bae d0bb
00000050: ac4f f03a 07a2 9bbb 3f49 e93b 6fe4 8fbb
00000060: 4eda 25bc 2d91 8e3b b48a 913c 6e91 652a
00000070: ae8f f03b 1436 832b 1128 8fba 95e9 883c
00000080: d2f2 b23b 5a60 6b2c 4890 d03b 2a1c b9ac
00000090: 64aa 553c 4cff 4129 4196 de3b f3fe 813c
000000a0: c9c7 6ea6 9158 3e3c 8304 603c d275 5a2c
000000b0: f5b7 6a3b 335d 6a3b e200 c53c 3fe3 78bc
000000c0: 13ff eb3c 6573 203c dc28 523d 87b1 8c3c
000000d0: 7f59 48b9 c25b 22b8 af58 9bbb c2aa a93c
000000e0: e8b8 8eb9 370f bbbb 178f f73c 1214 a33c
000000f0: 0e71 9dbb c42e 043d 2b07 7b3c 82a5 fabb
00000100: f007 8dbc 984d 73bb e615 15bd 9f8d 01bb
00000110: 001f ccbc 1fe2 2fba 4f42 30bc 06cc 04bc
00000120: 96d5 9b3a b893 9abc 577c df3a f118 2abc
00000130: c98e 083d 6a76 023d 3ec0 74bb e5ce 1f3d
00000140: 7e1f f73b 5546 473c 1cc2 14ba 6203 803c
00000150: 66c7 1f3c 0a6c e6ba d827 1abc 99a3 a93c
00000160: 6dbc 4cba bcdc c03b 3ff9 06bd bb18 1ebd
00000170: 2d94 babc e107 05bd 21ac 15bd 569b febc
00000180: f854 55bc f311 5ebc bd6d 99bc 5e96 e7bb
00000190: 6b49 832a bc1c 1fbc 826d 4826 6df2 a93c
000001a0: f2fb daa9 2a38 0cbc 8d99 d6a7 3af3 f43b
000001b0: e1e7 99bc f3f2 12b3 61f0 6aba f56a 3ca9
000001c0: a43a f23c 77fa c0a8 792a 94bc b9ad f6b2
000001d0: fe95 c73c 9211 e13c 2600 0e3d becd 9d3c
000001e0: b272 883c a79e 823c b06a f13b 9878 f13c
000001f0: e8e1 8d3c 4b59 82bb b459 b3bc 6b15 7fbb
00000200: 3a71 6b3c 33d5 803c 8d2f 953c 7a0f 443c
00000210: ec40 c0bc 3e52 5dbb abaa 0e3d f40e 48b7
00000220: 2416 c03b ad30 2db8 930e 782a c4e9 41b7
00000230: 7a94 6b2a f3f0 1638 0798 703d cc57 b337
00000240: 9dfc a4bb 3c40 853a 110f 743a 1e1d 883c
00000250: 12ab ba3c cc12 f8ba d64f 1abc 50e9 9a3c
00000260: ae49 1b3c 1bbf 86bc e3fc 0a3b 1151 c33c
00000270: 0c5e dd3b ada0 c2b8 1832 9c3c fa7b 583c
00000280: fb81 d03b 43de 0c3c 394e 053c 5f28 6d3c
00000290: 8c40 dfba b074 5c3b de58 f2b5 8ddd 1dbb
000002a0: e185 353b 50c1 3abb 6a64 b8bc bcf8 3bbc
000002b0: 3f5c 0abb f7ba 00bc 2a20 263a 7bd9 c2b8
000002c0: 4a1e fc3b 107a c4ba a64c f43b df59 953b
000002d0: 4468 1a3c 9a75 edba 22b3 a7bb 5712 333c
000002e0: c08c ed3c 906c 523d b861 3abc ec58 aa3c
000002f0: 4de5 4f3d 4e08 e73b 1228 343c e77a b13b
00000300: b62a ae3c 83cf 0f3d 5d55 293d 65c2 e13a
00000310: f95c f13c 634d a33c 593f a1bb c7a4 fab8
00000320: 132c ebbb 975e 443a 21fc 8b3b 66d8 5e3b
00000330: adca 84bb 7564 383c a8bb 8d3b 5d30 acbc
00000340: 95d7 b03c 3a73 203b e718 933c bb1f 203c
00000350: dc61 293d 8201 3ebc 5ab6 943b 1f1a 183d
00000360: 6e6d 5d3a 86e4 34bc cf13 39bc e855 d63a
00000370: 6108 0b3d 6992 b1bb 2009 8a3a 0015 59bc
00000380: 22ba 11bb 95c0 4e3c 33c0 733c c955 f43b
00000390: 1a13 423c 8c5b 223c cf29 0ebc 3190 4a3c
000003a0: 9d16 2dbc 7eaa 6bbc 3154 dcbb 2121 1c3b
000003b0: b522 abbb d63a 47bc 788e 523c 5d7e 41bc
000003c0: 8028 3bba 2ad4 023c bf2d c63c f331 9b39
000003d0: dc6e 573b 8cf2 91bb 5887 aabc 72da 7c3c
000003e0: a9b2 ce3b 1bc3 4cb9 ad89 733c 2785 783b
000003f0: 65bf ddba 174c c63b 703e 8fba 5ed0 34ba
-0.0022887571 1.5445587e-14 -0.011868707 0.007999191 0.023417622 -0.0045488607 -0.010289141 -1.014824e-14
0.018742608 -0.017056227 -0.005561864 -0.0263266 0.004802269 -0.0010922366 0.004404789 -0.010602496
0.033690326 0.020867402 -0.00472537 -0.0063684634 0.0018334291 -0.00474954 0.0071193273 -0.004391245
-0.010122849 0.0043508024 0.017766334 2.0389742e-13 0.0073413467 9.32312e-13 -0.0010921975 0.016712943
0.0054610753 3.3448994e-12 0.006364856 -5.261143e-12 0.013041113 4.3076043e-14 0.006792814 0.01586864
-8.2843597e-16 0.011617796 0.013672951 3.1045067e-12 0.0035815213 0.0035761117 0.024048273 -0.015190898
0.028808152 0.009793137 0.051308498 0.017174495 -0.00019106826 -3.8709266e-05 -0.0047407965 0.020711306
-0.00027222116 -0.005708601 0.030219598 0.019907031 -0.004804737 0.03227116 0.015321533 -0.0076491246
-0.017215699 -0.0037125107 -0.036397837 -0.001976825 -0.024917126 -0.0006709415 -0.010757997 -0.008105284
0.0011889215 -0.018869266 0.0017050606 -0.010381923 0.033339296 0.03185121 -0.003734603 0.03901567
0.007541596 0.012162765 -0.00056746765 0.015626613 0.00975213 -0.0017579806 -0.009408914 0.020707892
-0.000781006 0.0058856886 -0.032952543 -0.038597804 -0.022775734 -0.032478217 -0.036541108 -0.03107993
-0.013020746 -0.013554084 -0.018729085 -0.0070674857 2.3321219e-13 -0.009711441 6.953735e-16 0.02074548
-9.72485e-14 -0.008558312 -5.956341e-15 0.007475284 -0.018787326 -3.4214235e-08 -0.0008962211 -4.1837156e-14
0.029568978 -2.1424904e-14 -0.018086659 -2.8717169e-08 0.024363514 0.027474198 0.03466811 0.019263145
0.016656253 0.015944792 0.0073674545 0.029476449 0.017319635 -0.0039779297 -0.02189336 -0.0038922678
0.014370257 0.015726661 0.01821115 0.0119665805 -0.023468457 -0.0033770944 0.03483073 -1.19244105e-05
0.0058620144 -4.1291747e-05 2.2031881e-13 -1.1558124e-05 2.0923706e-13 3.598719e-05 0.058738735 2.1379346e-05
-0.0050349967 0.0010166238 0.00093101064 0.016615447 0.02278665 -0.00189265 -0.009418448 0.01891008
0.009478016 -0.016448548 0.002120786 0.023842366 0.006755596 -9.280569e-05 0.019066855 0.013213152
0.006363151 0.008597913 0.0081363255 0.014474957 -0.0017032786 0.0033638887 -1.8056269e-06 -0.0024088353
0.0027698206 -0.002849657 -0.022508819 -0.011472877 -0.0021112112 -0.007857076 0.000633719 -9.29115e-05
0.0076940404 -0.0014989991 0.0074554263 0.0045578326 0.009424273 -0.0018116713 -0.00511779 0.0109296655
0.028997779 0.051373065 -0.011375837 0.020794354 0.050755788 0.0070505505 0.010995882 0.0054162624
0.0212606 0.035110008 0.041341174 0.0017224072 0.029463278 0.019934362 -0.0049208817 -0.00011951621
-0.007176885 0.00074909016 0.0042719995 0.0034003495 -0.004052481 0.01125442 0.004325349 -0.021019155
0.021587173 0.0024482743 0.01795621 0.00977319 0.04135309 -0.011597039 0.0045383396 0.037134286
0.0008446787 -0.011040812 -0.011296227 0.0016352506 0.033943538 -0.005419065 0.0010531284 -0.013249636
-0.0022236188 0.012619157 0.014877367 0.0074565155 0.0118453745 0.009909522 -0.00867696 0.0123634795
-0.010564473 -0.01438391 -0.0067239036 0.0023823457 -0.0052226433 -0.012160024 0.01285135 -0.0118099125
-0.0007139519 0.007985154 0.024191735 0.0002960112 0.0032872474 -0.0044539627 -0.02081649 0.015432941
0.006307919 -0.00019527639 0.014864367 0.0037921162 -0.0016918002 0.006051551 -0.0010928642 -0.0006897504

decoder.0.bias f4 [64]
00000000: 0442 d1bb 207b 50bc ef11 7b3c 6667 15ba
00000010: c8c7 1fbc 0474 ef3c e287 683c 4ef5 95bc
00000020: 90fc 823c 87b6 2cbb c1fa e6bc 52ae 1abc
00000030: 514a bfbc 8f61 0a3d 077c 1a3d 8b9e 82bc
00000040: bdf4 9c3c dd37 173d ec75 6ebc 85f9 54bb
00000050: 8e53 323d e5d6 983c 2dd2 cb3b a8c1 f33c
00000060: 53bf da3c 6ca6 843b 631a d8bb 9e04 b53c
00000070: 2c42 0a3c 0930 fe3b 07ca 7abd c241 8c3c
00000080: 5bf3 bc3c 833b 0d3d 66d7 f13c 30c5 0d3d
00000090: a1cc 663c bf22 ec3b f1a7 b33c c289 fc3c
000000a0: 9e79 1b3c 23c4 5f3d 631f 863c 522a 413c
000000b0: 574d 4abd e6a8 693c f45f 63bc 85bf 3d3d
000000c0: 6a65 d6bc fa42 013d f568 123d 58fe 0dbc
000000d0: 5867 833c 4314 9e3c a0cc 933c fa07 c43c
000000e0: 04e8 b0bc 568e 0a3a 19ff 003d 2182 313b
000000f0: 683b 173d 4520 2e3c dc12 2fbd 9f65 9ab9
-0.0063860435 -0.012724668 0.0153241 -0.00056993065 -0.009752221 0.029230125 0.014192553 -0.018305447
0.015989572 -0.0026353912 -0.02819574 -0.009440975 -0.023350867 0.033784445 0.037715938 -0.01594474
0.019159669 0.03691851 -0.014554482 -0.0032497358 0.043536715 0.018657157 0.0062201233 0.029755428
0.026702559 0.0040481593 -0.0065949424 0.022096928 0.008438628 0.007757191 -0.061227825 0.0171212
0.02306526 0.034480583 0.029521655 0.03461188 0.014086873 0.0072062905 0.021930667 0.030827407
0.009489445 0.05463041 0.016372388 0.011789875 -0.049390163 0.01426146 -0.0138778575 0.046325225
-0.026171405 0.031558014 0.035744626 -0.008666597 0.01604049 0.01929677 0.018041909 0.023929585
-0.021595009 0.0005285492 0.03149328 0.002708562 0.03692189 0.010627811 -0.042742595 -0.00029448883

decoder.2.weight f4 [64, 32, 3, 3]
00000000: e455 0fbc 58a0 3dbd 4194 d4bc bafd a3ba
00000010: f8b4 3cbc 60cf adba 0805 923c 2fd9 0ebd
00000020: 2289 993b 7d73 e3bc 18ec b2a4 3a22 15bd
00000030: 7518 6025 a4c6 f6ba 797e 4823 9151 a6bc
00000040: 3f42 c3a2 1200 e8bc 0d34 9335 b276 223a
00000050: a3c8 ffb4 7f3e 493b 5f14 633d ae2f fd3b
00000060: a729 d1b5 196b 5f39 0826 46b6 8583 2c3d
00000070: b8cf f73c fe2b cc3c f796 933c 341a 85bb
00000080: df22 093d 972b 04bb dd29 c7bb f0c1 893c
00000090: c81f 1cbb 7ebd 80a4 e355 bb3a db06 66bb
000000a0: 4822 8b3d ea3f c8ba 50ac 9d3b d851 3d25
000000b0: 5c5d 8b3b e409 57bc 5777 7dbd 2d5d f0bc
000000c0: 61b5 2cbd e600 03bd c2d4 e7bc 2dbd ea3c
000000d0: 7e4b 203d c2f8 123c 5152 fd3b 88ba e53c
000000e0: 56f7 0f3d 0d99 d03c 0444 683d 71bc 773d
000000f0: 2a52 0ebd 6436 793c 9bb7 083c ff9b b8bc
00000100: 1a7b 3b3d b043 073d 0840 1b3d 3c41 1e3d
00000110: 0053 6e3d 13af 7b3c 0d59 953c b01a fd3c
00000120: b0ac a4bb 90d6 ce3b 6712 853a d7d8 703d
00000130: 1a01 2e3c 7944 8d3d 1c24 ca3b 42d5 623c
00000140: 713e ba3c 2bfd ec3c cbb7 f33c de11 083d
00000150: 892a 5b3d 196c 333d 486c 623d 0b3e 12bd
00000160: 19ce d2bc d24a a2bc 1810 b3bb 5b3f 94bb
00000170: e17e a03c ecf3 2ebc 9ce3 77bd 777d 5f3c
00000180: 4613 14bc b085 f7bb 6000 e63c f701 f3bc
00000190: c398 35bd 793f 41bd 10ed b0bd 5230 9ba3
000001a0: cf4f ecbc 06e2 64bc e95e 05bd 2651 00bd
000001b0: 2930 313c 629c 103d 8921 763c d68a 263d
000001c0: a2cb b53d 36a0 433d 3e27 8bbc 0ada 7bbb
000001d0: ef97 7b3c eec9 3d3d 3f9d 423b 02a0 bb3c
000001e0: fc5c 8e3d aa3b 493d 6185 5b3d ad63 0d3d
000001f0: 32a9 773b 05c3 de3c f933 30bd 6de5 fabc
00000200: eeac 4cbd 9e29 01bd d0d5 90bc 69f8 27bd
00000210: e8e8 bcbc 11bd f4ba 00d0 1bbd 8748 f1bb
00000220: 7798 05bd 9447 f8bc 7f53 0d3a 61b2 f2bc
00000230: dc9a baba ae8d c13a 1364 16bc 1b49 62bc
00000240: 049b 9ebc 4713 64bc 66cc 95bb 3f83 b6bc
00000250: 8554 3cbc 37db 823b ecc2 d7bb 4c9b 243b
00000260: 921d 933c 379d 4c3a 39ed b83b fd9d 753c
00000270: e17b 633d 7766 5d3d 7fed 423d 0552 5dbc
00000280: b3fe 8cbc f74e 493c 69f7 bdbb edc7 afbc
00000290: be3c 34bc d99e 4dbc c1da 2fbd 474b 90bc
000002a0: b369 a1bc 1289 e33c b951 ccbb b87d 51bc
000002b0: c8c8 dabc e951 3b3c cfa6 ebba 9471 883d
000002c0: c897 4fb7 ead4 cfbc cac2 6f3b 9bd7 7f3c
000002d0: 4143 eeb7 c69a 663c fb26 21b8 89d5 9da9
000002e0: b55b 532c d74d beb8 83b8 4eb7 5f8b cfbb
000002f0: c463 9ab8 1692 e1bc ac63 453d c9f4 743b
00000300: 0211 42bc c270 af3d f467 4a3d 6ac4 0ebd
00000310: 49e5 04bb 6cad 11bc 5812 8c3c a21f fe3c
00000320: 2e7b 91bc 6d5f 373d 4414 733d 6a2c 423d
00000330: 20b3 d5bc 070f bf3c 2d1f f73b 1bc0 a8ba
00000340: 3bcf 4c3c ea71 c2ba 397b 043d 2290 9a3d
00000350: f41f b93c 4bfa 7fba a9d0 203c f251 f23b
00000360: 41e1 91bc 0f9d caba 70d2 55bd 1198 09a4
00000370: 0c2e 4aa4 658c 6124 dcf2 e53c 7075 a53a
00000380: 17b2 04bd 2518 90a5 2958 62bd 09f8 b9a4
00000390: e916 dfa5 36a9 9725 a307 b2a4 e5fa 8ca5
000003a0: f50d 4cbd 0c0d a224 4dc0 623d 364d 5c3d
000003b0: 6184 b63c 0801 083d e800 7d3d d511 053d
000003c0: 75cb fdbc fea1 353b 8a5f 78bc d502 8b39
000003d0: 5f8a 583b c53e 413b afbc 88bb 7503 8f3c
000003e0: 9ebd 063d ff14 533c 2f41 64bc c95d 0b3d
000003f0: d787 ea3a c70b 823c 17c5 a93c 1f35 503d
-0.008748505 -0.046295494 -0.0259496 -0.001251153 -0.011517756 -0.0013260655 0.017824665 -0.03487509
0.004685537 -0.02776503 -7.759515e-17 -0.036409594 1.9437189e-16 -0.001882751 1.0868803e-17 -0.020302566
-5.2924997e-18 -0.028320346 1.0967502e-06 0.00061974966 -4.7643434e-07 0.0030707417 0.05543935 0.007726631
-1.5583836e-06 0.00021306834 -2.9526436e-06 0.042117614 0.030250415 0.02492332 0.018016322 -0.0040619615
0.03348052 -0.0020167583 -0.0060779885 0.01681611 -0.0023822654 -5.5832163e-17 0.0014292564 -0.00350993
0.06793648 -0.0015277837 0.004811801 1.6420867e-16 0.0042530727 -0.013124917 -0.06188139 -0.029341305
-0.042165164 -0.03198328 -0.028299693 0.02865466 0.039134495 0.008970441 0.00773076 0.028043047
0.035147987 0.025463605 0.05670549 0.060482446 -0.034746327 0.015210722 0.008344556 -0.022535322
0.045771696 0.033023536 0.03790286 0.03863643 0.058184624 0.015361565 0.01823094 0.030896515
-0.0050254688 0.006312199 0.0010152579 0.058800545 0.01062038 0.06897826 0.0061688554 0.01384479
0.022734853 0.028929314 0.029750725 0.033220164 0.05350736 0.04380426 0.055279046 -0.0357037
-0.02573304 -0.019811068 -0.005464565 -0.004524154 0.01959175 -0.010678273 -0.0605198 0.013640753
-0.009037798 -0.0075537786 0.02807635 -0.029664023 -0.044335138 -0.047179673 -0.08638966 -1.6825598e-17
-0.02884665 -0.013969904 -0.032561217 -0.03132739 0.010814705 0.03530539 0.015022644 0.040659748
0.088767305 0.04776021 -0.016986486 -0.0038429522 0.015356048 0.046335153 0.0029695777 0.022903446
0.06951329 0.049129166 0.053593997 0.034518886 0.0037790057 0.027192602 -0.043018315 -0.030626977
-0.049969606 -0.03153383 -0.017680079 -0.041008387 -0.023060277 -0.0018672069 -0.03804016 -0.0073633823
-0.032616105 -0.030307569 0.0005391165 -0.029626073 -0.0014236826 0.0014766955 -0.009179133 -0.013811375
-0.019361027 -0.013920612 -0.0045714853 -0.02227938 -0.01149476 0.0039934176 -0.006584516 0.0025116978
0.017958436 0.0007805409 0.0056435135 0.014991281 0.055538062 0.054052796 0.047589775 -0.0135083245
-0.017211294 0.012286893 -0.005797316 -0.021457637 -0.01100081 -0.012550079 -0.04293323 -0.01761402
-0.019703722 0.027775321 -0.006235328 -0.012786321 -0.026707068 0.011433103 -0.001797879 0.06662288
-1.2373501e-05 -0.02537008 0.003658461 0.015615369 -2.8403128e-05 0.014074987 -3.8421695e-05 -7.009243e-14
3.003581e-12 -9.074405e-05 -1.2321517e-05 -0.006333753 -7.361875e-05 -0.02753548 0.048190758 0.0037377349
-0.011844875 0.08566429 0.049415544 -0.034855284 -0.0020278266 -0.008891445 0.01709859 0.031020943
-0.017758932 0.04476874 0.0593455 0.047405638 -0.02608639 0.023322595 0.0075415582 -0.0012874635
0.0125005795 -0.0014834974 0.032344077 0.075470224 0.022598244 -0.00097647746 0.009815373 0.0073950225
-0.017807605 -0.0015458184 -0.052202642 -2.9835945e-17 -4.384077e-17 4.8908017e-17 0.028069906 0.00126235
-0.032396402 -2.499638e-16 -0.055259857 -8.065115e-17 -3.8699858e-16 2.6308986e-16 -7.720813e-17 -2.4456141e-16
-0.049817998 7.02784e-17 0.055359174 0.05378457 0.02227992 0.03320411 0.061768442 0.03248771
-0.030980805 0.0027714963 -0.015159497 0.00026514256 0.003304146 0.0029486876 -0.0041728835 0.017457703
0.032895677 0.012883424 -0.013931557 0.034024987 0.0017893267 0.015874757 0.020723863 0.05083191

decoder.2.bias f4 [32]
00000000: 8812 89bc 2913 a8bc da92 9bbc 150c b73d
00000010: f1c6 d9bb 0781 f03c 8c66 143d 87e5 c4bc
00000020: 0bb0 71bc d0fb 213d 3ff4 843c 3571 1cbc
00000030: d747 0d3e ccb5 753e b262 453d 5a2c 2f3c
00000040: d631 33bc 3bf6 c53c ad11 253c 30c4 683b
00000050: 0ca6 67bc de4a 123d 7805 00bc 529f 1b3c
00000060: d9af 59bc cc17 b1bd 693a 283d 53af c13d
00000070: 47ce 0d3d 489f b63c 2e57 8fbc 9052 353d
-0.01673247 -0.020516949 -0.018990923 0.08937851 -0.00664603 0.0293584 0.03623061 -0.024035228
-0.014751445 0.039546788 0.016229747 -0.009548475 0.13796936 0.23995131 0.048189826 0.010691727
-0.010937175 0.024165263 0.010075015 0.0035517327 -0.01413871 0.03571593 -0.007813804 0.009498434
-0.013286554 -0.08647117 0.04107133 0.094572686 0.03462055 0.022292748 -0.017497625 0.04426819
