Autoencoder Helen Dataset/autoencoder_model_full2.pth (torch, 785318 bytes, 16 tensors)

encoder.0.weight f4 [16, 3, 3, 3]
00000000: 6758 0500 c566 0500 be5d 0500 0a5b 0500
00000010: 915a 0500 4058 0500 6e59 0500 325c 0500
00000020: b45d 0500 2960 0500 b86e 0580 b35d 0580
00000030: 8067 0500 8968 0580 8357 0580 c06d 0500
00000040: 5968 0580 6e5d 0580 106d 0500 b657 0580
00000050: f063 0580 1d70 0500 c85f 0580 cc68 0580
00000060: 676d 0500 7863 0580 f159 0580 21c3 a03d
00000070: 1e6e 9e3d 210a bd3d 9824 ad3d bb09 a83d
00000080: 0a9b d63d 1169 113d 011f 023e e0ef dc3d
00000090: 8f5f b3bc 1772 63bd 324d ca3c c4db a4bd
000000a0: a353 7e3c 520c 59bd 39db 82bd 0300 6cbc
000000b0: 16d3 a2bc ce3b 2a3e a399 453e f14a 663e
000000c0: c4b5 213e de0c 3e3e 1ac6 633e 139c 003e
000000d0: 4a89 3e3e 6ccb 6d3e 9463 0500 1b6e 0500
000000e0: 8661 0500 5062 0500 215c 0500 bb5b 0500
000000f0: 1466 0500 7969 0500 015c 0500 5758 0580
00000100: ba59 0580 ed6e 0580 1c58 0580 5875 0580
00000110: 0d6e 0580 8776 0580 3e76 0580 4e67 0580
00000120: 555c 0500 cd72 0500 2d6f 0500 107e 0580
00000130: 4578 0500 1e59 0500 2276 0580 2c77 0500
00000140: 9b62 0500 5388 a03e dcb0 b83e cde2 b43e
00000150: 3f63 bf3e 51ef d33e a9f7 cf3e 9fb7 b93e
00000160: 5bad d43e fbc6 d03e a0cd b43d 1dd2 f13d
00000170: 0863 e33d a4f0 f33d a171 1a3e 91a6 0c3e
00000180: 0ea4 093e cf01 223e 5c33 1b3e 2797 dcbd
00000190: 4a07 cebd 3490 cfbd 7a83 c6bd dfe7 b3bd
000001a0: cf9e b9bd f51d a8bd f5bc 92bd 62f2 98bd
000001b0: df70 a7bc f9f5 c5bd 78f9 533d 904d ba3d
000001c0: 67bd b1bb 6c71 93bd 9d69 1e3a 3b32 b4bd
000001d0: 0d91 543d 7417 0f3d 11bc 413e 3143 ff3c
000001e0: 5641 dc3d d407 413d da46 bc3d 4252 3a3e
000001f0: 2fa5 e33d d936 0d3e 8b64 213c 5cc2 2dbe
00000200: 9eb4 11be 7ecd 95bd 4c19 13be 42ef 10be
00000210: 6d8f 0abe b51f fabd 3c8b c7bd 65b0 2f3d
00000220: 51b0 e83d 8dab bf3d 95ff 673d d87d 9f3d
00000230: 5704 c93d 4a56 a83d d2d5 c43d 171e b03d
00000240: b04a 5dbc 1d00 2cbc 184e a23c 8131 5abd
00000250: cba1 213d dc13 303c cf8e 043c 1e13 e83c
00000260: 522c 813d d25d 39bc 163d 213d 73f7 773c
00000270: 45a8 38bd 06e8 fbbc a051 363d 5e4c 7e3c
00000280: 88e1 283d d368 1bbd 8560 0580 9863 0580
00000290: cb60 0580 f15c 0580 365c 0580 2c60 0580
000002a0: cb5b 0580 c960 0580 3f57 0580 fb60 0580
000002b0: 1263 0580 925e 0580 7e5f 0580 eb58 0580
000002c0: 2a5d 0580 4464 0580 b558 0580 1959 0580
000002d0: 8057 0580 bd58 0580 255b 0580 695c 0580
000002e0: 6358 0580 8760 0580 6961 0580 cb5b 0580
000002f0: 0a62 0580 4a15 be3c 66ba 003d 6a20 9e3d
00000300: a6c9 a8bc 196d 2b3d 6424 0a3d 519b 173d
00000310: 0ed5 9f3d 40bf 6b3d 558a 113e aa07 3a3e
00000320: 277d 2c3e d6ae 223e f76e 143e 0857 523e
00000330: 51d0 193e 1c9b 6e3e a21e 323e 8aed 183e
00000340: 608f 4a3e 7720 523e eb4a 033e b50e 543e
00000350: e7a3 5c3e 8318 2c3e 0559 813e 2f7d 6e3e
00000360: 58f4 713e b600 993e 5677 943e f7a2 a03e
00000370: 509d c93e ff49 bf3e 4685 a53e d35e c93e
00000380: 5579 c33e e5c4 ae3e d744 d73e 1352 cc3e
00000390: 7714 dc3e 18ba fa3e 3da3 f33e f2f0 de3e
000003a0: 1f68 013f db4e fc3e 2ae7 f93d 4ec1 3d3e
000003b0: 6d88 2c3e ca8b 3b3e 2eb0 713e 68b9 6a3e
000003c0: 3e15 453e feab 813e a52e 7b3e 7f16 983e
000003d0: 1929 ae3e 1c1a a83e 3eca 9f3e 1487 bd3e
000003e0: b318 a93e 3b81 953e dfe5 b93e effb b03e
000003f0: f55a 24be 61bf ffbd 7f68 02be dcbb 16be
4.9089e-40 4.96044e-40 4.92806e-40 4.91836e-40 4.91667e-40 4.90836e-40 4.91259e-40 4.92251e-40
4.92792e-40 4.93673e-40 -4.98896e-40 -4.9279e-40 4.96306e-40 -4.96678e-40 -4.90571e-40 4.98548e-40
-4.9661e-40 -4.92694e-40 4.98302e-40 -4.90642e-40 -4.95028e-40 4.99396e-40 -4.93537e-40 -4.96772e-40
4.98424e-40 -4.9486e-40 -4.91442e-40 0.07849718 0.07735847 0.092304476 0.08454245 0.08204981
0.1047879 0.03550059 0.1270714 0.1078794 -0.021896152 -0.055528726 0.024695013 -0.080497295
0.01552287 -0.052990265 -0.0638947 -0.0144043 -0.019876044 0.16624376 0.19296889 0.22489525
0.15791994 0.18559596 0.22243538 0.12559538 0.18607059 0.2322213 4.949e-40 4.98676e-40
4.94162e-40 4.94445e-40 4.92227e-40 4.92084e-40 4.95796e-40 4.97014e-40 4.92182e-40 -4.90868e-40
-4.91365e-40 -4.9897e-40 -4.90785e-40 -5.01272e-40 -4.98656e-40 -5.01697e-40 -5.01595e-40 -4.96236e-40
4.923e-40 5.0036e-40 4.9906e-40 -5.044e-40 5.02322e-40 4.91147e-40 -5.01556e-40 5.01928e-40
4.9455e-40 0.31354007 0.36072433 0.35329285 0.37380406 0.4139352 0.40618637 0.36272904
0.4153851 0.4077681 0.08828282 0.11807654 0.11102873 0.11911133 0.15082408 0.13735415
0.13441488 0.15821002 0.15156311 -0.107710175 -0.10059984 -0.101349264 -0.09693046 -0.0878446
-0.090634935 -0.08208839 -0.07164947 -0.07468106 -0.020439563 -0.09666056 0.051751584 0.09096825
-0.00542419 -0.07199368 0.0006042959 -0.08798643 0.051896144 0.034934476 0.18919398 0.031159969
0.10754649 0.047126606 0.09193201 0.18195441 0.11115491 0.13790454 0.0098506315 -0.16968673
-0.14229056 -0.07314585 -0.14365119 -0.1415377 -0.13531275 -0.12213079 -0.09743354 0.042892832
0.11361755 0.093588926 0.056640226 0.07787675 0.09815281 0.08219583 0.096110955 0.08599489
-0.013506576 -0.010498074 0.019812629 -0.053269867 0.03946094 0.010746922 0.008090689 0.028329428
0.063072816 -0.011313872 0.039364897 0.01513468 -0.04508235 -0.030750286 0.044511437 0.015521137
0.04123071 -0.037941765 -4.93802e-40 -4.94905e-40 -4.939e-40 -4.92519e-40 -4.92257e-40 -4.93677e-40
-4.92107e-40 -4.93897e-40 -4.90475e-40 -4.93968e-40 -4.94717e-40 -4.93103e-40 -4.93434e-40 -4.91075e-40
-4.92598e-40 -4.95146e-40 -4.91e-40 -4.9114e-40 -4.90567e-40 -4.91011e-40 -4.91874e-40 -4.92328e-40
-4.90885e-40 -4.93805e-40 -4.94122e-40 -4.92107e-40 -4.94347e-40 0.02320351 0.031427763 0.07721026
-0.020603966 0.04185209 0.03372611 0.037013356 0.07804309 0.057555437 0.14212926 0.18166986
0.16844617 0.15887007 0.14495455 0.20541012 0.15020873 0.23301357 0.17394498 0.14934364
0.19781256 0.20520197 0.12821548 0.20708735 0.21546899 0.16806225 0.2526323 0.23289941
0.23628366 0.29883355 0.28997296 0.31374332 0.39377832 0.37361142 0.32328242 0.39330158
0.38178506 0.34134594 0.42044708 0.39906368 0.42984363 0.48970103 0.47585478 0.43543202
0.505495 0.49278912 0.12202294 0.18530771 0.16848917 0.18315044 0.23602363 0.2292229
0.19246385 0.25326532 0.24529512 0.29704663 0.3401573 0.3283242 0.31208986 0.3701712
0.33026657 0.29200158 0.3630819 0.3456721 -0.16050322 -0.124876745 -0.12735175 -0.147201

encoder.0.bias f4 [16]
00000000: 105f 0500 46cb fdbd 265c 0500 c41e 9d3d
00000010: 1c39 1e3f a817 01bf 1559 0500 01d2 9bbd
00000020: 9313 dcbd 9efb 1d3e f6fc 253f f5bb 99bd
00000030: 124b 6aad ce1a 143f b5f7 253f 2009 843e
4.9328e-40 -0.12392287 4.92234e-40 0.07671884 0.6180589 -0.5042672 4.91134e-40 -0.076084144
-0.10745921 0.15428016 0.6483911 -0.07506553 -1.3318029e-11 0.578534 0.64831096 0.25788212

encoder.2.weight f4 [32, 16, 3, 3]
00000000: 445a 0500 d8b4 0680 ef6d 0500 cccc 0580
00000010: c27d 0580 5694 0500 d563 0500 1d64 0580
00000020: 5e70 0580 0e18 0600 fb81 0500 f392 0500
00000030: ab5b 0500 5071 0500 5a81 0500 8792 0500
00000040: 337a 0500 076b 0500 b37d 0600 6045 0680
00000050: 0096 0680 fd68 0600 ffee 0580 f273 0580
00000060: 9eda 0580 4fc0 0680 c0a1 0600 7757 0580
00000070: 6a64 0580 524b 0600 6367 0500 776a 0500
00000080: 3268 0500 086c 0500 326a 0500 4761 0500
00000090: e691 0580 b465 0580 0f85 0580 117e 0500
000000a0: 73b0 0500 7d6a 0500 e2aa 0500 636e 0500
000000b0: 7bb5 0580 76ad 0580 13bd 0500 12b3 0500
000000c0: 750f 0680 970d 0600 999e 0500 18cc 0600
000000d0: 73b2 0500 17ed 0500 4c92 0600 5967 0600
000000e0: 1e4d 0600 de78 0600 0230 0680 2ed5 0500
000000f0: 60b3 0600 ab29 0680 1646 0680 2a5f 0580
00000100: 4e69 0580 9c61 0580 d462 0580 f96d 0580
00000110: e34b 0600 5a67 0500 2e58 0500 e85e 0500
00000120: 8263 0500 415e 0500 d664 0500 005c 0500
00000130: c957 0500 b561 0500 ae63 0500 d95d 0500
00000140: 5161 0500 d75d 0580 7460 0580 4175 0580
00000150: a774 0580 326d 0580 0d7a 0580 b862 0580
00000160: 706c 0580 aa60 0580 e479 0500 086d 0500
00000170: c16a 0500 407e 0500 a2cb 0580 abd0 0680
00000180: b563 0580 c65f 0580 6f74 0580 3860 0500
00000190: 7c5b 0500 0a60 0500 8a67 0680 82b7 0580
000001a0: 6265 0580 865b 0580 9a61 0580 bc5a 0580
000001b0: c9de 0580 8f2d 0680 1615 0680 e22b 0680
000001c0: e099 0680 a595 0680 d0ac 0500 f9c9 0580
000001d0: 0c21 0680 2998 0580 9910 0600 0e91 0500
000001e0: 7872 0500 e56f 0500 0862 0500 1485 0500
000001f0: 995c 0500 ac81 0500 f9b4 0580 b341 0680
00000200: 07fe 0580 406b 0580 1f7a 0580 4adc 0680
00000210: 18c7 0580 055e 0580 7dae 0580 fafe 0500
00000220: aa96 0600 6f77 0680 856f 0500 5687 0680
00000230: 8689 0600 a18c 0500 0d69 0680 763a 0600
00000240: 21d4 0500 fce2 0500 3760 0500 0dc1 0500
00000250: c004 0600 d297 0500 cdcc 0680 b61e 0680
00000260: 9ab8 0500 d746 7d2c ad06 412c 4f6f 252c
00000270: 92c2 872c 1d78 502c b584 302c c6ac 8c2c
00000280: c457 572c 9596 342c 3d25 0680 b8c1 0580
00000290: 42fd 0500 db4c 0600 91fc 0580 5178 0680
000002a0: 94f3 0500 89db 0600 6dfc 0500 7d4a 3fb6
000002b0: 57f4 33b6 1ef3 2cb6 0d70 42b6 1fab 37b6
000002c0: 2973 30b6 3301 42b6 5762 36b6 0f6c 2fb6
000002d0: e350 60a6 0083 46a6 a259 3ca6 0fd2 7ba6
000002e0: e7c7 64a6 eb31 5ca6 67e8 77a6 0400 61a6
000002f0: dfc8 58a6 d699 0f22 c3f3 9222 6b8c ad22
00000300: 2fdf 6022 edad a722 127e b822 8373 3d22
00000310: e797 a122 2b60 b822 cc67 0500 9d65 0500
00000320: 0958 0580 7361 0500 da6a 0500 2458 0580
00000330: 1480 0500 7f73 0500 535a 0580 0eb7 21b5
00000340: a9b6 15b5 78a9 0fb5 3f60 25b5 fc93 19b5
00000350: 19cf 12b5 0e24 26b5 1d86 19b5 4fa8 12b5
00000360: c8ec 48b9 2c95 48b9 ea08 49b9 e220 48b9
00000370: dddd 49b9 da10 4bb9 ca1b 47b9 2962 47b9
00000380: 1690 49b9 1ba7 27b3 485d 15b3 92af 0bb3
00000390: 61dd 2eb3 9a31 1cb3 2680 11b3 ed33 30b3
000003a0: f5b7 1cb3 e9b2 11b3 c226 142d 3855 092d
000003b0: 334a 072d c9c8 1b2d 5692 112d 6d55 0f2d
000003c0: 7704 1e2d 1304 142d e08a 112d 1da3 84b7
000003d0: a572 7fb7 8bbe 79b7 7f3d 86b7 5fe8 81b7
000003e0: a7c8 7db7 572a 86b7 440c 81b7 fb6f 7cb7
000003f0: 5bfc 0c88 68d6 0b88 94be 0b88 698b 0d88
4.91559e-40 -6.15887e-40 4.98614e-40 -5.32645e-40 -5.04291e-40 5.1239e-40 4.9499e-40 -4.95091e-40
-4.99487e-40 5.59642e-40 5.05806e-40 5.11893e-40 4.92062e-40 4.99826e-40 5.0558e-40 5.11742e-40
5.03014e-40 4.97572e-40 5.96105e-40 -5.759e-40 -6.04823e-40 5.88676e-40 -5.44913e-40 -5.00771e-40
-5.37603e-40 -6.2e-40 6.09038e-40 -4.90554e-40 -4.95199e-40 5.78033e-40 4.96266e-40 4.9737e-40
4.96556e-40 4.97932e-40 4.97273e-40 4.94074e-40 -5.11516e-40 -4.95662e-40 -5.0691e-40 5.04402e-40
5.22476e-40 4.97378e-40 5.20479e-40 4.98777e-40 -5.2428e-40 -5.21404e-40 5.27005e-40 5.23416e-40
-5.56558e-40 5.55888e-40 5.16072e-40 6.24228e-40 5.23193e-40 5.44229e-40 6.03494e-40 5.88087e-40
5.78677e-40 5.94372e-40 -5.68235e-40 5.35652e-40 6.1536e-40 -5.6596e-40 -5.76155e-40 -4.93316e-40
-4.96954e-40 -4.94193e-40 -4.9463e-40 -4.98628e-40 5.78236e-40 4.96253e-40 4.9081e-40 4.93223e-40
4.94874e-40 4.9299e-40 4.9535e-40 4.92181e-40 4.90669e-40 4.94228e-40 4.94936e-40 4.92844e-40
4.94088e-40 -4.92841e-40 -4.93778e-40 -5.0124e-40 -5.01024e-40 -4.9835e-40 -5.02961e-40 -4.94591e-40
-4.98078e-40 -4.93854e-40 5.02904e-40 4.9829e-40 4.97474e-40 5.04467e-40 -5.32227e-40 -6.25869e-40
-4.94946e-40 -4.93535e-40 -5.00946e-40 4.93694e-40 4.91996e-40 4.9363e-40 -5.88156e-40 -5.25008e-40
-4.95547e-40 -4.9201e-40 -4.9419e-40 -4.91727e-40 -5.39098e-40 -5.67356e-40 -5.58577e-40 -5.66755e-40
-6.06213e-40 -6.04695e-40 5.21171e-40 -5.31632e-40 -5.62868e-40 -5.13762e-40 5.56967e-40 5.11213e-40
5.00241e-40 4.99318e-40 4.94344e-40 5.06917e-40 4.92395e-40 5.05695e-40 -5.24098e-40 -5.74581e-40
-5.50305e-40 -4.97652e-40 -5.02986e-40 -6.30038e-40 -5.30599e-40 -4.92905e-40 -5.21772e-40 5.50646e-40
6.05061e-40 -5.93858e-40 4.99183e-40 -5.99562e-40 6.00347e-40 5.09626e-40 -5.88698e-40 5.71985e-40
5.35275e-40 5.40604e-40 4.93693e-40 5.28431e-40 5.52717e-40 5.1364e-40 -6.24482e-40 -5.6203e-40
5.254e-40 3.5992786e-12 2.7430655e-12 2.35097e-12 3.8585324e-12 2.9625254e-12 2.5084771e-12 3.998221e-12
3.0602057e-12 2.5663128e-12 -5.64372e-40 -5.2867e-40 5.50029e-40 5.78584e-40 -5.49781e-40 -5.94174e-40
5.46557e-40 6.29767e-40 5.49731e-40 -2.8504576e-06 -2.6815303e-06 -2.577151e-06 -2.8973475e-06 -2.736873e-06
-2.6293076e-06 -2.890895e-06 -2.7177355e-06 -2.613993e-06 -7.7825234e-16 -6.887259e-16 -6.534708e-16 -8.73678e-16
-7.937431e-16 -7.6395484e-16 -8.6010304e-16 -7.806258e-16 -7.5212285e-16 1.9461554e-18 3.983147e-18 4.7040417e-18
3.0475813e-18 4.544959e-18 5.0006782e-18 2.5675428e-18 4.379997e-18 4.997512e-18 4.96413e-40 4.9563e-40
-4.90759e-40 4.94136e-40 4.97509e-40 -4.90796e-40 5.05123e-40 5.0061e-40 -4.9158e-40 -6.0243553e-07
-5.577263e-07 -5.351826e-07 -6.1607346e-07 -5.721229e-07 -5.4690605e-07 -6.1892285e-07 -5.71921e-07 -5.463416e-07
-0.00019161694 -0.00019129057 -0.00019172175 -0.00019085736 -0.00019251504 -0.00019365866 -0.00018988471 -0.00019014686
-0.0001922253 -3.90347e-08 -3.4776605e-08 -3.252314e-08 -4.0713875e-08 -3.6366693e-08 -3.3876994e-08 -4.102542e-08
-3.648889e-08 -3.392316e-08 8.421432e-12 7.806471e-12 7.690337e-12 8.855313e-12 8.274789e-12 8.147577e-12
8.982252e-12 8.413731e-12 8.273132e-12 -1.5811582e-05 -1.5225877e-05 -1.4885921e-05 -1.6002681e-05 -1.5486205e-05
-1.5126693e-05 -1.599376e-05 -1.538371e-05 -1.5046443e-05 -4.242636e-34 -4.2080824e-34 -4.2052814e-34 -4.259452e-34

encoder.2.bias f4 [32]
00000000: a558 0580 f8ff c82c bc78 7f3e 7ba7 4a38
00000010: 2308 193d 303f 89bc 7359 0500 50cf cc38
00000020: ee68 7e3e 7aa7 853e d789 1b3e 1c5a 7ebc
00000030: 8962 0500 195f 0580 585f 0500 4e28 f6bd
00000040: 2022 5d3e 0161 0500 51b9 303c 582a ce3c
00000050: f22b 4f3e ef0e bfbb e457 97bc 1d64 0500
00000060: b60c e43c ac5e 0500 d15f 0580 b961 b1bc
00000070: d411 cfbc 7ce1 9abc a77f 88bc 8022 6dbc
-4.90977e-40 5.71276e-12 0.249484 4.831653e-05 0.037361275 -0.016753763 4.91266e-40 9.766093e-05
0.24844715 0.26104337 0.151893 -0.015524413 4.94525e-40 -4.93292e-40 4.9338e-40 -0.12019406
0.21595049 4.93976e-40 0.01078637 0.025166675 0.20231608 -0.0058306376 -0.018474527 4.95091e-40
0.027838092 4.9314e-40 -4.9355e-40 -0.021653043 -0.025277056 -0.018906347 -0.016662432 -0.0144735575

encoder.4.weight f4 [64, 32, 3, 3]
00000000: 1ef5 0580 e8b5 0600 14bb 0500 6d8b 0580
00000010: ff04 0600 6492 0600 178b 0300 6885 0380
00000020: bcab 0500 df70 8323 9638 8ba3 d4ac a5a3
00000030: a1ca 6123 300d 64a3 c1f7 9ca2 366a 20a3
00000040: 0bec bfa1 b5d5 3c23 d721 483d f175 973d
00000050: 358f ae3d 1c60 653d 3b2a a73d 1e43 b93d
00000060: 1050 713d ebc9 a93d 3355 bd3d 3d0a b5bb
00000070: 5dad cf3b 1b83 5fbb 995a 5ebc e09c 823b
00000080: 213b 5239 9d11 81bc 4e96 823b 3f4e a23b
00000090: 84b7 05ba 8def b33b c81b 863b d343 9ebb
000000a0: e6dd 283b 8de3 383c f69b 25bc 01c4 b0bb
000000b0: c874 053c 8a12 e5bc 1613 c1bc 3ef5 7fbc
000000c0: 281b 5ebd b4ed 44bd 3cd1 a0bc ec4f a5bd
000000d0: 287d 9fbd a223 16bd cf7c 0600 7b2b 0600
000000e0: 6998 0600 48c4 0500 7a1b 0680 83e2 0500
000000f0: 5558 0500 27bd 0580 4d7f 0600 0d28 5b25
00000100: cf14 6526 44ee afa5 840f 55a5 3da5 f1a6
00000110: dd37 6326 a616 d326 1914 2b28 b6a0 e0a7
00000120: f930 123c 5c9e 063d aa47 323d 5177 553c
00000130: 7606 1c3d 999e 393d 8668 843c 9f69 2c3d
00000140: 2d0b 453d 29be 2b3c f9ff 093d 15dd 3d3d
00000150: 2781 783c 1709 1e3d 3075 413d c298 9e3c
00000160: 3057 323d 8286 4c3d 200b ee3b e879 bc3c
00000170: d9f6 e83c 6bc4 373c 5f48 ec3c c436 013d
00000180: ad13 4b3c 9092 f43c e118 0a3d 6644 70bb
00000190: 959a c83b 1cbd ae3b 0886 89bc 20c3 c5bb
000001a0: c5e8 ba3b e100 ccbc da9f 67bc f519 423a
000001b0: 1f82 0680 559e 0580 1dc0 0600 c89e 0580
000001c0: 8f01 0680 d0e7 0500 66b3 0600 ffa7 0500
000001d0: 11d7 0600 64d3 0500 0f70 0580 939a 0500
000001e0: b1b4 0500 f6bb 0500 7bb4 0580 1990 0500
000001f0: 6384 0600 85b9 0580 ecf5 0500 6b3b 0600
00000200: 0c84 0680 499c 0680 3982 0580 f837 0600
00000210: b97d 0680 4c5d 0500 a9f4 0580 7d4e 15bb
00000220: aac1 88bb 4f74 68bc 3d3f a839 0fa8 9aba
00000230: 444c f7bb ab24 8cb6 4e49 1ebb ed31 b9bb
00000240: 7d74 6c3c f03b 113d 74eb 303d b44f a03c
00000250: 8354 2d3d 4c8e 3f3d bfd3 b23c a40d 343d
00000260: 7689 473d 088e 0580 759c 0200 4b6b 0600
00000270: 62b9 0580 a5cf 0500 bc04 0680 0990 0500
00000280: 0e32 0300 d40c 0600 9157 6a3c 946c 1d3d
00000290: d4a6 d53c 3208 013b 6e5b 1f3d d346 133d
000002a0: 4c08 40bc cedd 003d f6f4 223d f20d 3b3b
000002b0: d1b2 55ba 97ef ef3b e198 cb3b 7db3 91bb
000002c0: 81d7 db3b 3c33 053c e6fd b9bb 081d 1939
000002d0: 3a71 6d3c 0f43 0c3d f0f9 313d 217c 9d3c
000002e0: 4b7b 213d 622f 3b3d 95e9 bc3c bcdb 2e3d
000002f0: 363c 403d 2b46 283c 5e7e 5c3c 6f51 603c
00000300: 4f79 1d3c ac55 3c3c 3112 623c 76b9 e03b
00000310: 3cc9 ac3b b493 053c 1ea1 093c 0bc0 9c3b
00000320: af8f e13c 8f6a aabc 5241 0ebd 911b 453c
00000330: 155b 46bd b219 99bd 569a 9bbc b99f 0000
00000340: e14c 0600 2edd 0300 679e 0500 d306 0600
00000350: 718c 0180 49c1 0480 8d82 0600 b4c1 0500
00000360: 3701 a1bb bd52 813b ead2 0ebb de58 f8bb
00000370: 36a9 da3b 564d 0d3b b618 21bc e174 d23b
00000380: 765a e33b 78b3 0580 e88f 0580 9002 0600
00000390: c298 0680 c0a1 0580 669d 0500 ac8f 0680
000003a0: 5ac7 0500 8d97 0580 fc5d 0680 d001 0680
000003b0: 4abf 0580 804a 0600 cb02 0600 90b4 0580
000003c0: 7991 0500 408d 0500 9d3c 0600 29be a73b
000003d0: 72d6 453c 3787 f13c 761d 14bd 7d50 ffbc
000003e0: 4997 7f3c 716a a6bd 8978 adbd f149 8cbc
000003f0: c1ea 64bb 1433 fc3a 6450 193c 29db d7bc
-5.47109e-40 6.16269e-40 5.26288e-40 -5.09194e-40 5.52805e-40 6.03528e-40 3.25403e-40 -3.23364e-40
5.20784e-40 1.4250851e-17 -1.5094375e-17 -1.7962531e-17 1.2240183e-17 -1.2362697e-17 -4.2546204e-18 -8.6961084e-18
-1.3005143e-18 1.0236755e-17 0.048860397 0.073955424 0.08523408 0.05599986 0.08162352 0.09046005
0.058914244 0.08290466 0.09244766 -0.005524902 0.006337805 -0.0034105245 -0.013571405 0.003985986
0.00020049188 -0.015755469 0.003985203 0.0049531753 -0.00051008933 0.005491203 0.0040926673 -0.0048298626
0.0025767027 0.011284721 -0.010107985 -0.0053944592 0.008145519 -0.027962942 -0.023568671 -0.015622435
-0.054225117 -0.048078254 -0.01963102 -0.080718845 -0.077875435 -0.036655076 5.95786e-40 5.66611e-40
6.05687e-40 5.2959e-40 -5.6087e-40 5.40435e-40 4.90865e-40 -5.27033e-40 5.9668e-40 1.9008792e-16
7.9478536e-16 -3.0519116e-16 -1.8480062e-16 -1.6767522e-15 7.8832155e-16 1.4647205e-15 9.496765e-15 -6.2346733e-15
0.008922809 0.032865867 0.043525375 0.0130289355 0.0380921 0.045317266 0.016163122 0.042092916
0.04810636 0.010482349 0.03369138 0.04635342 0.015167511 0.038582888 0.0472309 0.01935995
0.04354018 0.049932964 0.00726451 0.023007348 0.028438019 0.011216263 0.028843103 0.03154637
0.012394828 0.029855043 0.033715133 -0.0036661862 0.0061219432 0.005332602 -0.016787544 -0.0060352236
0.005704018 -0.024902763 -0.014137233 0.00074043806 -5.97692e-40 -5.15976e-40 6.1993e-40 -5.16137e-40
-5.51572e-40 5.42336e-40 6.15369e-40 5.19443e-40 6.28164e-40 5.3501e-40 -4.99377e-40 5.14628e-40
5.23997e-40 5.26605e-40 -5.23922e-40 5.1087e-40 5.98504e-40 -5.2573e-40 5.47398e-40 5.72328e-40
-5.98382e-40 -6.07078e-40 -5.05893e-40 5.71091e-40 -5.96114e-40 4.92646e-40 -5.46945e-40 -0.0022782378
-0.004173477 -0.014187886 0.00032090573 -0.0011799353 -0.0075469334 -4.176594e-06 -0.002415258 -0.0056517036
0.01443207 0.03545755 0.043193296 0.019569255 0.042316925 0.046766564 0.021829484 0.04395832
0.048715077 -5.10129e-40 2.39797e-40 5.89502e-40 -5.2568e-40 5.33666e-40 -5.52711e-40 5.10848e-40
2.93463e-40 5.55615e-40 0.014303104 0.038433626 0.026080526 0.0019688723 0.038905554 0.035956215
-0.011720728 0.03146153 0.039784394 0.0028542248 -0.0008151951 0.0073222625 0.006213293 -0.0044464455
0.0067090397 0.008129891 -0.005676019 0.00014602032 0.014492327 0.03424364 0.04345125 0.019224228
0.039424222 0.045699485 0.0230606 0.042690024 0.04693242 0.010270636 0.013457863 0.01369129
0.009611442 0.011495035 0.0137982825 0.006858046 0.0052730124 0.008152891 0.00840023 0.0047836355
0.027534334 -0.020802764 -0.034730263 0.012030498 -0.048426706 -0.07475604 -0.018994492 5.7298e-41
5.78592e-40 3.54851e-40 5.16002e-40 5.53461e-40 -1.42216e-40 -4.3668e-40 5.97846e-40 5.28665e-40
-0.004913475 0.0039466307 -0.0021793195 -0.007578953 0.0066730035 0.0021560988 -0.009832552 0.0064226245
0.006938274 -5.23559e-40 -5.10801e-40 5.51932e-40 -6.05812e-40 -5.17202e-40 5.15641e-40 -6.02553e-40
5.30691e-40 -5.13544e-40 -5.84728e-40 -5.51663e-40 -5.27799e-40 5.77739e-40 5.52015e-40 -5.23951e-40
5.11363e-40 5.09848e-40 5.72757e-40 0.0051191044 0.0120750535 0.02948342 -0.03616091 -0.03116631
0.015600034 -0.08125771 -0.08470256 -0.017125102 -0.0034929963 0.0019241297 0.0093575455 -0.02634962

encoder.4.bias f4 [64]
00000000: 7b50 b63c 1504 3339 2162 dc3a 4906 6ea4
00000010: 5e67 0580 2992 28b9 1988 02b6 1414 283c
00000020: 8c7a 48b5 42f5 9bbd 06ce 453c 115b db3b
00000030: 9700 122c 9eee e43b bcff dab9 4ea5 9a3b
00000040: f308 4db9 8908 083b fe5c b3b8 b52c 35bb
00000050: 901e b2b7 bb08 353c b86f 51bd aaba 68a2
00000060: 6dbd 87ba 9e9f 0fb1 a489 32b8 5aa2 b93c
00000070: b378 763a f655 ae3b 6a8e 37ba 794f 5e3c
00000080: bfaa 1db0 89db 9d3c a9d7 7a3c 4347 67bb
00000090: e6e8 4d3d d164 e13b d6d6 c0b8 9609 22bd
000000a0: fd28 23ba a024 2bb7 b08a 153d 7942 adbb
000000b0: 89c7 9d3c 0755 b539 7241 a03a 27d0 96b8
000000c0: f468 203c faa8 6d3c 40cc 4e3c 378f 07bb
000000d0: 3325 d33c 21b2 b2b8 37d2 193c ed2c 1d3b
000000e0: ca89 a8ab 956e e43a b1e1 50bc ed33 813c
000000f0: 35c0 b13b 3a1b 44b8 d52a 24bb 80b3 253c
0.022255173 0.00017072291 0.0016813913 -5.1613347e-17 -4.96259e-40 -0.00016076177 -1.9450729e-06 0.010258693
-7.4684135e-07 -0.076151386 0.012073046 0.0066942056 2.0748175e-12 0.006986453 -0.00041770737 0.004719413
-0.00019553657 0.002075704 -8.552706e-05 -0.0027645056 -2.1233485e-05 0.011049445 -0.051131934 -3.1540682e-18
-0.0010356136 -2.089997e-09 -4.2566695e-05 0.022660423 0.0009402141 0.005320306 -0.00070021173 0.013568752
-5.735891e-10 0.019269722 0.015310206 -0.0035290278 0.050270937 0.0068784733 -9.19529e-05 -0.039559923
-0.0006224064 -1.0200922e-05 0.036509216 -0.005287465 0.019260185 0.0003458636 0.0012226535 -7.191329e-05
0.009790648 0.014505619 0.012621939 -0.0020684728 0.025774574 -8.5208805e-05 0.009388498 0.0023983077
-1.1975362e-12 0.0017427976 -0.0127491215 0.01577183 0.005424524 -4.67554e-05 -0.0025049944 0.010113597

encoder.6.weight f4 [128, 64, 3, 3]
00000000: f281 e33a 34d4 b8bc 4a12 57bc 6af7 1c3c
00000010: 2a13 31bc 74a0 de3b e26a 3f3c 9698 7d3b
00000020: 1a57 7e3c 78ed 3538 a3c8 9cb8 9609 7937
00000030: b4c1 e3b7 931b 08b9 7443 4438 5f58 cfb8
00000040: 5d72 c2b8 18b3 8438 2112 3f3c e521 5b3c
00000050: a6be 903b d55a b33b 8c8c 303c f251 69bc
00000060: d582 0d3a e31f 993b 6daf 883b aed5 ba20
00000070: f3ea 6f20 73ee 4f20 83aa 1421 d6fe f720
00000080: f33a ca20 4fbe d21f fed3 2e21 bbe0 1221
00000090: ed6e 0580 9961 0580 605d 0580 645d 0580
000000a0: c479 0580 785c 0580 0f75 0580 e65c 0580
000000b0: 5777 0580 ec7c 77a4 6163 8b24 2d79 dba2
000000c0: e3b4 c224 2be6 d121 e5e7 cca3 14c6 ad24
000000d0: d463 a7a4 3fed 9123 7244 59b5 c483 49b5
000000e0: 7a51 12b6 3ca9 9bb5 12f1 41b5 ac01 31b6
000000f0: 8b03 1db6 f505 d5b5 7221 abb6 e7bf f0bb
00000100: 6888 dc3a 5239 5d3a 8148 96bb 370a 0b3b
00000110: 820d 7ebb 8c87 8e39 348b 04bc c98a 403b
00000120: f764 1b1f bbf8 201f 82a7 0e1f 7c69 121f
00000130: 1e53 241f 223e 141f eb5f d81e b37d 121f
00000140: 252f e01e 010f 84bc 3ef4 91bc 9ab3 53bc
00000150: 5039 b8bb 0821 27bc 3086 42bc 4061 803c
00000160: c6ce 0fbc 8a0f 833c c994 363a 1599 a339
00000170: 9353 133c 3947 d2ba 1144 4dbb 15fa 243c
00000180: 778c 36bb af7e e4ba d7a4 a03b 0889 463c
00000190: 5798 423c 387c 123b 6e1b 2e3c 196f 4c3c
000001a0: 53d0 883b 9375 6f3c 55f4 9b3c b247 f8bb
000001b0: 8829 8d24 2a12 a624 071a 0f21 518c 1d24
000001c0: ee49 6ea4 ab5d 2ea4 b9c3 4da4 b596 aea4
000001d0: 9259 8c22 5ddf 873c c7d5 363c 027f 463c
000001e0: e35e 963c 5d4a 783c bfbb fb3b 2760 7d3c
000001f0: 8a8a 833c 1fce 003c 7410 1d2f 3d0f 1aad
00000200: c6d4 8e2d a715 ab30 df48 262c 8759 c72e
00000210: 2c41 4732 c29e fc2f 0220 0431 1728 c6bc
00000220: 779f 243c 56ce 263d 5c96 583c 8b68 4fbb
00000230: 99cc 0a3c 434b 9cbb 1ab0 c33b f9d4 7abb
00000240: 4faf 042c c984 a9a9 6c6f 112a 14e3 3f2c
00000250: 5fc5 4e27 36d2 4528 5df5 0dad 4bb5 5528
00000260: 734f eeaa 14fb bdb9 0c6b 3bba fe1b 0eba
00000270: e63b 98ba 48b5 e4ba 8145 7bba d817 07bb
00000280: c44a d5ba 1ced bfb9 f36c 92b7 8a2c 8db7
00000290: 7d25 ffb7 1c00 b7b7 9fa1 8eb7 b525 12b8
000002a0: b933 0ab8 c850 e0b7 f6e4 58b8 bc21 9d38
000002b0: 844f a338 5e9a 5438 93f8 2c38 fdb0 8b38
000002c0: d4c7 3038 f17a 2a37 4f1c 7038 7007 4438
000002d0: 8935 c1b4 8717 b0b4 f513 93b5 eaf8 0fb5
000002e0: 28de a6b4 a780 b4b5 f59d 9db5 5641 4ab5
000002f0: 62a3 3bb6 0eef edba 2ac8 053b c1db 8abc
00000300: 8007 4b3b 3912 103c 6f2d 5bbc 70bd 873a
00000310: 9fed 323c 82d8 f4bb 753e baba 26ab 18bd
00000320: bdd8 323c 2af6 a7bc 27f6 68bc f156 383c
00000330: 86f0 9b3c de68 aebc ac90 123d ea35 2325
00000340: 9dd7 8725 d258 eca4 66b2 54a4 d15a 1525
00000350: 1d7b 3825 1f45 2724 52ba fda3 258c d123
00000360: e027 ceb8 b9d7 40ba 1b12 1239 e299 3b3a
00000370: f4d8 a9ba 857f c239 3576 0239 0a5c 203a
00000380: 0372 aa3a 05c2 1ba2 7c20 77a2 bb30 6022
00000390: 8c57 90a2 add6 9421 650f 1922 07ba c321
000003a0: 20da 8e22 a7b2 e7a1 de52 7bb6 a77d 6fb6
000003b0: 5e24 07b7 4914 a8b6 22c7 6eb6 bdb5 1fb7
000003c0: dfc3 10b7 da78 dab6 5035 86b7 cdea 2ebb
000003d0: 8798 713a acaa 013d b455 eb3a 8f22 d0bc
000003e0: f9e6 753c 1a4f 10bc b14e b33b 17ff fbbb
000003f0: 2709 143d 6bb1 32bc 68ee 0fbc cf1d c73b
0.0017357452 -0.022562124 -0.013126919 0.0095804725 -0.010807792 0.00679403 0.011683198 0.0038695685
0.015523696 4.3374923e-05 -7.476031e-05 1.4843788e-05 -2.7150709e-05 -0.00012980243 4.6792862e-05 -9.8869896e-05
-9.271943e-05 6.327609e-05 0.011662037 0.01337478 0.0044172583 0.0054734745 0.0107756965 -0.014240729
0.00053982186 0.0046729906 0.004171303 3.1651027e-19 2.0321826e-19 1.7612478e-19 5.037002e-19 4.2012064e-19
3.425914e-19 8.92533e-20 5.923406e-19 4.976415e-19 -4.9897e-40 -4.94189e-40 -4.92674e-40 -4.9268e-40
-5.02859e-40 -4.92349e-40 -5.0117e-40 -4.92503e-40 -5.01989e-40 -5.36654e-17 6.0449995e-17 -5.948837e-18
8.444052e-17 1.4223316e-18 -2.2215935e-17 7.536235e-17 -7.259382e-17 1.5821409e-17 -8.09384e-07 -7.507008e-07
-2.180312e-06 -1.1597654e-06 -7.2248906e-07 -2.6376028e-06 -2.3396885e-06 -1.587147e-06 -5.1000907e-06 -0.0073470953
0.001682532 0.00084390223 -0.00458628 0.0021215805 -0.0038765376 0.0002718534 -0.008089829 0.0029379597
3.2906043e-20 3.4087063e-20 3.020823e-20 3.1003957e-20 3.4797104e-20 3.1391614e-20 2.290956e-20 3.102068e-20
2.3736421e-20 -0.016120436 -0.017816659 -0.012921238 -0.0056220666 -0.010200746 -0.011872813 0.015671372
-0.008777326 0.01599862 0.000696492 0.00031203838 0.008992094 -0.0016042955 -0.0031321088 0.01006939
-0.002785472 -0.0017432774 0.004902463 0.012117632 0.011877141 0.0022351872 0.010626657 0.01247766
0.004175225 0.014615434 0.019037405 -0.007576906 6.121936e-17 7.2021795e-17 4.848473e-19 3.41628e-17
-5.1670644e-17 -3.7809575e-17 -4.4618073e-17 -7.571578e-17 3.8041912e-18 0.016586 0.011159367 0.012115242
0.018355792 0.015154448 0.007682293 0.015464819 0.016057272 0.007861643 1.4284912e-10 -8.75727e-12
1.6238021e-11 1.2448041e-09 2.363047e-12 9.0653755e-11 1.1598143e-08 4.5951337e-10 1.9226722e-09 -0.024189038
0.010047785 0.04072412 0.013219442 -0.0031648006 0.008471631 -0.004769714 0.0059719207 -0.0038273914
1.8855644e-12 -7.528142e-14 1.2917244e-13 2.7268786e-12 2.8695238e-15 1.0981279e-14 -8.069404e-12 1.1863187e-14
-4.2332422e-13 -0.00036235957 -0.0007149435 -0.0005421041 -0.0011614531 -0.0017449046 -0.0009585247 -0.0020613577
-0.0016272892 -0.0003660702 -1.745529e-05 -1.682925e-05 -3.0415826e-05 -2.1815351e-05 -1.700298e-05 -3.484423e-05
-3.2949934e-05 -2.6740498e-05 -5.171165e-05 7.492627e-05 7.7872566e-05 5.0688504e-05 4.12395e-05 6.661003e-05
4.2147774e-05 1.0161414e-05 5.7246823e-05 4.673697e-05 -3.5988003e-07 -3.2799673e-07 -1.0958162e-06 -5.363387e-07
-3.108155e-07 -1.3448488e-06 -1.1743383e-06 -7.534594e-07 -2.7960273e-06 -0.0018152909 0.0020413497 -0.01695049
0.0030979812 0.008793407 -0.013377531 0.0010356139 0.010920911 -0.007472099 -0.0014209287 -0.037272595
0.010915932 -0.020503122 -0.014218844 0.011251197 0.019035589 -0.021290239 0.0357825 1.4156263e-16
2.3564872e-16 -1.0249915e-16 -4.612128e-17 1.295446e-16 1.6001168e-16 3.62709e-17 -2.7509225e-17 2.2719179e-17
-9.830273e-05 -0.0007356364 0.0001393039 0.0007156414 -0.0012958334 0.00037097573 0.00012441802 0.00061172305
0.0013003949 -2.110913e-18 -3.349194e-18 3.0383459e-18 -3.9123972e-18 1.0085694e-18 2.0743516e-18 1.3262955e-18
3.8720126e-18 -1.5700458e-18 -3.745015e-06 -3.5686915e-06 -8.055094e-06 -5.0091517e-06 -3.5580674e-06 -9.519453e-06
-8.628674e-06 -6.5109753e-06 -1.599887e-05 -0.0026690245 0.0009216149 0.031656906 0.0017954619 -0.025407104
0.015008681 -0.008807922 0.005472027 -0.007690321 0.03614154 -0.010906558 -0.008784868 0.0060765515

encoder.6.bias f4 [128]
00000000: a54b 2bba 678a c93a 8e08 84bc adab ecbb
00000010: d386 32b9 3d71 2f3a 8b49 4bbb 8549 d8ba
00000020: cad5 74bc 94c8 cc39 6422 b8b9 b615 4fba
00000030: 7738 cf3a bd83 4c3a 9943 e3bb e084 63bc
00000040: 3719 e33b 1090 36bb a487 3bbb bc71 aaa5
00000050: a967 d2ba 1c02 51bb 6582 5e39 d656 7abb
00000060: afc2 2739 662d 33bb 6b36 6ebb 1c39 95bb
00000070: 1198 1cbd 253f 21bc 46c7 b8ba 9b32 363a
00000080: 3d48 f5b7 3cf2 6f3b 9d5b 7dbb 22bf 323a
00000090: aabf dcba 4b0e f93a 60a8 04bb ba3e ecba
000000a0: 5f73 0a3c 847a 21ba b5de 95b9 0210 ada3
000000b0: ee38 99bc 6747 233b be37 3bbb 16f9 aeba
000000c0: c724 d7b9 a8f1 99bb c7bd 213c 3ac5 ccb8
000000d0: 4a38 61bb 0c2b 56b8 a23a 89bb 60de 84b5
000000e0: 99d3 e53a 30f4 2abb 5040 c13b 10d3 d8ba
000000f0: 924f a53b d6e2 a3b8 0545 f73b 3bfa 28bc
00000100: d0ab 183a 2973 a93b 6e73 91b9 95c1 5c3c
00000110: 8ed5 403b 941a 03bc f5f6 343b 3d87 47bc
00000120: a7c9 06ba e99d 6ebc 00c4 67bb 7cab 7b3b
00000130: e093 61ba 58e4 cf3a 72b3 e63b db9b 173d
00000140: d0f2 15bb 5061 953b 4721 5dbb a77b 5bba
00000150: 6442 e2b9 37d6 dc3b 9e16 4cbc 31d4 1bba
00000160: d6b1 58bb 377d 303c 5a2f 2c3a 97b7 98bb
00000170: 4869 d53a ed33 703b 7973 8bbb a003 94bb
00000180: 2a16 0cbc faf2 34bb 7e94 33b9 8d38 bc3b
00000190: e605 3db9 4cdc dd3b d686 1f3c f12b 39bb
000001a0: ccd0 2fbb 2b52 aa3b c086 223b 286f 0f3c
000001b0: 3355 343b e601 233b 4688 8cba d5c6 45bb
000001c0: 45b0 323a 98ac ccba ae6d ddbb 371f 76ba
000001d0: a31d b6bb dfd1 33bb 9901 b939 2aa7 3c3b
000001e0: 1b3b b5bb b76e a4bb 35fe 1dbb 8009 d53a
000001f0: 2d66 94bb 8b0d a7bb 9dfd a23b 3806 2fb9
-0.0006534404 0.001537633 -0.01611736 -0.007222614 -0.00017025629 0.0006692594 -0.0031019177 -0.0016501403
-0.014943549 0.00039059354 -0.00035120838 -0.00078996585 0.0015809675 0.0007801613 -0.0069355485 -0.01388666
0.006930496 -0.0027856864 -0.0028614784 -2.9567369e-16 -0.0016052622 -0.0031892126 0.00021220146 -0.003819873
0.00015998886 -0.0027340292 -0.0036348354 -0.004553927 -0.03823096 -0.009841715 -0.0014097474 0.000695029
-2.9239915e-05 0.0036612889 -0.0038659342 0.0006818642 -0.0016841788 0.0019001452 -0.002024196 -0.0018024065
0.008450358 -0.0006159919 -0.00028585424 -1.8763477e-17 -0.018703904 0.0024914385 -0.002856716 -0.001334938
-0.00041035397 -0.004697997 0.009871907 -9.764214e-05 -0.0034365826 -5.1061666e-05 -0.004187898 -9.899486e-07
0.0017534374 -0.0026085488 0.005897559 -0.0016542394 0.005044886 -7.814697e-05 0.0075460696 -0.010313566
0.0005823942 0.005171199 -0.00027742557 0.013473888 0.0029424164 -0.008001942 0.0027613018 -0.012178239
-0.0005141743 -0.014564016 -0.0035364628 0.0038401773 -0.0008605104 0.0015860898 0.0070404345 0.03701387
-0.0022880323 0.0045587197 -0.0033741759 -0.00083726126 -0.00043155544 0.0067394036 -0.012456564 -0.00059444
-0.0033064983 0.010772041 0.0006568335 -0.0046605575 0.0016281987 0.0036652044 -0.004255709 -0.0045170337
-0.008550206 -0.0027610646 -0.00017126088 0.005744046 -0.00018026642 0.006770646 0.009736737 -0.002825495
-0.0026827333 0.0051977835 0.0024799556 0.008754529 0.0027516603 0.0024872958 -0.0010721765 -0.0030178328
0.00068164273 -0.0015615402 -0.0067574596 -0.00093888066 -0.005557732 -0.0027438325 0.0003528714 0.002878616
-0.0055307276 -0.005018081 -0.0024107818 0.0016253442 -0.004528782 -0.00509805 0.0049740807 -0.00016691617

decoder.0.weight f4 [128, 64, 3, 3]
00000000: 429d 9ebb af77 61b7 ce46 8539 6c10 533c
00000010: 0e66 da3b 7966 823b 6c93 9c3c 49c2 8cb8
00000020: 3d1b cf3c a4cb f63b c9ea bcba 77e4 c9b8
00000030: 6322 393a f3e6 71bc 0f5f 20bd fe18 b7b9
00000040: 70f8 c23c 6fdd a3bc 7dbf 98bb 1b7f c3bb
00000050: 8a8b e3bb c9fe 97bc e9f8 5cbc 0c09 ab3b
00000060: 3fdf 3e39 e931 a1ba 06b0 813b 1842 05bc
00000070: e71d 223d 39f4 ecb9 8ac4 bfbc 4c96 743d
00000080: 43de fe3b 88f2 6ebc 8d21 373c 91c8 78bc
00000090: 60bd 94b5 ec5e 0500 ac9d 80ba edb3 9c39
000000a0: 6ea4 a1b9 6cb0 bfbb 4cb0 ed38 4d5b 0500
000000b0: a21d 1bbb 9aea 06b9 9f75 fabc 4045 8eba
000000c0: 3e82 bfb9 df7b 6e3c 2cf0 26bb e6b4 01bb
000000d0: a3fe abbc 7b69 e9ba 20c9 523a 3620 153b
000000e0: c8e7 e53b 49a4 39bc 2037 b9bb efe7 e93b
000000f0: 5e2e 4ebb 3bf1 5b3b c7a2 743a 7a97 cdbc
00000100: 8ec7 a93b 57e3 983b 716d 0500 09e1 a93b
00000110: ee65 0500 1cb5 fbbb 1197 91bb c5f0 c0bb
00000120: 0e5e 0580 2939 ebbb 825b 0500 38d8 9a3c
00000130: cf54 2eba 52b4 32bc 8858 0580 79e6 103d
00000140: 3163 0580 653a bfbb 8e21 17bb b9ae febb
00000150: 8d20 653c 15ef 94bc 50c9 39bd 3df6 b03c
00000160: e1e0 c9bc 8f76 913c 806b 39b9 0969 4abc
00000170: ad20 2eba ffc9 4e26 3ff2 1abc 0703 0723
00000180: 08a5 bdb8 2491 6ebb fbe4 3fbb 0dc5 96bb
00000190: 83a4 55b9 dc2c 85bb 49ca 29ba 6234 7fbb
000001a0: 5f1d 81ba 0978 97bb 3030 08b9 c87f 87bb
000001b0: f919 84b7 5f3e f5bb 1dd0 27bb 3807 0db5
000001c0: 84fe 583a 4ea6 0e3b 3c6b ae3a cc34 81bc
000001d0: 91eb 483c e014 e538 3a61 c439 6b5b 94bc
000001e0: 9850 52ba be70 84bc 77c4 a2bc d46a d3ba
000001f0: 855d e43b b39f 663b ab12 0a3c 896a 6cbb
00000200: ac59 1dbb 518a 823c ed1a 63bc 2b78 263a
00000210: c313 47bc fcec 89ba 9b48 95bc dc61 0500
00000220: eaca a9bb 0663 0500 b748 16bb 7581 29bc
00000230: 65bd de3b dc60 0500 cdb2 9039 ac77 0680
00000240: 35c2 ba3a 3f97 0e3c 7851 17bb 757a 133c
00000250: d48d a53c e3b5 793b 53c0 2fbc 0dc3 2e3c
00000260: 6f0f 61ba 98a9 eabb 97e3 0ebb 8795 a23c
00000270: 706c 99bc a7cf b7bb 338e 6f3c 17c2 31bc
00000280: 68c0 42bb c750 e03b cd75 43bc dc5d 0580
00000290: 110a 1cbc fd42 dd23 37b8 8fbc b6f0 ed26
000002a0: f6a5 28bc 3461 0580 6bb3 a83b 668f 2bbc
000002b0: 54ef b0bc 399d 28bc 40bb ddbb 78f0 98bc
000002c0: 06eb e4bb a38b 823b f97b 3bbc 7b33 e4ba
000002d0: be61 0500 a3ec 8f3b 6463 0580 b3c5 d8bb
000002e0: 89d3 eab7 c980 88bb a45a 0580 82ff fc3c
000002f0: da5c 0580 42aa cdbb 9c8c eaba 977a b23a
00000300: 3373 97bc 5eb1 43bc 3805 0c3b de81 643b
00000310: ff67 cdbb f7e6 ccba c287 0ebc 3a0f 44bc
00000320: 8ede 41bb 5ec9 06bc f5ab 72bc 0871 86bb
00000330: 191b 1d39 2605 383c e95e e9bb c717 81bc
00000340: 18c6 e6b9 88ad a63c 0cea 9fbc b2ee 88bc
00000350: 0b56 163d d86b 17bd ffde adba d612 483d
00000360: 3f25 52bc 368d de3b df3a 2d3c c494 933b
00000370: 49fb e43c 2440 f9bb 302e 133d beb3 2dbb
00000380: 0ff9 0fbc 4bef 05bc 8f1f 4f29 8ce9 4dbc
00000390: cff8 95bc 1cfe cebc 4c7a 6fbb 8438 223c
000003a0: 93de c4b4 4870 313d 83ef 7dbc 797d e3bb
000003b0: 232c 5cbc fab6 dabc 3aa5 c6bc bc38 04bd
000003c0: aa7d 3dbc e0aa a93c 1516 cfbc 91f5 2bbc
000003d0: 7a65 a80b 771c 6cbc 0a69 e73a a8e9 5127
000003e0: 5d0e 983a 8102 163d 3c96 930b 651a 203d
000003f0: a4bf 023b 7f48 6dbc 3e4a 1fbb ba94 cbbb
-0.004840524 -1.3438911e-05 0.0002542049 0.012882333 0.006664998 0.003979501 0.019113265 -6.711909e-05
0.025281543 0.0075316 -0.0014413233 -9.626982e-05 0.0007062314 -0.014764535 -0.039153155 -0.000349231
0.023800105 -0.020003049 -0.004661499 -0.00596608 -0.0069441246 -0.018554108 -0.013487079 0.0052195843
0.00018202978 -0.00122982 0.003957751 -0.008133434 0.0395793 -0.00045195388 -0.023409147 0.059713647
0.0077779605 -0.014584191 0.011177433 -0.0151845375 -1.1081975e-06 4.93229e-40 -0.0009812615 0.00029888694
-0.00030830823 -0.0058498885 0.000113338785 4.9193e-40 -0.0023668786 -0.00012866632 -0.030573664 -0.0010854378
-0.00036527397 0.0145559 -0.0025472743 -0.0019791662 -0.020995444 -0.0017807925 0.0008040834 0.0022754795
0.007016156 -0.011330673 -0.0056523234 0.0071382443 -0.0031460742 0.0033560533 0.0009332117 -0.025096644
0.0051812595 0.004665773 4.98438e-40 0.005184297 4.95743e-40 -0.007681502 -0.0044430573 -0.005888077
-4.92918e-40 -0.007178445 4.92004e-40 0.01890193 -0.00066502107 -0.0109072495 -4.90937e-40 0.035376046
-4.9476e-40 -0.0058358186 -0.0023060772 -0.0077722934 0.0139848115 -0.01818041 -0.045358002 0.02160179
-0.024643363 0.017756728 -0.00017683022 -0.012354144 -0.00066424423 7.1744363e-16 -0.00945717 7.319006e-18
-9.042962e-05 -0.0036402429 -0.002928077 -0.004601127 -0.00020374548 -0.0040641855 -0.0006476981 -0.0038941135
-0.0009850672 -0.0046224636 -0.00012987922 -0.0041351058 -1.574772e-05 -0.007484242 -0.0025606223 -5.25371e-07
0.0008277672 0.0021766606 0.0013307105 -0.015772246 0.012263195 0.00010923459 0.00037456473 -0.018109998
-0.00080228737 -0.01616704 -0.019869072 -0.001612986 0.006969156 0.0035190403 0.008427302 -0.0036074242
-0.0024009747 0.015935095 -0.0138614 0.0006350304 -0.012150708 -0.0010522897 -0.018223098 4.94283e-40
-0.00518166 4.947e-40 -0.0022931525 -0.010345806 0.00679748 4.93924e-40 0.00027599037 -5.93943e-40
0.0014248552 0.008703052 -0.002308933 0.009001364 0.02020923 0.0038102798 -0.010727006 0.010666621
-0.00085853686 -0.0071613304 -0.0021803135 0.01984669 -0.018728465 -0.005609471 0.014621305 -0.010849497
-0.0029716734 0.006845567 -0.011929941 -4.92848e-40 -0.009523884 2.3989239e-17 -0.017543895 1.6510423e-15
-0.010293474 -4.94047e-40 0.0051483414 -0.010471201 -0.021598496 -0.010291391 -0.0067667067 -0.018669352
-0.006986025 0.003983931 -0.011443132 -0.0017410362 4.94241e-40 0.004392223 -4.94832e-40 -0.0066153645
-2.7993477e-05 -0.004165743 -4.91693e-40 0.030883554 -4.92486e-40 -0.0062764 -0.0017894688 0.0013616857
-0.018487548 -0.011944143 0.0021365415 0.0034867446 -0.006268501 -0.0015632798 -0.008699359 -0.011966521
-0.0029582116 -0.008226721 -0.014811506 -0.00410283 0.00014982781 0.011231696 -0.00712191 -0.015758408
-0.0004401661 0.020346418 -0.019520782 -0.016715381 0.03670315 -0.036968082 -0.001326531 0.04884609
-0.012826263 0.006791736 0.010573118 0.004503818 0.027951853 -0.007606523 0.03593272 -0.002650484
-0.008787408 -0.008174728 4.5990606e-14 -0.012567889 -0.018307118 -0.025267653 -0.00365414 0.00990117
-3.666979e-07 0.04331997 -0.015498999 -0.0069424477 -0.013438257 -0.026698578 -0.024248708 -0.03228067
-0.011565605 0.020711362 -0.025279084 -0.010495559 6.486393e-32 -0.014411083 0.0017655205 2.9131242e-15
0.001160096 0.03662348 5.684839e-32 0.03908767 0.0019950652 -0.014482616 -0.0024305726 -0.006212798

decoder.0.bias f4 [64]
00000000: 5bcf 68bc 9abc 39bd 7b7a 75bc d331 853d
00000010: 9eaa 4cbc f7f0 8b3c 6693 b13c e68e 4fbd
00000020: 2edf c9bb bf84 e9bc ed6b 4bbb de4a 643b
00000030: 20a5 3d3d f163 43bd 7ea1 ddbb 7160 f6bc
00000040: 1d8a 463a ec28 aebb 18d6 8dbb 896d 9abc
00000050: 9ac4 81bc 2523 783c 0da3 47bc 0f08 99ba
00000060: 2726 8ebd 6f83 c6ba f53b 233d 2b8c d2bb
00000070: 67af 6f3b 5735 b1bb 2304 11bd d996 8fbc
00000080: 7a85 6abb ad13 ba3c 9c57 843c 8c29 b2ba
00000090: 06ab ddbc 48f9 79b9 2850 15ba 997d 223e
000000a0: d6bf 4ebc ce03 7fba 22ed 71bc 3800 6d3c
000000b0: 9472 cd3a fce7 9dbd 819a 013d b000 973c
000000c0: 8bbb 173b 7ac7 19bd 1f2f b63b e82d 14bd
000000d0: 1c65 04bd a051 e7bb 5272 1c3d b44b 09bd
000000e0: c8bb b8bc b61b e3bc e01f a4bc e7b1 463b
000000f0: 7f6c 0e3d ae12 44bc d1f4 94ba 9fd8 9abc
-0.014209594 -0.04534588 -0.014982815 0.06503644 -0.01249185 0.017082674 0.02167673 -0.050673388
-0.0061606383 -0.028505681 -0.003103967 0.0034834663 0.046300054 -0.047702733 -0.006763636 -0.030075284
0.0007573681 -0.005314937 -0.0043285005 -0.018851059 -0.015840817 0.015145098 -0.01218487 -0.0011675375
-0.06940871 -0.0015145371 0.0398521 -0.0064254007 0.0036573054 -0.00540797 -0.035404336 -0.017527984
-0.0035785125 0.02271446 0.016155057 -0.0013592704 -0.02705909 -0.00023839355 -0.0005695843 0.15868224
-0.012618979 -0.0009728045 -0.0147660095 0.014465384 0.0015674406 -0.07710263 0.031641487 0.018432945
0.0023152556 -0.03754375 0.0055598165 -0.036176592 -0.032322988 -0.007059291 0.03819496 -0.03351946
-0.022550479 -0.027723175 -0.02003473 0.003031844 0.03477144 -0.011967344 -0.0011364465 -0.018902121

decoder.2.weight f4 [64, 32, 3, 3]
00000000: 99f5 053d 1002 87bb d9e4 afbc b2c8 4e3d
00000010: 6528 ac3b c403 06bd 77e8 143d 3fdd 853b
00000020: d1e3 fdbc 9e74 bfbc 7f1c a93c f1b5 69bc
00000030: 0f94 14bd bd76 453d 5090 16b8 d8cf 23bd
00000040: 1bb9 a23b 3c14 fcbb 6b98 a1bc 6fca d2bb
00000050: 9dbe 523b 6731 cabc 046c 9cbc f8d5 e33b
00000060: bd25 47bc 2831 c4bb 9fbb 673b c859 0c3c
00000070: 08eb 2cbb 881a adbc 0c66 41bc 442f c13c
00000080: b90f d1bb 5c26 cfba ab4b 23bb a1ae 50bb
00000090: 5933 a8bb c163 3b3c fdbc dbbc 2a3b 4c3b
000000a0: 997d 8c3c 3dee d5bc 1439 f9bb 44dc de3b
000000b0: 8dac bdbc 76fb 53bb 3a6d 4bbb 85a6 56bb
000000c0: 97a5 1f3b 4d04 a1ba 5a90 96bb 71bc 2bba
000000d0: 58ed 7eba a92c b8bb 049b 57bb 1373 ccbc
000000e0: 013f c73c 867d 303c 8f6c 65bd d81c 8e3c
000000f0: 7261 703c 445d d6bc 56d2 093c 941e 3839
00000100: df35 3c3c d9e7 7d39 3836 a33b 1db3 983c
00000110: 23ea 22bb 717f 423c 1040 913c a73a 99bb
00000120: c649 3f3d 124e b9bc 2778 96bd 1496 c03b
00000130: 0226 81bc 11ed 69bd c5a4 763d 2953 f23a
00000140: 6170 98bd 143e b9bc eaca 0a3c 2c62 233d
00000150: 27fa 19bd e18e 4b3c ce84 593d 258c 8ebc
00000160: 9109 15bb 1232 493d 8056 79ba 8121 ef3b
00000170: 175e 1bbd 75b1 603c 25bc 25bc 8452 34bd
00000180: d3e1 d13b b478 68bb 0bdf 43bd 0b13 28bd
00000190: 504d 083c 70fa 8c3d 30df 3ebd c9f1 d7bb
000001a0: f751 9e3d 7aaf 60bd f9de 97bc fc38 733d
000001b0: 10ea da3a dcae 5dbc 1901 45bb 9a3b 6d3d
000001c0: 18cf 42bc 34ea a1bd 1776 373d e502 3f39
000001d0: 2b2a 70bd 25fc 603c 8750 76bb d789 85bc
000001e0: 2921 873c 2927 76bb 7654 d4bc 3a92 a23c
000001f0: 35a0 5cbb cbe1 e9bc f3f1 4abc 748f c43b
00000200: 798b 913c 9ada cfbc 96b4 8ebc dc67 963c
00000210: b408 d1bc 7c6c 48bc 24a2 e23c 5315 073c
00000220: 5f74 a8b8 4a96 a9bc 8d80 e4bb 09ba 1b3c
00000230: 7eb2 ffbb 1683 bbbc 743d bebb d051 543a
00000240: 5b87 19bc adec 3f3b 694b 803c 6f09 83bc
00000250: 3fe9 123b 9c85 ca3c 97b4 46bc b691 913a
00000260: 0fc9 813c a646 b93c 94d2 f33a 9eeb 34bc
00000270: 4952 293d 6ca1 e63b 1383 92bc e448 d83c
00000280: 0e7d b43b 904f 82bc 993c 0d3d ebb8 2e3c
00000290: 0e6b 45bc 9a3a 883d 0aca 0a3d 1807 37bc
000002a0: e2de 2c3d d3fb 853c 36db 37bb ed41 6fbc
000002b0: 5199 a2bb 32f6 613c ce19 04bd a8ff 56bc
000002c0: d31c e73c f234 82bc 75dd e6bb ef33 a23c
000002d0: 3a03 593b dbb8 6dbc 7429 debc 7e17 bb3c
000002e0: 97a9 c9bc 702b 46bd f5f1 9c3b 537c 11bc
000002f0: 20f8 dabc bf3c db3b f1af 0939 2c15 7dbd
00000300: 2bac 083d b22c 83bb 78cb abbd 488b 953b
00000310: 94e4 6b3b 3ed1 3abd c71e 8a3b b80c 8dbc
00000320: 771b 3bbd 2ce7 113d 7131 b5bc a2f4 a1bd
00000330: 5ade 263c f30f dfbb 3bbf 44bd 0935 59bb
00000340: bb50 163b 84dd 003c 366e 1bb8 d9e1 a2b4
00000350: 52e7 e4ba c556 d33c da63 043a 330d 0cbd
00000360: e097 20bd c545 5c3b 154a 213d eb69 24bd
00000370: 985f 0500 5667 0f3d 2028 a3bc 0333 86bb
00000380: 9d6f ab3c 9af5 bebc 51f1 6f3c ad7f ff3c
00000390: 5e56 9abc 21ba 23bb 27cf 1c3d a3aa babc
000003a0: d404 113a 020f f73c 41fe 43bb 84f5 f33b
000003b0: 6091 923c 0024 883b 4168 72bb 601a 6d37
000003c0: cd7b 58bc e425 893a 74f2 ab3c 90ad 953c
000003d0: 0e9e 813b 1a7d 87bb d921 cc3c ced5 8a3c
000003e0: 7f5d 8eb9 cb74 b33c cde9 4a3c ac7b 1eb8
000003f0: 4799 4bbc 343e 323c c80a 163d c3fa 13bd
0.032704923 -0.004120119 -0.021471428 0.050484367 0.005253839 -0.032718435 0.03635451 0.0040852125
-0.03099242 -0.023371037 0.02064347 -0.01426457 -0.036274012 0.04820894 -3.589719e-05 -0.039993137
0.004965914 -0.007692842 -0.019725999 -0.0064328234 0.0032157071 -0.02468176 -0.019094475 0.0069529973
-0.012154994 -0.005987305 0.0035359634 0.008566327 -0.0026385207 -0.021130815 -0.011804115 0.023582108
-0.006380048 -0.0015804279 -0.0024916928 -0.0031842368 -0.0051330742 0.011437357 -0.026823515 0.0031163194
0.017149733 -0.026114577 -0.007605681 0.00680116 -0.023153568 -0.0032345927 -0.0031040446 -0.0032753062
0.0024360174 -0.0012284607 -0.0045948448 -0.0006551212 -0.0009724698 -0.0056205583 -0.0032898793 -0.024957215
0.024322035 0.010772115 -0.056011733 0.017347738 0.01467167 -0.02616752 0.008411964 0.00017558999
0.011487453 0.0002421433 0.0049808286 0.018640095 -0.0024858795 0.011871205 0.017730743 -0.0046761814
0.046701215 -0.022620235 -0.07347136 0.0058772657 -0.015765194 -0.05711085 0.06021573 0.0018487918
-0.074433096 -0.022612609 0.00847123 0.039888546 -0.03759208 0.012424202 0.053105168 -0.01740081
-0.0022741298 0.049120016 -0.00095114857 0.007297695 -0.037931528 0.013714184 -0.010115658 -0.044024006
0.006405094 -0.0035472335 -0.047820132 -0.041033786 0.008319214 0.06883705 -0.046599567 -0.0065901023
0.07730477 -0.054854847 -0.018538939 0.059380516 0.0016701836 -0.013530459 -0.0030060469 0.05791817
-0.011890195 -0.07905999 0.044790354 0.00018216258 -0.058633965 0.013731991 -0.003758462 -0.016301079
0.016495304 -0.0037559962 -0.02591918 0.019845117 -0.0033664827 -0.02855005 -0.012386787 0.0059985463
0.017766701 -0.025372792 -0.017420094 0.01836007 -0.025516845 -0.012232896 0.027665205 0.00824483
-8.03254e-05 -0.020701546 -0.0069733323 0.009504803 -0.0078032603 -0.022889655 -0.0058056656 0.0008099349
-0.00937065 0.0029285357 0.015660958 -0.01599571 0.0022416858 0.024721913 -0.012128017 0.0011106047
0.015842943 0.022616696 0.0018602186 -0.011042504 0.04133824 0.007038286 -0.017884767 0.026401944
0.0055080717 -0.015907079 0.03448162 0.010664205 -0.01204945 0.06651802 0.033884086 -0.011171125
0.042204745 0.01635543 -0.0028054244 -0.01460312 -0.0049621244 0.013791608 -0.03225117 -0.013122477
0.028211987 -0.015894387 -0.0070454427 0.019800154 0.0033113495 -0.014509405 -0.027119376 0.02283835
-0.024617 -0.04838127 0.0047895857 -0.008879739 -0.026729643 0.006690591 0.00013130881 -0.06178777
0.033367317 -0.004003131 -0.08388418 0.0045637228 0.0035994397 -0.045609705 0.0042150947 -0.017217979
-0.04568049 0.035620853 -0.022118302 -0.07907988 0.010184849 -0.006807321 -0.048033934 -0.0033143184
0.0022936303 0.007865313 -3.705752e-05 -3.0339177e-07 -0.0017463958 0.02579821 0.00050502794 -0.034192275
-0.03920734 0.0033610922 0.03937729 -0.040140074 4.9347e-40 0.03501066 -0.019916594 -0.0040954365
0.020927245 -0.023310471 0.014644937 0.03118881 -0.018840011 -0.0024982768 0.038283493 -0.022786444
0.00055320305 0.030158523 -0.0029906186 0.007445039 0.017891586 0.004154682 -0.003698841 1.4132442e-05
-0.01321311 0.0010463563 0.020989634 0.018271238 0.003955609 -0.0041347863 0.024918484 0.016947653
-0.0002715401 0.021906277 0.012384844 -3.7785314e-05 -0.012426681 0.010879088 0.036631376 -0.036127817

decoder.2.bias f4 [32]
00000000: 0dfb 3f3e 522f 44bc 0f6b 55bc 8490 9bbc
00000010: 60ca 323d cedd c83d 36d3 a13c 5f63 cf3d
00000020: 3168 b23d c1ac 38bd 0d75 a63b bdb7 30bd
00000030: a1ad de3d 5212 e93c dd59 3ebd 737e b93d
00000040: 143b 5b3d bfa1 243d 66f6 b93d bd6c 87bd
00000050: e8b3 043d 5e24 863d 913b 353b c2d7 0b3c
00000060: ffc7 a5bd 906d 11bc 5068 4bbc 44dc 0c3e
00000070: 574b ddbd 589d 81bb 411f ed3d 4bf8 84bc
0.18748112 -0.011974173 -0.013026013 -0.018989809 0.04365003 0.09807931 0.019754034 0.101263754
0.08711279 -0.045086626 0.0050798715 -0.043143976 0.10872961 0.028451119 -0.04647242 0.090573214
0.05352314 0.040193316 0.090802 -0.06612537 0.032398134 0.06549905 0.0027653913 0.008535327
-0.08094787 -0.008876219 -0.012415007 0.137559 -0.108053856 -0.0039555244 0.11578227 -0.016231677
