Autoencoder Helen Dataset/autoencoder_model_full3.pth (torch, 785318 bytes, 16 tensors)

encoder.0.weight f4 [16, 3, 3, 3]
4.9089e-40 4.96044e-40 4.92806e-40 4.91836e-40 4.91667e-40 4.90836e-40 4.91259e-40 4.92251e-40
4.92792e-40 4.93673e-40 -4.98896e-40 -4.9279e-40 4.96306e-40 -4.96678e-40 -4.90571e-40 4.98548e-40
-4.9661e-40 -4.92694e-40 4.98302e-40 -4.90642e-40 -4.95028e-40 4.99396e-40 -4.93537e-40 -4.96772e-40
4.98424e-40 -4.9486e-40 -4.91442e-40 0.0777535 0.077190764 0.091847375 0.08385115 0.08199338
0.10436755 0.035253044 0.12648973 0.10737047 -0.023175769 -0.055817943 0.02320329 -0.080972664
0.014543706 -0.053391233 -0.06467177 -0.015147668 -0.020775575 0.16613464 0.1932598 0.2243962
0.15817522 0.18629758 0.22228855 0.12610175 0.18656367 0.23175938 4.949e-40 4.98676e-40
4.94162e-40 4.94445e-40 4.92227e-40 4.92084e-40 4.95796e-40 4.97014e-40 4.92182e-40 -4.90868e-40
-4.91365e-40 -4.9897e-40 -4.90785e-40 -5.01272e-40 -4.98656e-40 -5.01697e-40 -5.01595e-40 -4.96236e-40
4.923e-40 5.0036e-40 4.9906e-40 -5.044e-40 5.02322e-40 4.91147e-40 -5.01556e-40 5.01928e-40
4.9455e-40 0.3068493 0.35482877 0.34643635 0.36674002 0.40790078 0.399154 0.35543156
0.40882277 0.4002379 0.084567174 0.115194514 0.1071008 0.11517282 0.14777955 0.13335364
0.12960479 0.1544102 0.1466934 -0.104599595 -0.09605129 -0.09798356 -0.09364058 -0.08305627
-0.08704116 -0.07963183 -0.067802064 -0.07198599 -0.020222023 -0.09625053 0.05149394 0.09064086
-0.0054967194 -0.071871914 0.00057836436 -0.087787315 0.05145834 0.03618879 0.18962379 0.032326
0.10835583 0.04811426 0.09267948 0.18235606 0.11178723 0.1383843 0.009732391 -0.16899538
-0.14172314 -0.07300753 -0.14331268 -0.14119884 -0.13488528 -0.12194675 -0.09736827 0.041709736
0.11144697 0.091756 0.055403102 0.07638888 0.09642331 0.08067643 0.09446119 0.08455064
-0.013798553 -0.010777355 0.019006498 -0.052715283 0.038504567 0.010287117 0.0076822946 0.027663201
0.061821423 -0.011453388 0.03837086 0.014567605 -0.04441004 -0.030236248 0.043602087 0.015135592
0.04049177 -0.03720262 -4.93802e-40 -4.94905e-40 -4.939e-40 -4.92519e-40 -4.92257e-40 -4.93677e-40
-4.92107e-40 -4.93897e-40 -4.90475e-40 -4.93968e-40 -4.94717e-40 -4.93103e-40 -4.93434e-40 -4.91075e-40
-4.92598e-40 -4.95146e-40 -4.91e-40 -4.9114e-40 -4.90567e-40 -4.91011e-40 -4.91874e-40 -4.92328e-40
-4.90885e-40 -4.93805e-40 -4.94122e-40 -4.92107e-40 -4.94347e-40 0.022928588 0.032114714 0.0769134
-0.020168178 0.042627253 0.034204 0.036597922 0.07821436 0.057614394 0.14004558 0.18023342
0.16653574 0.15685722 0.144508 0.20333892 0.14811337 0.23096526 0.1721342 0.1484219
0.19748586 0.20386426 0.12813775 0.20719706 0.21453278 0.16690387 0.2515284 0.23127009
0.23354949 0.2978833 0.28769878 0.31056494 0.3923222 0.370947 0.3194449 0.391259
0.3784574 0.33664897 0.41737318 0.3943518 0.42452314 0.4866258 0.4709126 0.42925704
0.5012741 0.48674545 0.12212968 0.18755092 0.16866493 0.18322285 0.23874371 0.22956645
0.19127154 0.25444 0.24421239 0.29295745 0.33630058 0.32405865 0.30822036 0.3663612
0.32645884 0.28815916 0.359069 0.3413431 -0.16060722 -0.124914356 -0.12788591 -0.14743339
00000000: 6758 0500 c566 0500 be5d 0500 0a5b 0500
00000010: 915a 0500 4058 0500 6e59 0500 325c 0500
00000020: b45d 0500 2960 0500 b86e 0580 b35d 0580
00000030: 8067 0500 8968 0580 8357 0580 c06d 0500
00000040: 5968 0580 6e5d 0580 106d 0500 b657 0580
00000050: f063 0580 1d70 0500 c85f 0580 cc68 0580
00000060: 676d 0500 7863 0580 f159 0580 3a3d 9f3d
00000070: 3116 9e3d 7a1a bc3d 27ba ab3d 25ec a73d
00000080: a7be d53d 7f65 103d 8686 013e 0de5 db3d
00000090: 1cdb bdbc 5ba1 64bd d314 be3c ffd4 a5bd
000000a0: b948 6e3c c4b0 5abd a272 84bd ed2d 78bc
000000b0: 8a31 aabc 331f 2a3e e6e5 453e 1ec8 653e
000000c0: aff8 213e cbc4 3e3e 9c9f 633e d120 013e
000000d0: 8c0a 3f3e 5552 6d3e 9463 0500 1b6e 0500
000000e0: 8661 0500 5062 0500 215c 0500 bb5b 0500
000000f0: 1466 0500 7969 0500 015c 0500 5758 0580
00000100: ba59 0580 ed6e 0580 1c58 0580 5875 0580
00000110: 0d6e 0580 8776 0580 3e76 0580 4e67 0580
00000120: 555c 0500 cd72 0500 2d6f 0500 107e 0580
00000130: 4578 0500 1e59 0500 2276 0580 2c77 0500
00000140: 9b62 0500 5a1b 9d3e 1eac b53e 1b60 b13e
00000150: 59c5 bb3e 5fd8 d03e ea5d cc3e 20fb b53e
00000160: 3851 d13e fbeb cc3e 8e31 ad3d 1aeb eb3d
00000170: aa57 db3d badf eb3d 8653 173e db8d 083e
00000180: 1eb7 043e b51d 1e3e cb36 163e 5038 d6bd
00000190: 8ab6 c4bd 9bab c8bd a2c6 bfbd 6819 aabd
000001a0: a342 b2bd 0316 a3bd cfdb 8abd 646d 93bd
000001b0: a8a8 a5bc ff1e c5bd 4feb 523d eaa1 b93d
000001c0: d31d b4bb 9531 93bd 609d 173a d6c9 b3bd
000001d0: fbc5 523d b23a 143d bd2c 423e 4568 043d
000001e0: a9e9 dd3d 7513 453d bdce bd3d 8cbb 3a3e
000001f0: b4f0 e43d 9db4 0d3e 9b74 1f3c 200d 2dbe
00000200: df1f 11be f984 95bd 8fc0 12be 6e96 10be
00000210: 5e1f 0abe 38bf f9bd 0469 c7bd d4d7 2a3d
00000220: 4f3e e43d 92ea bb3d 5dee 623d c671 9c3d
00000230: 9679 c53d af39 a53d de74 c13d e328 ad3d
00000240: 5313 62bc 8193 30bc 84b3 9b3c fbeb 57bd
00000250: f7b6 1d3d 4c8b 283c c2bb fb3b f09d e23c
00000260: 7638 7d3d fea6 3bbc c32a 1d3d f7ac 6e3c
00000270: 4de7 35bd 02b2 f7bc 1a98 323d 46fb 773c
00000280: b3da 253d c661 18bd 8560 0580 9863 0580
00000290: cb60 0580 f15c 0580 365c 0580 2c60 0580
000002a0: cb5b 0580 c960 0580 3f57 0580 fb60 0580
000002b0: 1263 0580 925e 0580 7e5f 0580 eb58 0580
000002c0: 2a5d 0580 4464 0580 b558 0580 1959 0580
000002d0: 8057 0580 bd58 0580 255b 0580 695c 0580
000002e0: 6358 0580 8760 0580 6961 0580 cb5b 0580
000002f0: 0a62 0580 bcd4 bb3c b88a 033d c684 9d3d
00000300: bc37 a5bc ea99 2e3d 7e19 0c3d b4e7 153d
00000310: da2e a03d 12fd 6b3d 1c68 0f3e 1c8f 383e
00000320: 5888 2a3e 2e9f 203e e8f9 133e 1438 503e
00000330: 08ab 173e 2882 6c3e f343 303e e9fb 173e
00000340: bc39 4a3e cbc1 503e 8b36 033e 772b 543e
00000350: 7bae 5b3e d9e8 2a3e 55c8 803e 11d2 6c3e
00000360: 9927 6f3e 2984 983e 414d 933e 5e02 9f3e
00000370: 75de c83e c4ec bd3e 488e a33e 1a53 c83e
00000380: 2bc5 c13e 415d ac3e f0b1 d53e 7be8 c93e
00000390: 195b d93e 0427 f93e 751b f13e 94c7 db3e
000003a0: 8053 003f b336 f93e 201f fa3d 590d 403e
000003b0: 80b6 2c3e c59e 3b3e 3b79 743e 7813 6b3e
000003c0: b0dc 433e f645 823e d012 7a3e 85fe 953e
000003d0: 972f ac3e 04eb a53e 0fcf 9d3e b293 bb3e
000003e0: 9d25 a73e 9989 933e e4d7 b73e 86c4 ae3e
000003f0: 3876 24be 19d3 ffbd 86f4 02be c7f8 16be

encoder.0.bias f4 [16]
4.9328e-40 -0.12013817 4.92234e-40 0.07898477 0.6208466 -0.50329924 4.91134e-40 -0.070891954
-0.097827464 0.15761602 0.65181464 -0.06829767 -0.00032574582 0.5816534 0.6514143 0.25774178
00000000: 105f 0500 000b f6bd 265c 0500 c4c2 a13d
00000010: ceef 1e3f 38d8 00bf 1559 0500 cd2f 91bd
00000020: c459 c8bd 1866 213e 53dd 263f a6df 8bbd
00000030: ddc8 aab9 3de7 143f 16c3 263f bbf6 833e

encoder.2.weight f4 [32, 16, 3, 3]
4.91559e-40 -6.15887e-40 4.98614e-40 -5.32645e-40 -5.04291e-40 5.1239e-40 4.9499e-40 -4.95091e-40
-4.99487e-40 5.59642e-40 5.05806e-40 5.11893e-40 4.92062e-40 4.99826e-40 5.0558e-40 5.11742e-40
5.03014e-40 4.97572e-40 5.96105e-40 -5.759e-40 -6.04823e-40 5.88676e-40 -5.44913e-40 -5.00771e-40
-5.37603e-40 -6.2e-40 6.09038e-40 -4.90554e-40 -4.95199e-40 5.78033e-40 4.96266e-40 4.9737e-40
4.96556e-40 4.97932e-40 4.97273e-40 4.94074e-40 -5.11516e-40 -4.95662e-40 -5.0691e-40 5.04402e-40
5.22476e-40 4.97378e-40 5.20479e-40 4.98777e-40 -5.2428e-40 -5.21404e-40 5.27005e-40 5.23416e-40
-5.56558e-40 5.55888e-40 5.16072e-40 6.24228e-40 5.23193e-40 5.44229e-40 6.03494e-40 5.88087e-40
5.78677e-40 5.94372e-40 -5.68235e-40 5.35652e-40 6.1536e-40 -5.6596e-40 -5.76155e-40 -4.93316e-40
-4.96954e-40 -4.94193e-40 -4.9463e-40 -4.98628e-40 5.78236e-40 4.96253e-40 4.9081e-40 4.93223e-40
4.94874e-40 4.9299e-40 4.9535e-40 4.92181e-40 4.90669e-40 4.94228e-40 4.94936e-40 4.92844e-40
4.94088e-40 -4.92841e-40 -4.93778e-40 -5.0124e-40 -5.01024e-40 -4.9835e-40 -5.02961e-40 -4.94591e-40
-4.98078e-40 -4.93854e-40 5.02904e-40 4.9829e-40 4.97474e-40 5.04467e-40 -5.32227e-40 -6.25869e-40
-4.94946e-40 -4.93535e-40 -5.00946e-40 4.93694e-40 4.91996e-40 4.9363e-40 -5.88156e-40 -5.25008e-40
-4.95547e-40 -4.9201e-40 -4.9419e-40 -4.91727e-40 -5.39098e-40 -5.67356e-40 -5.58577e-40 -5.66755e-40
-6.06213e-40 -6.04695e-40 5.21171e-40 -5.31632e-40 -5.62868e-40 -5.13762e-40 5.56967e-40 5.11213e-40
5.00241e-40 4.99318e-40 4.94344e-40 5.06917e-40 4.92395e-40 5.05695e-40 -5.24098e-40 -5.74581e-40
-5.50305e-40 -4.97652e-40 -5.02986e-40 -6.30038e-40 -5.30599e-40 -4.92905e-40 -5.21772e-40 5.50646e-40
6.05061e-40 -5.93858e-40 4.99183e-40 -5.99562e-40 6.00347e-40 5.09626e-40 -5.88698e-40 5.71985e-40
5.35275e-40 5.40604e-40 4.93693e-40 5.28431e-40 5.52717e-40 5.1364e-40 -6.24482e-40 -5.6203e-40
5.254e-40 -0.00014592221 -0.00015148909 -0.00015368988 -0.00014934396 -0.00015506432 -0.0001572891 -0.00015088789
-0.00015660755 -0.00015874596 -5.64372e-40 -5.2867e-40 5.50029e-40 5.78584e-40 -5.49781e-40 -5.94174e-40
5.46557e-40 6.29767e-40 5.49731e-40 -0.0011259603 -0.0011435448 -0.0011514041 -0.0011361495 -0.0011539873
-0.00116188 -0.0011378501 -0.0011556061 -0.0011632307 -1.376246e-05 -1.4285719e-05 -1.4390137e-05 -1.4447819e-05
-1.4997005e-05 -1.510477e-05 -1.4322288e-05 -1.4864022e-05 -1.4976749e-05 -4.152397e-17 -2.7979603e-17 -2.324062e-17
-3.8019977e-17 -2.3852767e-17 -2.0630786e-17 -3.480901e-17 -2.0891833e-17 -1.9258626e-17 4.96413e-40 4.9563e-40
-4.90759e-40 4.94136e-40 4.97509e-40 -4.90796e-40 5.05123e-40 5.0061e-40 -4.9158e-40 -0.0006529175
-0.0006668272 -0.00067274604 -0.00066094426 -0.00067508797 -0.00068103336 -0.00066304114 -0.0006770885 -0.0006827875
-0.002124746 -0.002144621 -0.0021537018 -0.0021342663 -0.0021542013 -0.0021632165 -0.002135154 -0.0021550434
-0.0021636374 -0.0006367142 -0.0006496886 -0.00065491773 -0.00064541464 -0.00065860833 -0.00066386454 -0.00064772373
-0.0006608896 -0.00066595885 -9.6786265e-05 -9.953485e-05 -0.0001000438 -9.9713616e-05 -0.00010254697 -0.00010304794
-0.00010026488 -0.000103087375 -0.000103590675 -0.001170705 -0.0011883782 -0.0011962298 -0.0011806606 -0.0011985751
-0.0012064389 -0.0011821953 -0.0011999409 -0.0012074788 4.1189875e-24 4.1511695e-24 4.1658967e-24 4.143651e-24
00000000: 445a 0500 d8b4 0680 ef6d 0500 cccc 0580
00000010: c27d 0580 5694 0500 d563 0500 1d64 0580
00000020: 5e70 0580 0e18 0600 fb81 0500 f392 0500
00000030: ab5b 0500 5071 0500 5a81 0500 8792 0500
00000040: 337a 0500 076b 0500 b37d 0600 6045 0680
00000050: 0096 0680 fd68 0600 ffee 0580 f273 0580
00000060: 9eda 0580 4fc0 0680 c0a1 0600 7757 0580
00000070: 6a64 0580 524b 0600 6367 0500 776a 0500
00000080: 3268 0500 086c 0500 326a 0500 4761 0500
00000090: e691 0580 b465 0580 0f85 0580 117e 0500
000000a0: 73b0 0500 7d6a 0500 e2aa 0500 636e 0500
000000b0: 7bb5 0580 76ad 0580 13bd 0500 12b3 0500
000000c0: 750f 0680 970d 0600 999e 0500 18cc 0600
000000d0: 73b2 0500 17ed 0500 4c92 0600 5967 0600
000000e0: 1e4d 0600 de78 0600 0230 0680 2ed5 0500
000000f0: 60b3 0600 ab29 0680 1646 0680 2a5f 0580
00000100: 4e69 0580 9c61 0580 d462 0580 f96d 0580
00000110: e34b 0600 5a67 0500 2e58 0500 e85e 0500
00000120: 8263 0500 415e 0500 d664 0500 005c 0500
00000130: c957 0500 b561 0500 ae63 0500 d95d 0500
00000140: 5161 0500 d75d 0580 7460 0580 4175 0580
00000150: a774 0580 326d 0580 0d7a 0580 b862 0580
00000160: 706c 0580 aa60 0580 e479 0500 086d 0500
00000170: c16a 0500 407e 0500 a2cb 0580 abd0 0680
00000180: b563 0580 c65f 0580 6f74 0580 3860 0500
00000190: 7c5b 0500 0a60 0500 8a67 0680 82b7 0580
000001a0: 6265 0580 865b 0580 9a61 0580 bc5a 0580
000001b0: c9de 0580 8f2d 0680 1615 0680 e22b 0680
000001c0: e099 0680 a595 0680 d0ac 0500 f9c9 0580
000001d0: 0c21 0680 2998 0580 9910 0600 0e91 0500
000001e0: 7872 0500 e56f 0500 0862 0500 1485 0500
000001f0: 995c 0500 ac81 0500 f9b4 0580 b341 0680
00000200: 07fe 0580 406b 0580 1f7a 0580 4adc 0680
00000210: 18c7 0580 055e 0580 7dae 0580 fafe 0500
00000220: aa96 0600 6f77 0680 856f 0500 5687 0680
00000230: 8689 0600 a18c 0500 0d69 0680 763a 0600
00000240: 21d4 0500 fce2 0500 3760 0500 0dc1 0500
00000250: c004 0600 d297 0500 cdcc 0680 b61e 0680
00000260: 9ab8 0500 b202 19b9 0bd9 1eb9 d027 21b9
00000270: 3799 1cb9 c398 22b9 f9ed 24b9 a937 1eb9
00000280: 0537 24b9 0b75 26b9 3d25 0680 b8c1 0580
00000290: 42fd 0500 db4c 0600 91fc 0580 5178 0680
000002a0: 94f3 0500 89db 0600 6dfc 0500 f594 93ba
000002b0: ffe2 95ba b6ea 96ba daea 94ba 6341 97ba
000002c0: 394a 98ba ea23 95ba b577 97ba 8c77 98ba
000002d0: 51e5 66b7 b2ac 6fb7 2b6d 71b7 e964 72b7
000002e0: a59b 7bb7 7e6a 7db7 c249 70b7 7d60 79b7
000002f0: a644 7bb7 da7e 3fa4 7c08 01a4 5d5b d6a3
00000300: 1156 2fa4 c100 dca3 1149 bea3 3a87 20a4
00000310: 72b1 c0a3 25a1 b1a3 cc67 0500 9d65 0500
00000320: 0958 0580 7361 0500 da6a 0500 2458 0580
00000330: 1480 0500 7f73 0500 535a 0580 8d28 2bba
00000340: 04ce 2eba 395b 30ba 3843 2dba 63f8 30ba
00000350: 6087 32ba f0cf 2dba a47e 31ba 18fd 32ba
00000360: 533f 0bbb c58c 0cbb 1f25 0dbb 0cdf 0bbb
00000370: 802d 0dbb c0c4 0dbb f1ed 0bbb a13b 0dbb
00000380: d0cb 0dbb 2be9 26ba dd4f 2aba c9ae 2bba
00000390: 0b31 29ba 75a6 2cba 3207 2eba 01cc 29ba
000003a0: 8d3f 2dba be93 2eba bbf9 cab8 5ebd d0b8
000003b0: 9bce d1b8 571d d1b8 7c0e d7b8 711b d8b8
000003c0: 4c45 d2b8 9d30 d8b8 d23e d9b8 5772 99ba
000003d0: 5bc3 9bba d0ca 9cba 65c0 9aba 8219 9dba
000003e0: 5f21 9eba e4f3 9aba 5647 9dba 4444 9eba
000003f0: 7a58 9f18 3197 a018 0b29 a118 bb4c a018

encoder.2.bias f4 [32]
-4.90977e-40 -0.00017730467 0.25069338 0.008148236 0.034539424 -0.011741874 4.91266e-40 -0.0008994575
0.25011 0.26218134 0.15275855 -0.009211816 4.94525e-40 -4.93292e-40 4.9338e-40 -0.119616814
0.2169683 4.93976e-40 0.016196027 0.033176616 0.20312329 -0.004648148 -0.012621915 4.95091e-40
0.03227366 4.9314e-40 -4.9355e-40 -0.016514448 -0.019810602 -0.015056793 -0.010953091 -0.010022344
00000000: a558 0580 dcea 39b9 e25a 803e 2e80 053c
00000010: 3679 0d3d fd60 40bc 7359 0500 92c9 6bba
00000020: 6b0e 803e a23c 863e bd6c 1c3e 28ed 16bc
00000030: 8962 0500 195f 0580 585f 0500 a9f9 f4bd
00000040: f02c 5e3e 0161 0500 88ad 843c 34e4 073d
00000050: 8dff 4f3e 7e4f 98bb 26cc 4ebc 1d64 0500
00000060: 6331 043d ac5e 0500 d15f 0580 4f49 87bc
00000070: d849 a2bc c4b0 76bc 9874 33bc c234 24bc

encoder.4.weight f4 [64, 32, 3, 3]
-4.03842e-40 5.63805e-40 6.19124e-40 5.87867e-40 4.92807e-40 5.73319e-40 3.25403e-40 -5.2272e-40
4.36513e-40 3.1996018e-17 1.3890493e-16 -1.864879e-16 -6.454857e-17 -9.693669e-17 4.1079133e-18 9.815223e-17
-7.806405e-17 1.573169e-16 0.047446825 0.07243057 0.08317193 0.056002796 0.08141938 0.08975642
0.058838382 0.08223925 0.091004655 -0.0066606347 0.0024229165 -0.005570809 -0.019327952 -0.0012257522
0.00038230387 -0.022366801 -0.0018069596 0.010406029 0.0013315635 0.0062556537 0.004482406 -0.0023573355
0.0022739975 0.011810264 -0.007738806 -0.007107612 0.00785219 -0.02872699 -0.025162248 -0.018812682
-0.05598517 -0.052846536 -0.02092778 -0.0825866 -0.08573574 -0.0401647 -3.5304e-40 -2.89256e-40
2.8393e-40 -3.65184e-40 5.78141e-40 -7.20115e-40 5.09795e-40 -6.21256e-40 5.03e-43 -8.596926e-06
-8.338001e-06 -1.0154907e-05 -6.4981455e-06 -6.324074e-06 -8.257606e-06 -5.7524585e-06 -5.5788137e-06 -7.576183e-06
0.005081342 0.028798237 0.039908286 0.01091569 0.03646233 0.042567365 0.014704602 0.04175319
0.04620263 0.006627376 0.029642584 0.04298839 0.01307795 0.03672473 0.04424137 0.018209139
0.043357186 0.04773681 0.005042224 0.020175843 0.025080252 0.01045711 0.02845823 0.029977048
0.011551379 0.029146895 0.03220847 -0.0010596067 0.004978321 0.002983442 -0.016866466 -0.011370169
0.0042952774 -0.023197735 -0.01939744 0.0021750787 -6.30038e-40 4.84659e-40 -5.66329e-40 5.7692e-40
6.08448e-40 -5.28839e-40 5.16657e-40 6.04893e-40 -5.3542e-40 5.3501e-40 -4.99377e-40 5.14628e-40
5.23997e-40 5.26605e-40 -5.23922e-40 5.1087e-40 5.98504e-40 -5.2573e-40 5.47398e-40 5.72328e-40
-5.98382e-40 -6.07078e-40 -5.05893e-40 5.71091e-40 -5.96114e-40 4.92646e-40 -5.46945e-40 0.0026347938
0.0005706819 -0.0036983984 0.0032914355 0.00087231246 0.0007550803 0.00015376469 -0.0012930059 0.0026670268
0.011940566 0.032845024 0.040143795 0.01882713 0.04212578 0.04561974 0.021009726 0.04356205
0.04733648 -5.10129e-40 2.39797e-40 5.89502e-40 -5.2568e-40 5.33666e-40 -5.52711e-40 5.10848e-40
2.93463e-40 5.55615e-40 0.019083517 0.04029392 0.02495983 0.0035774722 0.040027738 0.039364126
-0.011201874 0.028329112 0.04580156 0.00070678425 -0.0029655516 0.008583318 0.008159808 -0.010023099
0.005246997 0.011240253 -0.011827569 -0.0072603864 0.012133918 0.031897925 0.040983703 0.018482452
0.038688313 0.04434039 0.02277696 0.04256572 0.045347806 0.027420074 0.030119061 0.028061183
0.027610688 0.027904052 0.03135385 0.024640191 0.020372322 0.026654458 0.0112443585 0.006796899
0.028199565 -0.016725894 -0.03696665 0.013568734 -0.043582585 -0.07907443 -0.020022158 -1.66138e-40
5.9205e-41 -1.495812e-39 6.17961e-40 2.5162e-40 -1.409011e-39 6.0286e-40 4.43385e-40 -1.430282e-39
-0.006694012 0.0016910614 -0.0050316933 -0.012125253 0.005723291 0.0021130345 -0.014844072 0.00491296
0.010691396 -5.23559e-40 -5.10801e-40 5.51932e-40 -6.05812e-40 -5.17202e-40 5.15641e-40 -6.02553e-40
5.30691e-40 -5.13544e-40 -5.84728e-40 -5.51663e-40 -5.27799e-40 5.77739e-40 5.52015e-40 -5.23951e-40
5.11363e-40 5.09848e-40 5.72757e-40 0.0075481175 0.013610496 0.028753333 -0.033878338 -0.032511495
0.017423837 -0.079392366 -0.08987424 -0.016455162 -0.0008478329 0.003338541 0.0085812 -0.023746036
00000000: bf65 0480 a923 0600 debd 0600 bc66 0600
00000010: bf5d 0500 2e3e 0600 178b 0300 21b1 0580
00000020: d2c0 0400 3b8e 1324 8025 2025 8301 57a5
00000030: c0d6 94a4 5285 dfa4 258e 9722 da52 e224
00000040: e200 b4a4 c15f 3525 9a57 423d 7b56 943d
00000050: 0b56 aa3d 3063 653d 34bf a63d 37d2 b73d
00000060: 8400 713d 0d6d a83d a660 ba3d 7441 dabb
00000070: cbc9 1e3b 558b b6bb a755 9ebc 6ba9 a0ba
00000080: f56f c839 953a b7bc 81d7 ecba 0d7e 2a3c
00000090: db87 ae3a 3afc cc3b 26e1 923b 877d 1abb
000000a0: 5907 153b d67f 413c cf95 fdbb f9e6 e8bb
000000b0: 79a6 003c dd54 ebbc 0f21 cebc 0e1d 9abc
000000c0: b550 65bd 9c75 58bd bc70 abbc 2a23 a9bd
000000d0: 3896 afbd be83 24bd 22d8 0380 5426 0380
000000e0: 7b17 0300 fcf9 0380 9f4b 0600 63d7 0780
000000f0: 1a8d 0500 cfc3 0680 6701 0000 843b 10b7
00000100: 71e3 0bb7 fe5e 2ab7 a50a dab6 6233 d4b6
00000110: 268a 0ab7 3e05 c1b6 a531 bbb6 eb36 feb6
00000120: 6381 a63b 48ea eb3c df76 233d b9d7 323c
00000130: 8659 153d 1e5b 2e3d 92eb 703c 6505 2b3d
00000140: f83e 3d3d 762a d93b 01d5 f23c 9814 303d
00000150: e644 563c ac6c 163d 7036 353d 552b 953c
00000160: 4e97 313d ac87 433d 3e39 a53b cf47 a53c
00000170: 1a75 cd3c 4c54 2b3c 3c21 e93c 6d92 f53c
00000180: ff41 3d3c 78c5 ee3c 07ed 033d 80e2 8aba
00000190: 2f21 a33b da85 433b 8b2b 8abc f249 3abc
000001a0: 66bf 8c3b 2d09 bebc 61e7 9ebc c48b 0e3b
000001b0: 4adc 0680 0847 0500 b22a 0680 3848 0600
000001c0: 1ba0 0600 30c2 0580 3ba0 0500 3296 0600
000001d0: 88d4 0580 64d3 0500 0f70 0580 939a 0500
000001e0: b1b4 0500 f6bb 0500 7bb4 0580 1990 0500
000001f0: 6384 0600 85b9 0580 ecf5 0500 6b3b 0600
00000200: 0c84 0680 499c 0680 3982 0580 f837 0600
00000210: b97d 0680 4c5d 0500 a9f4 0580 81ac 2c3b
00000220: d099 153a d460 72bb 20b5 573b e6ab 643a
00000230: 95f0 453a e53b 2139 147a a9ba 49c9 2e3b
00000240: 5da2 433c 8188 063d d26d 243d 5a3b 9a3c
00000250: 158c 2c3d c4db 3a3d 971c ac3c 1f6e 323d
00000260: e6e3 413d 088e 0580 759c 0200 4b6b 0600
00000270: 62b9 0580 a5cf 0500 bc04 0680 0990 0500
00000280: 0e32 0300 d40c 0600 0955 9c3c 3d0b 253d
00000290: 8f78 cc3c 0674 6a3b 20f4 233d 473c 213d
000002a0: 1188 37bc 7412 e83c 6b9a 3b3d 7d47 393a
000002b0: b359 42bb 0ca1 0c3c b7b0 053c ed37 24bc
000002c0: 00ef ab3b 0a29 383c 6cc8 41bc 89e8 edbb
000002d0: 57cd 463c 66a7 023d 87de 273d 8368 973c
000002e0: a377 1e3d 459e 353d bf96 ba3c 6459 2e3d
000002f0: 9fbe 393d 10a0 e03c 40bc f63c 91e0 e53c
00000300: cf2f e23c 0a97 e43c e56c 003d 3ada c93c
00000310: dbe3 a63c 735a da3c 423a 383c 85b8 de3b
00000320: c602 e73c be04 89bc 586a 17bd 654f 5e3c
00000330: a783 32bd c6f1 a1bd 8205 a4bc 20cf 0180
00000340: 0aa5 0000 b749 1080 a0ba 0600 6abd 0200
00000350: c057 0f80 8790 0600 fad3 0400 0b93 0f80
00000360: 7159 dbbb 9ba6 dd3a e7e0 a4bb ffa8 46bc
00000370: 728a bb3b d67a 0a3b 8d34 73bc e5fc a03b
00000380: f72a 2f3c 78b3 0580 e88f 0580 9002 0600
00000390: c298 0680 c0a1 0580 669d 0500 ac8f 0680
000003a0: 5ac7 0500 8d97 0580 fc5d 0680 d001 0680
000003b0: 4abf 0580 804a 0600 cb02 0600 90b4 0580
000003c0: 7991 0500 408d 0500 9d3c 0600 3356 f73b
000003d0: 8ffe 5e3c 1c8c eb3c 03c4 0abd c62a 05bd
000003e0: 6fbc 8e3c 7798 a2bd fc0f b8bd facc 86bc
000003f0: 1a41 5eba 6ccb 5a3b 2998 0c3c 0c87 c2bc

encoder.4.bias f4 [64]
0.020671505 -0.0017266871 0.006066243 0.0015700985 -4.96259e-40 0.008863444 0.0016962436 0.013051274
0.0020066665 -0.077068135 0.009393997 0.00827746 0.016575225 -0.0009918688 -3.856397e-05 0.0011995309
0.014671223 0.0025922644 0.0019956662 0.0076923487 0.0022485708 0.01340864 -0.049479738 -0.0017996015
0.009915654 0.0016361475 0.0015698612 0.02090934 0.0012147696 0.0063872174 0.0011901419 0.013269484
9.935812e-17 0.022464393 0.014192165 -0.0006972081 0.050409585 0.008551683 0.0019150154 -0.040128984
0.0021486043 -0.00068162696 0.036557686 -0.0019167761 0.024976576 -0.0002741278 1.4363189e-18 0.002134856
0.011300097 0.014034197 0.013839271 -5.1861907e-11 0.01771233 0.0018716797 0.012572109 0.015798148
0.0041475343 0.0033298046 -0.0029012517 0.015074053 -0.0039849365 0.0017975381 6.7386374e-12 0.0111855725
00000000: 4a57 a93c 0152 e2ba 56c7 c63b c3cb cd3a
00000010: 5e67 0580 fb37 113c 7e54 de3a 03d5 553c
00000020: 4782 033b e6d5 9dbd 47e9 193c 2f9e 073c
00000030: c4c8 873c 9801 82ba bfbf 21b8 9439 9d3a
00000040: 925f 703c fbe2 293b b9c9 023b 1910 fc3b
00000050: c25c 133b eaaf 5b3c 44ab 4abd 9be0 ebba
00000060: 4475 223c 0074 d63a cdc3 cd3a 104a ab3c
00000070: e738 9f3a dd4b d13b 89fe 9b3a 4068 593c
00000080: af1a e524 3f07 b83c 4186 683c d8c4 36ba
00000090: 487a 4e3d 5c1c 0c3c 4101 fb3a 4a5e 24bd
000000a0: 99cf 0c3b 36af 32ba 83bd 153d 553c fbba
000000b0: ad9b cc3c cfb8 8fb9 98f6 d321 f1e8 0b3b
000000c0: 0b24 393c b0ef 653c 1cbe 623c 5117 64ae
000000d0: 7319 913c 2653 f53a 3ffb 4d3c 1e6b 813c
000000e0: 0ae8 873b da38 5a3b ed22 3ebb 29f9 763c
000000f0: 1294 82bb 5f9b eb3a 4018 ed2c b143 373c

encoder.6.weight f4 [128, 64, 3, 3]
0.0023431708 -0.018755723 -0.015130916 0.010473263 -0.0117586 -0.008673393 0.02271254 2.4872346e-05
0.016452722 -0.0013901982 -0.0014737782 -0.0014115082 -0.0014652075 -0.0015405219 -0.0014486639 -0.0014763663
-0.001537593 -0.0014831153 0.01358667 -0.005004284 -0.026009237 0.009620797 -0.004483292 -0.022347517
0.0010488793 -0.0067817993 -0.008904244 0.00025477956 -0.0019627432 -0.00042227822 0.00030424463 -0.0024141911
-0.0006231687 -0.00046728816 -0.0005349643 -0.00022216699 -4.9897e-40 -4.94189e-40 -4.92674e-40 -4.9268e-40
-5.02859e-40 -4.92349e-40 -5.0117e-40 -4.92503e-40 -5.01989e-40 -0.0067362743 -0.017200347 -0.004214224
-0.011463171 -0.01706547 -0.00610846 -0.010570794 -0.010818629 -0.00066949136 0.0054758224 0.0076086055
0.007736785 0.003929804 0.006109521 0.0059641744 0.003315795 0.0039344877 0.005158855 -0.010549037
-0.00591959 0.0034922813 -0.0117182005 -0.004327404 0.0036410573 0.004764782 -0.0041973055 0.011616017
9.98065e-05 -0.0027744912 -0.00091740454 0.0002142188 -0.003388954 -0.0009884725 -0.0011405885 -0.0005771858
-0.00062496314 -0.01853691 -0.020232178 -0.014587313 -0.009743877 -0.014765252 -0.0136078345 0.011486522
-0.011988096 0.010789842 0.008542958 0.005905129 0.009478602 0.001977478 -0.0061286106 0.0101761585
-0.005007296 -0.00069770793 -0.0008428022 0.0067506637 0.008093739 -0.006039183 0.004458716 0.0061066356
-0.0077597555 0.0012543825 0.007982499 -0.019258235 0.034502298 0.036531296 0.03840166 0.03010507
0.034777153 0.037111856 0.028074225 0.032008782 0.033255722 0.0045129946 0.0024686775 0.0027789867
0.0050894083 0.0039225025 0.00094061624 0.004291194 0.004636093 0.00106657 -2.2471557e-17 3.369167e-17
1.434299e-17 -4.603576e-17 -1.0271854e-17 2.514537e-17 5.0792552e-17 -5.0468443e-17 -4.9582165e-17 -0.020317951
0.0100695435 0.035103135 0.00961119 -0.009952953 0.0034611803 -0.014547013 0.004046377 -0.0048779394
0.029377118 0.032255687 0.03427922 0.025831752 0.030631173 0.032542516 0.024947748 0.028530415
0.029606242 -0.0020892296 -0.0048872544 -0.0014178809 -0.0035230871 -0.004896954 -0.002119866 -0.0032163644
-0.0032843235 -0.0009933306 0.008893588 0.011227888 0.01139206 0.0067613544 0.009644722 0.009435497
0.005422246 0.0066830595 0.0077516492 0.009311991 0.009223516 0.011220827 0.005698951 -8.379152e-05
0.0073061036 0.006717741 0.003848607 0.011006682 -6.994713e-05 -0.001925917 -0.001290634 -2.0796082e-05
-0.0027572263 -0.0010619969 -0.0013961955 -0.00010824115 -0.0010024129 0.0024818631 0.006069465 -0.011342983
0.00685497 0.0076186256 -0.0087194545 -0.0058098165 0.009357894 0.0052629104 -0.0017339491 -0.02348931
0.0084898 -0.02069124 -0.032711625 0.001699087 0.013238417 -0.025281146 0.024102684 3.4445875e-17
-6.485273e-17 -6.457956e-17 2.9290016e-17 2.0620223e-17 7.390449e-18 2.5918394e-17 9.02038e-18 1.8726325e-17
-0.0004842704 -0.0029105474 -0.010287133 -0.013236624 -0.01453768 0.013231856 0.0042867702 -0.017693594
0.011989603 0.00032799933 -0.0022080056 -0.00021722127 0.00020209506 -0.002687222 -0.0005117238 -0.000590208
-0.0007558066 9.681574e-05 0.0053287414 0.0075365473 0.0076184073 0.003771488 0.0060566887 0.00580193
0.0031231886 0.0037550621 0.0048943786 -0.0055733747 0.007819823 0.02625279 0.002617762 -0.036560267
-0.0016184024 -0.012187589 0.0038432314 -0.02132087 0.027601402 -0.0062436727 -0.0069836965 0.004475188
00000000: e28f 193b 9aa5 99bc a9e7 77bc 0d98 2b3c
00000010: 25a7 40bc d91a 0ebc a60f ba3c f5a4 d037
00000020: dcc7 863c 5037 b6ba ca2b c1ba 5b02 b9ba
00000030: 350c c0ba 56eb c9ba 18e1 bdba a282 c1ba
00000040: 0f89 c9ba 1765 c2ba a09a 5e3c fafa a3bb
00000050: 5311 d5bc 8ca0 1d3c 94e8 92bb 2412 b7bc
00000060: 8d7a 893a db39 debb 1be3 11bc ef93 8539
00000070: 5ea1 00bb 3965 ddb9 0683 9f39 6837 1ebb
00000080: 255c 23ba 5bfe f4b9 d93c 0cba 7ff5 68b9
00000090: ed6e 0580 9961 0580 605d 0580 645d 0580
000000a0: c479 0580 785c 0580 0f75 0580 e65c 0580
000000b0: 5777 0580 f7bb dcbb bee7 8cbc 7917 8abb
000000c0: 06d0 3bbc e2cc 8bbc 7a29 c8bb 2031 2dbc
000000d0: 9e40 31bc ce80 2fba 876e b33b 9c51 f93b
000000e0: db84 fd3b 96c5 803b 6032 c83b 1f6f c33b
000000f0: cf4d 593b e0ec 803b 9d0b a93b ded5 2cbc
00000100: 1ff9 c1bb c2de 643b b2fd 3fbc e5cc 8dbb
00000110: ce9e 6e3b e321 9c3b 8d89 89bb 1b51 3e3c
00000120: 354f d138 3dd4 35bb fa7d 70ba ec9f 6039
00000130: 3719 5ebb a28f 81ba cd7f 95ba 494e 17ba
00000140: 91d4 23ba b8da 97bc f4bd a5bc a0ff 6ebc
00000150: c8a4 1fbc f5e9 71bc 65f3 5ebc f731 3c3c
00000160: b869 44bc e1c7 303c c3f7 0b3c d07f c13b
00000170: 234c 1b3c 9398 013b 83d2 c8bb e7b9 263c
00000180: 3e14 a4bb 63e6 36ba 80ef 5cba ac34 dd3b
00000190: 9a9b 043c 57e4 c5bb 6c1a 923b 2c1a c83b
000001a0: 8c45 febb 186a a43a 07c9 023c 72c3 9dbc
000001b0: 4852 0d3d d7a1 153d 0f4b 1d3d e89e f63c
000001c0: 7d72 0e3d 9a02 183d ebfb e53c a41b 033d
000001d0: 2737 083d bee1 933b 89c9 213b a91f 363b
000001e0: 0dc5 a63b 5688 803b b093 763a 259d 8c3b
000001f0: 5eea 973b 27cc 8b3a 7743 cfa3 1a60 1b24
00000200: 6d4a 8423 6f4d 54a4 767b 3da3 d4ec e723
00000210: 433d 6a24 9fbe 68a4 4aa8 64a4 d571 a6bc
00000220: bafa 243c 4ec8 0f3d 4178 1d3c b611 23bc
00000230: f8d4 623b 9856 6ebc 7897 843b 1fd7 9fbb
00000240: 48a8 f03c 8a1e 043d 5e68 0c3d 1c9d d33c
00000250: 3aee fa3c 4d4b 053d 385f cc3c 9eb8 e93c
00000260: ca88 f23c 75eb 08bb 4325 a0bb 30d8 b9ba
00000270: 98e3 66bb a176 a0bb 73ed 0abb a4c9 52bb
00000280: ce3d 57bb a532 82ba 69b6 113c 2df5 373c
00000290: c3a5 3a3c 5a8e dd3b e504 1e3c 5897 1a3c
000002a0: 19ad b13b 91fd da3b 8c01 fe3b 5291 183c
000002b0: 3b1e 173c 8fd7 373c 44be ba3b 3bb9 afb8
000002c0: 0a68 ef3b 7f20 dc3b e938 7c3b 5f55 343c
000002d0: 94b0 92b8 0d6f fcba 7e2a a9ba 3f73 aeb7
000002e0: 95b2 34bb b432 8bba 8c00 b7ba 86ff e2b8
000002f0: 6563 83ba c1a6 223b 5de2 c63b ebd7 39bc
00000300: a89f e03b aaa5 f93b 0bdc 0ebc 4660 bebb
00000310: da51 193c 7e74 ac3b ad45 e3ba a76c c0bc
00000320: cd18 0b3c ad80 a9bc a0fc 05bd e6b3 de3a
00000330: f2e5 583c 681a cfbc fe72 c53c 83da 1e24
00000340: 4b8a 95a4 0be9 94a4 8c13 0724 2030 be23
00000350: 6954 0823 140e ef23 8a65 2623 49b8 ac23
00000360: ace5 fdb9 e2be 3ebb 5d8b 28bc 6dde 58bc
00000370: 732f 6ebc 6dca 583c 0978 8c3b 28f2 90bc
00000380: 0a70 443c 53f7 ab39 30b4 10bb e4c5 63b9
00000390: 7be9 5339 1b1c 30bb 3425 06ba 30b8 1aba
000003a0: 5321 46ba 8e09 cb38 b99c ae3b 24f5 f63b
000003b0: d5a3 f93b 122b 773b 3077 c63b 1e1e be3b
000003c0: 69ae 4c3b 7d17 763b 0661 a03b dba0 b6bb
000003d0: b71e 003c 1710 d73c c28e 2b3b 38c0 15bd
000003e0: 9320 d4ba 74ae 47bc b9de 7b3b 1ba9 aebc
000003f0: 561c e23c b997 ccbb 7ed7 e4bb 99a4 923b

encoder.6.bias f4 [128]
-0.00065592706 -0.0012776491 -0.011829197 -0.00654473 -0.0044518155 -0.002876758 -0.0006571478 -0.0023311148
-0.011257211 0.0017535437 -4.3294855e-05 -0.0038394376 0.0009710068 0.0021469453 -0.008050332 -0.0015898453
0.007792242 -0.0051781787 -0.00071873097 5.029627e-07 -0.0050073476 -0.0015052683 -0.005117663 0.0013066713
0.0014982215 -0.0028264844 -0.00227535 -0.008667069 -0.038986415 -0.008860767 -0.0051034745 -0.0015566995
2.4307491e-17 0.0029166683 -0.0025032947 -0.00077250716 -0.00089322234 -0.00044064655 -0.004722324 -0.0048388126
0.0070861126 -0.004361168 -0.00015566313 0.0021113902 -0.017173147 0.0032508173 -0.0018007405 -0.002399247
-0.0007115011 -0.0016296547 0.011476422 0.0016297102 -0.0024045098 -0.0026872896 -0.0027129757 -9.160701e-12
0.002223838 -0.0029999611 0.0061074058 -0.0028297203 0.0037257648 -6.598956e-08 0.0051811966 -0.010763899
0.0018357219 0.0019134872 0.0007427693 0.011720334 0.00020567952 -0.00787448 0.0015839566 -0.009919575
0.0015636293 -0.0087168785 -0.0039098915 0.005847837 -0.0010697122 0.0014966822 0.0091176685 0.03798406
0.0019278595 -0.0004567199 -0.0031458626 0.0024083632 -9.947922e-06 0.0067663775 -0.006473434 -0.0018820963
-0.0023413368 0.0054428033 0.0020949785 0.0007330202 -0.0013632621 0.0022842383 0.0005655425 -0.0050093667
-0.0026447556 -0.002383096 -0.0006952937 0.003012443 -0.0007058109 0.0068836412 0.009901402 2.4016957e-05
5.0071285e-05 0.0013307899 0.0037422054 0.008654189 -0.0015295068 -0.0005092055 -0.0010951197 -0.0021634111
0.0018705458 -0.0017248375 -0.0058373413 -0.0012144544 -0.006746422 -0.0066349143 -0.00068647426 0.0015883856
-0.007819605 -0.0028797507 -0.0053727715 0.00080691435 -0.004239971 -0.005364363 -0.00056169846 -0.0008027192
00000000: 85f2 2bba ca76 a7ba 40cf 41bc 2d75 d6bb
00000010: 89e0 91bb fe87 3cbb 7144 2cba 9ec5 18bb
00000020: 2a70 38bc 2ad7 e53a 7f97 35b8 139f 7bbb
00000030: 2a8b 7e3a c4b3 0c3b 8ae5 03bc 5b62 d0ba
00000040: 1056 ff3b b6ad a9bb 3869 3cba 5503 0735
00000050: ad14 a4bb 6c4c c5ba 12b2 a7bb 9d44 ab3a
00000060: f95f c43a 8a3c 39bb 0a1e 15bb 5200 0ebc
00000070: 38b0 1fbd c02c 11bc 0c3b a7bb 2b0a ccba
00000080: 7132 e023 9325 3f3b 510e 24bb 1482 4aba
00000090: 2327 6aba 9406 e7b9 babd 9abb e78e 9ebb
000000a0: 9f32 e83b 21e8 8ebb 8139 23b9 405f 0a3b
000000b0: b3ae 8cbc aa0b 553b d306 ecba af3c 1dbb
000000c0: 0884 3aba 239a d5ba 9a07 3c3c 009c d53a
000000d0: fb94 1dbb 3d1d 30bb 2ecc 31bb 2128 21ad
000000e0: cfbd 113b ff9a 44bb a220 c83b d472 39bb
000000f0: f62b 743b 25b6 8db3 07c7 a93b 115b 30bc
00000100: 9b9c f03a facd fa3a 67b6 423a a506 403c
00000110: adab 5739 f703 01bc c49c cf3a b785 22bc
00000120: b1f2 cc3a 3dd1 0ebc 8c1e 80bb 369f bf3b
00000130: 9635 8cba 522c c43a 4662 153c 2c95 1b3d
00000140: 3bb0 fc3a e873 efb9 d12a 4ebb a1d5 1d3b
00000150: 00e6 26b7 7db8 dd3b 1a1f d4bb acb0 f6ba
00000160: 1d71 19bb 8b59 b23b e84b 093b 2728 403a
00000170: 7caf b2ba 29b3 153b ea40 143a 9d25 a4bb
00000180: a353 2dbb b72d 1cbb 5f44 36ba 686c 453b
00000190: 2b06 39ba 2b90 e13b 7d39 223c 0678 c937
000001a0: a203 5238 e66d ae3a ca3f 753b 4dca 0d3c
000001b0: bb79 c8ba 347c 05ba 1f8a 8fba 04c8 0dbb
000001c0: 1a2d f53a f113 e2ba 2b47 bfbb 542e 9fba
000001d0: 1711 ddbb b269 d9bb 82f4 33ba 6031 d03a
000001e0: cd1d 00bc 33ba 3cbb 130e b0bb 1b87 533a
000001f0: 74ef 8abb 8ac7 afbb f23e 13ba 936d 52ba

decoder.0.weight f4 [128, 64, 3, 3]
-0.00536167 8.493796e-18 -0.005756477 0.01175084 0.0045042955 0.0048018224 0.023643553 -4.2621672e-17
0.030818677 0.01284788 -4.0922355e-06 0.008371723 0.0082953395 -0.010824498 -0.032414448 -0.0009718816
0.027861983 -0.023736175 0.0089632785 6.615841e-16 0.0061921016 -0.012966843 -0.02783474 -0.00914487
-0.020466838 0.0007026883 -0.0017926092 -0.012389044 0.039726075 -0.00014560611 -0.020963399 0.073599756
0.019238455 -0.011753427 0.012749545 -0.009211151 -0.0058813677 4.93229e-40 -0.017984018 -0.0023630122
-0.0084756045 -0.0031257751 -0.0066068824 4.9193e-40 -0.009632998 -0.006377382 -0.04078112 -0.008668096
-0.0053561716 0.012647249 -0.0062795617 -0.0064623463 -0.020675508 -0.008163639 -0.0018520819 -0.0006517212
0.005338749 -0.016031934 -0.0062328707 0.0069396137 -0.008403347 0.0034112264 -0.005329897 -0.002424739
0.0046603126 -1.7233078e-05 4.98438e-40 -0.0059952713 4.95743e-40 -0.003038795 -0.012245619 -0.00046813223
-4.92918e-40 -0.0069544152 4.92004e-40 0.018010316 -0.02236497 -0.026645873 -4.90937e-40 0.032635693
-4.9476e-40 0.0048677553 -0.0019337134 0.000984548 0.012123156 -0.024667291 -0.0494548 0.007584937
-0.026153024 0.014153071 0.0105759 0.02229984 0.03168716 -0.00036668513 0.017326683 -0.0005344589
0.0029438867 0.019466648 0.03163346 -3.1364095e-07 -0.0004263899 3.7445618e-05 -0.004586974 -0.017682211
-0.0024911202 -0.00012354179 -0.0021586649 -6.725684e-05 -0.005997611 -0.0017355619 0.0007691785 -0.0105622215
-8.151806e-05 -0.002817764 0.0028506888 -0.0011572837 0.01414419 -0.00171607 -0.00130497 -0.010160988
-0.006305953 -0.011243565 -0.014669666 -0.0015794525 0.0022121414 0.003038414 -0.0010189513 -3.8850053e-06
0.0053744973 0.0038304196 -0.022869041 -0.012503717 -0.023880886 4.4207417e-07 -0.013467846 4.94283e-40
-0.008014828 4.947e-40 -0.006363345 -0.004019877 0.0036576865 4.93924e-40 -0.000115887975 -5.93943e-40
-0.0012732258 0.0030459827 -0.004005608 0.005566047 0.021885239 4.511516e-05 -0.0075217653 0.004585307
-0.0022414932 -0.016121618 -0.010240248 0.020797143 -0.028406264 -0.030271823 0.022767745 -0.005560858
-0.0052378066 0.01736649 0.0016018635 -4.92848e-40 -0.021371469 -1.4922069e-32 -0.024246667 -1.0270031e-30
0.022101607 -4.94047e-40 0.016922152 -0.008325379 -0.018534638 -0.01043273 0.016336197 -0.00016165881
0.027124446 -0.010340869 0.012070701 -0.008571222 4.94241e-40 -0.0019518321 -4.94832e-40 0.018387632
-0.018391881 -0.0050777406 -4.91693e-40 0.02986588 -4.92486e-40 -0.0010613903 -0.0036315739 0.0074856034
-0.015809316 -0.015073567 0.00657913 0.007522644 -0.004749354 -0.0022212835 -0.0007332032 -0.012167517
-0.00027541467 -0.0009889309 -0.019771665 -0.0015144888 -0.0037789645 0.009081076 -0.003690296 -0.02816266
-0.00020071943 0.0030330566 -0.015764607 -0.015162214 0.029739624 -0.048238445 -0.00022869954 0.033612147
-0.01037501 0.010286038 0.012094799 0.007283602 0.02979137 -0.00512443 0.038525164 -0.0002905405
-0.006824801 -0.024525106 -5.2515247e-06 -0.020596819 -0.023278369 -0.026648633 -0.00090003735 0.005442177
-3.0514791e-05 0.053740554 -0.010598567 0.0046290867 -0.025458934 -0.0097536305 -0.033344943 -0.03781255
-0.006700249 0.029612238 -0.010710397 -0.004746043 -6.05735e-40 -0.026588755 0.0061916895 -1.8120573e-30
0.0021273543 0.05285445 5.52128e-40 0.033542573 -0.001919259 -0.009785954 -0.00175804 -0.0062919934
00000000: f3b0 afbb d1ae 1c23 d4a0 bcbb 9886 403c
00000010: c598 933b 9b58 9d3b 20b0 c13c ca8e 44a4
00000020: 7377 fc3c ea7f 523c 0950 89b6 8d29 093c
00000030: 2de9 073c 3c59 31bc 03c5 04bd dfc5 7eba
00000040: d03e e43c 5e72 c2bc b7da 123c 4ab0 3e26
00000050: 1de7 ca3b e272 54bc ae05 e4bc 5dd4 15bc
00000060: 12aa a7bc 9d34 383a fcf5 eaba 6bfb 4abc
00000070: cfb7 223d d8ad 18b9 6fbb abbc 78bb 963d
00000080: f799 9d3c 7291 40bc 78e3 503c 5eea 16bc
00000090: 7db8 c0bb ec5e 0500 3853 93bc c4dc 1abb
000000a0: 43dd 0abc ced9 4cbb 8c7e d8bb 4d5b 0500
000000b0: b9d3 1dbc 5cf9 d0bb 1b0a 27bd a104 0ebc
000000c0: d382 afbb 6836 4f3c c8c4 cdbb 17c2 d3bb
000000d0: af5f a9bc c9c0 05bc 8ec1 f2ba 45d8 2aba
000000e0: acf0 ae3b 6755 83bc 1c3d ccbb b365 e33b
000000f0: 31ae 09bc e28e 5f3b 6ba6 aebb 5fe8 1ebb
00000100: 89b5 983b c18f 90b7 716d 0500 fb73 c4bb
00000110: ee65 0500 8526 47bb d9a1 48bc a56f f5b9
00000120: 0e5e 0580 dde1 e3bb 825b 0500 5f8a 933c
00000130: be36 b7bc 7248 dabc 8858 0580 01ad 053d
00000140: 3163 0580 b181 9f3b a874 fdba f30b 813a
00000150: 34a0 463c 0f13 cabc 1e91 4abd 108b f83b
00000160: de3e d6bc 48e2 673c 8a46 2d3c 27ae b63c
00000170: 65ca 013d a53f c0b9 b0f0 8d3c ee1a 0cba
00000180: 39ee 403b 8578 9f3c 1692 013d 7c62 a8b4
00000190: 158d dfb9 ed0e 1d38 544e 96bb 49da 90bc
000001a0: 1042 23bb ff8a 01b9 6378 0dbb 3e0c 8db8
000001b0: 9c87 c4bb cb7b e3ba b2a2 493a 2b0d 2dbc
000001c0: adf4 aab8 3caa 38bb 9fd2 3a3b ffaf 97ba
000001d0: 08bd 673c c1ed e0ba 870b abba 467a 26bc
000001e0: 2ba2 cebb ee36 38bc 0a59 70bc a205 cfba
000001f0: 93f9 103b 2120 473b 558e 85ba f15b 82b6
00000200: 8d1c b03b c707 7b3b db57 bbbc 64dc 4cbc
00000210: d9a1 c3bc 3656 ed34 3ea8 5cbc dc61 0500
00000220: a050 03bc 0663 0500 9b83 d0bb 2cb9 83bb
00000230: ccb5 6f3b dc60 0500 e208 f3b8 ac77 0680
00000240: 5ee2 a6ba 1c9f 473b 7a41 83bb 6363 b63b
00000250: ac48 b33c 093a 3d38 2479 f6bb 5840 963b
00000260: 04e6 12bb 7c11 84bc b7c6 27bc c55e aa3c
00000270: 41b4 e8bc 9dfc f7bc 6c83 ba3c dc37 b6bb
00000280: e8a1 abbb 2b44 8e3c 9ff5 d13a dc5d 0580
00000290: 3813 afbc aaf5 9a8a f2a0 c6bc 0aa4 a68d
000002a0: 6e0e b53c 3461 0580 53a0 8a3c 2c67 08bc
000002b0: f4d5 97bc 0bee 2abc 7dd3 853c f582 29b9
000002c0: 1634 de3c c06c 29bc 31c4 453c 506e 0cbc
000002d0: be61 0500 9ed4 ffba 6463 0580 a9a1 963c
000002e0: 92aa 96bc 2d63 a6bb a45a 0580 4aa9 f43c
000002f0: da5c 0580 591e 8bba b3ff 6dbb cb49 f53b
00000300: 8a82 81bc 1ff7 76bc be95 d73b 8380 f63b
00000310: 78a0 9bbb f492 11bb 6f34 40ba 445a 47bc
00000320: 8865 90b9 049f 81ba 30f8 a1bc d081 c6ba
00000330: 81a8 77bb cbc8 143c e5d8 71bb 61b5 e6bc
00000340: 3678 52b9 3fc6 463b c724 81bc ef6a 78bc
00000350: 83a0 f33c ad95 45bd 11cf 6fb9 e4ac 093d
00000360: f2fb 29bc c586 283c 4429 463c 48ab ee3b
00000370: 080d f43c d6ea a7bb 90cc 1d3d b053 98b9
00000380: 95a2 dfbb e0e8 c8bc 4136 b0b6 a9ba a8bc
00000390: 47b2 bebc 3c4e dabc 7cf0 6bba 4a54 b23b
000003a0: 04fa ffb7 0e1f 5c3d 9da5 2dbc 98af 973b
000003b0: 418f d0bc b1cd 1fbc b594 08bd 55e1 1abd
000003c0: c38d dbbb 5d95 f23c a97a 2fbc b284 9bbb
000003d0: 8b98 0680 a9d0 d9bc a8e3 ca3b f502 138e
000003e0: 156b 0b3b e87d 583d 1c03 0600 f063 093d
000003f0: a58f fbba 4455 20bc 096e e6ba 112d cebb

decoder.0.bias f4 [64]
-0.010299706 -0.039338335 -0.015700301 0.06907545 -0.008152734 0.009581588 0.018553438 -0.047846425
-0.0056866645 -0.02818965 -0.0018783754 0.001113714 0.024260797 -0.046812166 -0.0076202033 -0.02600506
-0.0026497918 -0.0013276018 -0.007086993 -0.013562401 -0.01225648 0.01379115 -0.010337036 -0.00028557362
-0.070718646 0.0004186206 0.04025232 -0.011587687 0.0020224676 -0.0020093448 -0.038093045 -0.013505029
-0.0024874164 0.022739882 0.013641028 -0.0010810029 -0.02587289 -0.0004387783 -0.0016090912 0.1598856
-0.01474372 -0.004056831 -0.01287006 0.014002072 0.00060217205 -0.078108445 0.033216964 0.022391737
0.0055722822 -0.03657732 0.00999729 -0.036759403 -0.023903932 -0.0066977157 0.022382187 -0.03353362
-0.021617355 -0.020999206 -0.015391534 0.0013786338 0.030981772 -0.012791877 -0.0035180163 -0.016498828
00000000: 19c0 28bc 3c21 21bd eb9d 80bc 6e77 8d3d
00000010: 0b93 05bc 18fc 1c3c 61fd 973c 9dfa 43bd
00000020: 3357 babb fbed e6bc d233 f6ba 0afa 913a
00000030: 94be c63c 1dbe 3fbd e6b2 f9bb 9008 d5bc
00000040: 21a8 2dbb ed02 aeba 023a e8bb d534 5ebc
00000050: 67cf 48bc 47f4 613c ac5c 29bc 0bb9 95b9
00000060: f0d4 90bd 4e7a db39 9edf 243d 48da 3dbc
00000070: 608b 043b 36af 03bb 7407 1cbd 3244 5dbc
00000080: ec03 23bb fd48 ba3c 9e7e 5f3c 70b0 8dba
00000090: 62f3 d3bc d40b e6b9 24e8 d2ba 0db9 233e
000000a0: a58f 71bc 2aef 84bb f2dc 52bc f268 653c
000000b0: 15db 1d3a 52f7 9fbd 830e 083d e06e b73c
000000c0: b197 b63b 1ad2 15bd accb 233c 0791 16bd
000000d0: 2ed2 c3bc 8378 dbbb d95a b73c 8d5a 09bd
000000e0: e116 b1bc 8706 acbc c62c 7cbc 46b3 b43a
000000f0: 7ccd fd3c 0595 51bc 858e 66bb 8d28 87bc

decoder.2.weight f4 [64, 32, 3, 3]
0.036387112 -0.0014048001 -0.023020918 0.052691508 0.009832366 -0.03323496 0.033661865 0.005400412
-0.02905173 0.0078399945 0.01006443 -0.018726772 -0.025315396 0.03975274 -0.011566226 0.0005540939
0.007002563 -0.020124482 -0.022490365 -0.0076510385 0.0045612436 -0.025522904 -0.022626828 0.0072168177
-0.014028014 -0.009311485 0.004831152 0.007483559 -0.007387798 -0.018119624 -0.012488229 0.021143956
-0.0017768262 -0.0012848277 -0.0046089394 -0.0017951917 -0.0037433316 0.005250554 -0.029203864 0.005913737
0.015186287 -0.03362684 -0.0059778364 0.008881015 -0.02813653 -0.0023398916 -0.0025111525 -0.010906706
0.0065776594 0.0030701875 -0.00832298 0.0033256137 0.0070181093 -0.007919317 -0.007865126 -0.021018296
0.021023193 0.011416081 -0.05705383 0.011525204 0.00887528 -0.02705633 0.006275366 -0.002241123
0.010521778 0.006652644 0.008860943 0.021300672 -0.008002328 0.018126883 0.024897471 -0.010330802
0.043712158 -0.020541998 -0.06887241 0.02083779 -0.008454463 -0.07434321 0.055174846 0.004635769
-0.07264467 -0.022749357 0.008282616 0.040699195 -0.03941734 0.0075909104 0.05667436 -0.009703288
-0.00025305228 0.041579034 0.009153732 -0.0028607561 -0.039526056 0.008169135 -0.011235404 -0.05582803
0.009174902 -0.016403526 -0.03240212 -0.03783234 0.016703397 0.061334405 -0.04412632 -0.0062755
0.06855068 -0.049192637 -0.011228652 0.050564405 0.0045782453 -0.013028988 -0.013798992 0.06038112
-0.009168858 -0.07911279 0.041004993 0.0017775251 -0.050545696 0.0118260225 -0.008079104 -0.0172556
0.016787205 0.0016048602 -0.023911888 0.013555919 -0.0062322617 -0.02351605 -0.004479527 0.0076899603
0.024493 -0.03392989 -0.022969361 0.037388407 -0.01528975 -0.014998509 0.03367739 0.014606369
-0.00010983364 -0.029047089 -0.009156081 0.010124337 -0.0031163795 -0.03671717 -0.00770639 0.011184348
-0.007434342 0.004981594 0.016437463 -0.017022068 0.002766732 0.029476628 -0.009285545 0.0015070016
0.015562943 0.022600275 -0.004789511 -0.019614514 0.039906528 0.0033702797 -0.024738146 0.03295333
0.005719337 -0.015559646 0.028874397 0.009344372 -0.014554965 0.06715266 0.039670356 -0.010412981
0.036258582 0.018491171 -0.004049362 -0.016997315 -0.004951203 0.013668656 -0.03412333 -0.016670877
0.028735003 -0.018493306 -0.010628906 0.022099718 -0.002715028 -0.015160411 -0.018001338 0.021733105
-0.024375021 -0.045310985 0.0060513048 -0.0070619867 -0.028282747 0.020540103 -0.0020175187 -0.059853077
0.038174268 0.00031641027 -0.08373012 0.008433447 0.008058934 -0.042763293 0.0059364834 -0.013519776
-0.04277887 0.037291568 -0.014808068 -0.081057996 0.006053594 0.0017731397 -0.04415074 0.009590857
0.0073671285 -0.016060198 0.0061220042 0.0016713021 -0.02270883 0.004980479 0.0017821278 -0.014441856
-0.03501328 0.0037253927 0.046504714 -0.047130022 4.9347e-40 0.042254373 -0.012384407 -0.0014132974
0.028470792 -0.026764357 0.017187553 0.030664546 -0.021568201 -0.0052296123 0.0391472 -0.021102939
0.0048195645 0.027907358 -0.0022536977 0.00022961675 0.005587278 0.0092306305 0.00036874277 -0.0024445734
-0.0033732331 0.0008757313 0.0111817205 0.0184231 0.004287968 -0.0005115081 0.027446663 0.02084357
-0.002905864 0.02221346 0.013702553 -0.0016332665 -0.014081398 0.009601809 0.03584202 -0.03935574
00000000: a70a 153d 4521 b8ba 5d96 bcbc 0dd3 573d
00000010: ef17 213c 6221 08bd 06e1 093d f0f5 b03b
00000020: e5fd edbc 5273 003c 47e5 243c e368 99bc
00000030: 3c62 cfbc c5d3 223d 4580 3dbc 9d40 113a
00000040: c275 e53b 19dc a4bc b73d b8bc 90b5 fabb
00000050: 7c76 953b 6915 d1bc e65b b9bc 0e7b ec3b
00000060: c1d5 65bc 338f 18bc a44e 9e3b a538 f53b
00000070: 5715 f2bb 9b6f 94bc 6e9b 4cbc 1736 ad3c
00000080: 65e4 e8ba aa67 a8ba 9606 97bb a34c ebba
00000090: af52 75bb d70c ac3b f13c efbc 06c8 c13b
000000a0: e8cf 783c 4cbc 09bd bae1 c3bb ad81 113c
000000b0: 957e e6bc de58 19bb 2692 24bb 0ab2 32bc
000000c0: 6889 d73b 3335 493b 1c5d 08bc 8af2 593b
000000d0: 2bf8 e53b 06c0 01bc bbdc 00bc 902e acbc
000000e0: d538 ac3c 840a 3b3c 47b1 69bd 36d4 3c3c
000000f0: 9f69 113c 3da5 ddbc 96a1 cd3b cedf 12bb
00000100: 8963 2c3c 6cfe d93b 7d2d 113c bf7e ae3c
00000110: 321c 03bc d47e 943c c8f5 cb3c 8642 29bc
00000120: 850b 333d b147 a8bc fa0c 8dbd 03b4 aa3c
00000130: 9784 0abc 4141 98bd 05ff 613d a6e7 973b
00000140: bbc6 94bd dc5c babc cfb3 073c 33b4 263d
00000150: 1474 21bd 2cbd f83b 6023 683d 8afa 1ebc
00000160: 1aac 84b9 c74e 2a3d 89f9 153c 867b 3bbb
00000170: 13e6 21bd d6d7 053c b314 38bc efab 64bd
00000180: 5452 163c b060 86bc 16b8 04bd 15f6 1abd
00000190: 90d5 883c c939 7b3d cdbd 34bd b6a2 cdbb
000001a0: 4d64 8c3d 387e 49bd 61f8 37bc 9f1c 4f3d
000001b0: 1b05 963b 8977 55bc 2b15 62bc 3152 773d
000001c0: fa38 16bc e305 a2bd daf4 273d d8fb e83a
000001d0: 0109 4fbd efc1 413c 385e 04bc 9e5b 8dbc
000001e0: 5285 893c 2c5a d23a dde2 c3bc a519 5e3c
000001f0: 0038 ccbb bba4 c0bc ffc8 92bb 10fc fb3b
00000200: 8ba5 c83c 11fa 0abd 3e2a bcbc 9624 193d
00000210: dc81 7abc 4ebc 75bc 4ef1 093d 8d4f 6f3c
00000220: 7d56 e6b8 29f4 edbc 6303 16bc 8ce0 253c
00000230: 2c3c 4cbb be64 16bd e385 fcbb 8e3e 373c
00000240: c89b f3bb a43c a33b dca7 863c dd71 8bbc
00000250: 0f52 353b f878 f13c 6622 18bc 9586 c53a
00000260: b7fb 7e3c 3624 b93c 55f1 9cbb 9eae a0bc
00000270: 0775 233d e9df 5c3b a7a7 cabc 12fa 063d
00000280: 4769 bb3b e3ed 7ebc 008a ec3c 2319 193c
00000290: f377 6ebc 5587 893d 627d 223d 359b 2abc
000002a0: e183 143d cc7a 973c 83b0 84bb f43d 8bbc
000002b0: b33d a2bb 80f2 5f3c e8c4 0bbd 5d91 88bc
000002c0: ab65 eb3c 467f 97bc dd24 2ebc 780a b53c
000002d0: 9cee 31bb 5f63 78bc 8b77 93bc a009 b23c
000002e0: 20ae c7bc 0398 39bd 064a c63b 3d68 e7bb
000002f0: 38b1 e7bc b843 a83c 5938 04bb 8028 75bd
00000300: 9f5c 1c3d dee3 a539 b27a abbd 712c 0a3c
00000310: 9e09 043c 9028 2fbd d586 c23b 0d82 5dbc
00000320: e538 2fbd 0bbf 183d 8a9d 72bc bc01 a6bd
00000330: 3a5d c63b b268 e83a 68d7 34bd f822 1d3c
00000340: f467 f13b ad90 83bc 189b c83b 980f db3a
00000350: de07 babc 4933 a33b 4996 e93a 899d 6cbc
00000360: 166a 0fbd b825 743b ba7b 3e3d 690b 41bd
00000370: 985f 0500 ec12 2d3d f8e7 4abc 643e b9ba
00000380: 943b e93c ed40 dbbc e9cc 8c3c 3734 fb3c
00000390: ccaf b0bc 2b5d abbb d058 203d 12e0 acbc
000003a0: 70ed 9d3b f99d e43c c6b2 13bb 47c5 7039
000003b0: 7c15 b73b 123c 173c d153 c139 2335 20bb
000003c0: 7611 5dbb 5591 653a 8933 373c 0aec 963c
000003d0: 1582 8c3b ba16 06ba d3d7 e03c 22c0 aa3c
000003e0: 4f70 3ebb 01f9 b53c ac80 603c 5413 d6ba
000003f0: aab5 66bc e850 1d3c 15cf 123d 7c33 21bd

decoder.2.bias f4 [32]
0.18875732 -0.019139908 -0.013359076 -0.01941175 0.04355026 0.09597789 0.019680912 0.09981486
0.08699395 -0.04592773 0.0048356084 -0.04724431 0.109837286 0.031248018 -0.048159074 0.09146908
0.05320786 0.03751402 0.09124984 -0.067443274 0.03549377 0.06508386 0.002428619 0.0069826622
-0.080501154 -0.011391484 -0.012380508 0.13805418 -0.10938354 -0.0055353465 0.118421935 -0.014957401
00000000: 9949 413e 4ccb 9cbc 07e0 5abc 6405 9fbc
00000010: c261 323d 0e90 c43d dd39 a13c bc6b cc3d
00000020: e229 b23d b71e 3cbd 0674 9e3b 4083 41bd
00000030: 5ff2 e03d d8fb ff3c 7342 45bd 2454 bb3d
00000040: 7cf0 593d 4da8 193d 32e1 ba3d b31f 8abd
00000050: ea61 113d b04a 853d 7729 1f3b d1ce e43b
00000060: cadd a4bd 59a3 3abc 9dd7 4abc 135e 0d3e
00000070: 7a04 e0bd da61 b5bb 3387 f23d e30f 75bc
