Autoencoder WiderFace Dataset/autoencoder_model_full7.pth (torch, 785318 bytes, 16 tensors)

encoder.0.weight f4 [16, 3, 3, 3]
4.9089e-40 4.96044e-40 4.92806e-40 4.91836e-40 4.91667e-40 4.90836e-40 4.91259e-40 4.92251e-40
4.92792e-40 4.93673e-40 -4.98896e-40 -4.9279e-40 4.96306e-40 -4.96678e-40 -4.90571e-40 4.98548e-40
-4.9661e-40 -4.92694e-40 4.98302e-40 -4.90642e-40 -4.95028e-40 4.99396e-40 -4.93537e-40 -4.96772e-40
4.98424e-40 -4.9486e-40 -4.91442e-40 0.079191566 0.088049114 0.095602356 0.085877016 0.09448929
0.108585194 0.042128522 0.13061985 0.1092229 -0.025748096 -0.042242873 0.01978625 -0.07190792
0.020558758 -0.043614622 -0.06014716 -0.0074761733 -0.017887486 0.17547268 0.20971309 0.2296724
0.17127974 0.20729353 0.23130323 0.1403132 0.2033052 0.23537372 4.949e-40 4.98676e-40
4.94162e-40 4.94445e-40 4.92227e-40 4.92084e-40 4.95796e-40 4.97014e-40 4.92182e-40 -4.90868e-40
-4.91365e-40 -4.9897e-40 -4.90785e-40 -5.01272e-40 -4.98656e-40 -5.01697e-40 -5.01595e-40 -4.96236e-40
4.923e-40 5.0036e-40 4.9906e-40 -5.044e-40 5.02322e-40 4.91147e-40 -5.01556e-40 5.01928e-40
4.9455e-40 0.29383883 0.35110036 0.3317778 0.351483 0.40348676 0.38338462 0.33622858
0.39886013 0.37943962 0.08111035 0.12236034 0.10389492 0.111047484 0.15506047 0.1304479
0.12028641 0.15682282 0.13886668 -0.10068791 -0.079203255 -0.09011036 -0.089005806 -0.06474125
-0.07792649 -0.079164475 -0.054231703 -0.067028515 -0.021727154 -0.09536968 0.044811055 0.082761474
-0.010132106 -0.07314413 -0.0034833308 -0.08887084 0.043324128 0.038740896 0.18264821 0.03385304
0.10619738 0.047492538 0.08996691 0.17562662 0.10726488 0.13278991 -0.0017500418 -0.17245631
-0.14622004 -0.081227005 -0.14985274 -0.1473456 -0.13971448 -0.12970799 -0.10595117 0.029690085
0.083433785 0.06872937 0.041299455 0.05891471 0.07356594 0.06029945 0.07267028 0.064984396
-0.01404948 -0.009506508 0.011733321 -0.040819254 0.027832255 0.00681038 0.0031137038 0.020095363
0.04430599 -0.0012544491 0.03619051 0.019246267 -0.022091199 -0.009511312 0.041546628 0.019384209
0.039977595 -0.014514829 -4.93802e-40 -4.94905e-40 -4.939e-40 -4.92519e-40 -4.92257e-40 -4.93677e-40
-4.92107e-40 -4.93897e-40 -4.90475e-40 -4.93968e-40 -4.94717e-40 -4.93103e-40 -4.93434e-40 -4.91075e-40
-4.92598e-40 -4.95146e-40 -4.91e-40 -4.9114e-40 -4.90567e-40 -4.91011e-40 -4.91874e-40 -4.92328e-40
-4.90885e-40 -4.93805e-40 -4.94122e-40 -4.92107e-40 -4.94347e-40 0.016855871 0.03652932 0.07045277
-0.019820638 0.04881793 0.034671012 0.02930995 0.0786956 0.05399924 0.1299513 0.1786773
0.15875795 0.1479514 0.1509238 0.19515999 0.13730395 0.2246918 0.16466975 0.15414792
0.21130237 0.20861435 0.14005086 0.2245466 0.22231825 0.16957846 0.25858974 0.23251854
0.22168244 0.30014342 0.27853358 0.2968621 0.3928078 0.3602057 0.30018136 0.3864292
0.36241233 0.3217905 0.41678458 0.38198105 0.40766126 0.48724478 0.45841303 0.4065483
0.49465972 0.46772203 0.12323745 0.20470253 0.17424017 0.18444589 0.25856057 0.2361558
0.18487671 0.26526788 0.24268195 0.28713137 0.33405602 0.31547052 0.30326203 0.36422378
0.32048538 0.28135762 0.35349333 0.3301552 -0.15410648 -0.11532521 -0.12497606 -0.14140527
00000000: 6758 0500 c566 0500 be5d 0500 0a5b 0500
00000010: 915a 0500 4058 0500 6e59 0500 325c 0500
00000020: b45d 0500 2960 0500 b86e 0580 b35d 0580
00000030: 8067 0500 8968 0580 8357 0580 c06d 0500
00000040: 5968 0580 6e5d 0580 106d 0500 b657 0580
00000050: f063 0580 1d70 0500 c85f 0580 cc68 0580
00000060: 676d 0500 7863 0580 f159 0580 302f a23d
00000070: 1853 b43d 2bcb c33d 4ae0 af3d 9a83 c13d
00000080: ea61 de3d f58e 2c3d 36c1 053e 41b0 df3d
00000090: aced d2bc dd06 2dbd c616 a23c 7644 93bd
000000a0: d76a a83c 3fa5 32bd de5c 76bd b0fa f4bb
000000b0: c788 92bc 1caf 333e 07bf 563e 3e2f 6b3e
000000c0: f563 2f3e c144 543e c1da 6c3e 43ae 0f3e
000000d0: 3d2f 503e cf05 713e 9463 0500 1b6e 0500
000000e0: 8661 0500 5062 0500 215c 0500 bb5b 0500
000000f0: 1466 0500 7969 0500 015c 0500 5758 0580
00000100: ba59 0580 ed6e 0580 1c58 0580 5875 0580
00000110: 0d6e 0580 8776 0580 3e76 0580 4e67 0580
00000120: 555c 0500 cd72 0500 2d6f 0500 107e 0580
00000130: 4578 0500 1e59 0500 2276 0580 2c77 0500
00000140: 9b62 0500 0b72 963e 6dc3 b33e c8de a93e
00000150: 94f5 b33e d195 ce3e fd4a c43e 2726 ac3e
00000160: 6537 cc3e e945 c23e 2f1d a63d 0f98 fa3d
00000170: dcc6 d43d dd6c e33d 2cc8 1e3e 2294 053e
00000180: b958 f63d 2996 203e 1133 0e3e 7735 cebd
00000190: 5135 a2bd c88b b8bd ad48 b6bd 0f97 84bd
000001a0: ec97 9fbd fc20 a2bd 1022 5ebd 3f46 89bd
000001b0: 25fd b1bc 2e51 c3bd cc8b 373d d97e a93d
000001c0: 2201 26bc 97cc 95bd 9848 64bb ea01 b6bd
000001d0: a474 313d c6ae 1e3d 2208 3b3e 7ca9 0a3d
000001e0: 037e d93d 8987 423d 9240 b83d 77d7 333e
000001f0: b0ad db3d 14fa 073e a961 e5ba 6398 30be
00000200: b5ba 15be 585a a6bd ff72 19be c4e1 16be
00000210: 5011 0fbe 2cd2 04be edfc d8bd 9f38 f33c
00000220: 55df aa3d fcc1 8c3d 9e29 293d 8d50 713d
00000230: bda9 963d 8efc 763d 28d4 943d 8a16 853d
00000240: ca2f 66bc 2fc1 1bbc 1d3d 403c 1732 27bd
00000250: 7800 e43c 9c29 df3b 480f 4c3b 089f a43c
00000260: 337a 353d 546c a4ba 803c 143d 59aa 9d3c
00000270: 9af8 b4bc 55d5 1bbc cc2c 2a3d a2cb 9e3c
00000280: 8cbf 233d 9bcf 6dbc 8560 0580 9863 0580
00000290: cb60 0580 f15c 0580 365c 0580 2c60 0580
000002a0: cb5b 0580 c960 0580 3f57 0580 fb60 0580
000002b0: 1263 0580 925e 0580 7e5f 0580 eb58 0580
000002c0: 2a5d 0580 4464 0580 b558 0580 1959 0580
000002d0: 8057 0580 bd58 0580 255b 0580 695c 0580
000002e0: 6358 0580 8760 0580 6961 0580 cb5b 0580
000002f0: 0a62 0580 5315 8a3c c59f 153d 8b49 903d
00000300: e45e a2bc 4ff5 473d 3103 0e3d 6c1b f03c
00000310: 292b a13d 4f2e 5d3d f411 053e 2ff7 363e
00000320: 7291 223e 9280 173e c58b 1a3e 05d8 473e
00000330: 6899 0c3e 9b15 663e 309f 283e f4d8 1d3e
00000340: a65f 583e 009f 553e 7e69 0f3e 8bef 653e
00000350: 65a7 633e faa5 2d3e e065 843e 5719 6e3e
00000360: b900 633e 66ac 993e f49b 8e3e 4ffe 973e
00000370: 1b1e c93e e26c b83e 5fb1 993e 0cda c53e
00000380: 1c8e b93e b9c1 a43e ca64 d53e 0593 c33e
00000390: fab8 d03e 2678 f93e 1db5 ea3e 1927 d03e
000003a0: 0a44 fd3e 4379 ef3e eb63 fc3d 8a9d 513e
000003b0: 046c 323e 62df 3c3e 0d62 843e d3d2 713e
000003c0: 5250 3d3e 31d1 873e 9e81 783e e202 933e
000003d0: 6409 ab3e 5a85 a13e 2945 9b3e 8a7b ba3e
000003e0: a916 a43e 1b0e 903e 14fd b43e 1a0a a93e
000003f0: 17ce 1dbe a02f ecbd 73f3 ffbd 8bcc 10be

encoder.0.bias f4 [16]
4.9328e-40 -0.07746268 4.92234e-40 0.0827433 0.6268653 -0.4357074 4.91134e-40 -0.055492826
-0.083200686 0.16475204 0.66212654 -0.060394753 0.06390549 0.5905821 0.6506424 0.2440254
00000000: 105f 0500 c1a4 9ebd 265c 0500 5275 a93d
00000010: 3f7a 203f 0a15 dfbe 1559 0500 724c 63bd
00000020: 1f65 aabd c2b4 283e 2081 293f 7d60 77bd
00000030: e2e0 823d 6330 173f 8090 263f cbe1 793e

encoder.2.weight f4 [32, 16, 3, 3]
4.91559e-40 -6.15887e-40 4.98614e-40 -5.32645e-40 -5.04291e-40 5.1239e-40 4.9499e-40 -4.95091e-40
-4.99487e-40 5.59642e-40 5.05806e-40 5.11893e-40 4.92062e-40 4.99826e-40 5.0558e-40 5.11742e-40
5.03014e-40 4.97572e-40 5.96105e-40 -5.759e-40 -6.04823e-40 5.88676e-40 -5.44913e-40 -5.00771e-40
-5.37603e-40 -6.2e-40 6.09038e-40 -4.90554e-40 -4.95199e-40 5.78033e-40 4.96266e-40 4.9737e-40
4.96556e-40 4.97932e-40 4.97273e-40 4.94074e-40 -5.11516e-40 -4.95662e-40 -5.0691e-40 5.04402e-40
5.22476e-40 4.97378e-40 5.20479e-40 4.98777e-40 -5.2428e-40 -5.21404e-40 5.27005e-40 5.23416e-40
-5.56558e-40 5.55888e-40 5.16072e-40 6.24228e-40 5.23193e-40 5.44229e-40 6.03494e-40 5.88087e-40
5.78677e-40 5.94372e-40 -5.68235e-40 5.35652e-40 6.1536e-40 -5.6596e-40 -5.76155e-40 -4.93316e-40
-4.96954e-40 -4.94193e-40 -4.9463e-40 -4.98628e-40 5.78236e-40 4.96253e-40 4.9081e-40 4.93223e-40
4.94874e-40 4.9299e-40 4.9535e-40 4.92181e-40 4.90669e-40 4.94228e-40 4.94936e-40 4.92844e-40
4.94088e-40 -4.92841e-40 -4.93778e-40 -5.0124e-40 -5.01024e-40 -4.9835e-40 -5.02961e-40 -4.94591e-40
-4.98078e-40 -4.93854e-40 5.02904e-40 4.9829e-40 4.97474e-40 5.04467e-40 -5.32227e-40 -6.25869e-40
-4.94946e-40 -4.93535e-40 -5.00946e-40 4.93694e-40 4.91996e-40 4.9363e-40 -5.88156e-40 -5.25008e-40
-4.95547e-40 -4.9201e-40 -4.9419e-40 -4.91727e-40 -5.39098e-40 -5.67356e-40 -5.58577e-40 -5.66755e-40
-6.06213e-40 -6.04695e-40 5.21171e-40 -5.31632e-40 -5.62868e-40 -5.13762e-40 5.56967e-40 5.11213e-40
5.00241e-40 4.99318e-40 4.94344e-40 5.06917e-40 4.92395e-40 5.05695e-40 -5.24098e-40 -5.74581e-40
-5.50305e-40 -4.97652e-40 -5.02986e-40 -6.30038e-40 -5.30599e-40 -4.92905e-40 -5.21772e-40 5.50646e-40
6.05061e-40 -5.93858e-40 4.99183e-40 -5.99562e-40 6.00347e-40 5.09626e-40 -5.88698e-40 5.71985e-40
5.35275e-40 5.40604e-40 4.93693e-40 5.28431e-40 5.52717e-40 5.1364e-40 -6.24482e-40 -5.6203e-40
5.254e-40 -0.0033276365 -0.0034889602 -0.0032590725 -0.0032178804 -0.0032538248 -0.0030189333 -0.003582024
-0.0035108665 -0.003101675 -5.64372e-40 -5.2867e-40 5.50029e-40 5.78584e-40 -5.49781e-40 -5.94174e-40
5.46557e-40 6.29767e-40 5.49731e-40 -0.0034414048 -0.00408526 -0.0039025818 -0.003539793 -0.004044433
-0.0039117546 -0.004178577 -0.0045516607 -0.0041818907 -0.00034600412 -0.00033017455 -0.00044083994 -0.0003596331
-0.0003519202 -0.0004615346 -0.0003926764 -0.00040236826 -0.000518172 -2.5822058e-13 -2.348266e-13 -2.6876513e-13
-2.383891e-13 -2.1670691e-13 -2.4836768e-13 -2.1943284e-13 -2.0250128e-13 -2.2656473e-13 4.96413e-40 4.9563e-40
-4.90759e-40 4.94136e-40 4.97509e-40 -4.90796e-40 5.05123e-40 5.0061e-40 -4.9158e-40 -0.0038787434
-0.004189378 -0.003806331 -0.003670717 -0.0037710427 -0.003383633 -0.0042983135 -0.0042208317 -0.0035419955
-0.0047052056 -0.0053790584 -0.004958678 -0.004559469 -0.004942995 -0.004543791 -0.0055425074 -0.005686495
-0.004867631 -0.0034378793 -0.003831864 -0.00360128 -0.0034705221 -0.0037687365 -0.003565218 -0.003801835
-0.004007911 -0.003655326 -0.0017576172 -0.0016830626 -0.0015286274 -0.0015938627 -0.001457039 -0.0012720444
-0.0015774282 -0.0014025215 -0.0011822731 -0.0043082666 -0.004628089 -0.0041646827 -0.0039997217 -0.00404791
-0.0035626292 -0.004794549 -0.0046269605 -0.0037692636 -0.00019870285 -0.00020554589 -0.0002075374 -0.00020211667
00000000: 445a 0500 d8b4 0680 ef6d 0500 cccc 0580
00000010: c27d 0580 5694 0500 d563 0500 1d64 0580
00000020: 5e70 0580 0e18 0600 fb81 0500 f392 0500
00000030: ab5b 0500 5071 0500 5a81 0500 8792 0500
00000040: 337a 0500 076b 0500 b37d 0600 6045 0680
00000050: 0096 0680 fd68 0600 ffee 0580 f273 0580
00000060: 9eda 0580 4fc0 0680 c0a1 0600 7757 0580
00000070: 6a64 0580 524b 0600 6367 0500 776a 0500
00000080: 3268 0500 086c 0500 326a 0500 4761 0500
00000090: e691 0580 b465 0580 0f85 0580 117e 0500
000000a0: 73b0 0500 7d6a 0500 e2aa 0500 636e 0500
000000b0: 7bb5 0580 76ad 0580 13bd 0500 12b3 0500
000000c0: 750f 0680 970d 0600 999e 0500 18cc 0600
000000d0: 73b2 0500 17ed 0500 4c92 0600 5967 0600
000000e0: 1e4d 0600 de78 0600 0230 0680 2ed5 0500
000000f0: 60b3 0600 ab29 0680 1646 0680 2a5f 0580
00000100: 4e69 0580 9c61 0580 d462 0580 f96d 0580
00000110: e34b 0600 5a67 0500 2e58 0500 e85e 0500
00000120: 8263 0500 415e 0500 d664 0500 005c 0500
00000130: c957 0500 b561 0500 ae63 0500 d95d 0500
00000140: 5161 0500 d75d 0580 7460 0580 4175 0580
00000150: a774 0580 326d 0580 0d7a 0580 b862 0580
00000160: 706c 0580 aa60 0580 e479 0500 086d 0500
00000170: c16a 0500 407e 0500 a2cb 0580 abd0 0680
00000180: b563 0580 c65f 0580 6f74 0580 3860 0500
00000190: 7c5b 0500 0a60 0500 8a67 0680 82b7 0580
000001a0: 6265 0580 865b 0580 9a61 0580 bc5a 0580
000001b0: c9de 0580 8f2d 0680 1615 0680 e22b 0680
000001c0: e099 0680 a595 0680 d0ac 0500 f9c9 0580
000001d0: 0c21 0680 2998 0580 9910 0600 0e91 0500
000001e0: 7872 0500 e56f 0500 0862 0500 1485 0500
000001f0: 995c 0500 ac81 0500 f9b4 0580 b341 0680
00000200: 07fe 0580 406b 0580 1f7a 0580 4adc 0680
00000210: 18c7 0580 055e 0580 7dae 0580 fafe 0500
00000220: aa96 0600 6f77 0680 856f 0500 5687 0680
00000230: 8689 0600 a18c 0500 0d69 0680 763a 0600
00000240: 21d4 0500 fce2 0500 3760 0500 0dc1 0500
00000250: c004 0600 d297 0500 cdcc 0680 b61e 0680
00000260: 9ab8 0500 7a14 5abb 0aa7 64bb 2a96 55bb
00000270: 13e3 52bb 1f3e 55bb 4cd9 45bb 64c0 6abb
00000280: 9116 66bb 7945 4bbb 3d25 0680 b8c1 0580
00000290: 42fd 0500 db4c 0600 91fc 0580 5178 0680
000002a0: 94f3 0500 89db 0600 6dfc 0500 3189 61bb
000002b0: a5dd 85bb 75c2 7fbb dffb 67bb 2a87 84bb
000002c0: 2d2e 80bb 72ec 88bb 1926 95bb 3e08 89bb
000002d0: e367 b5b9 471b adb9 8920 e7b9 238d bcb9
000002e0: ee81 b8b9 20fa f1b9 22e0 cdb9 f4f4 d2b9
000002f0: efd5 07ba 825d 91aa 1432 84aa 234d 97aa
00000300: 7d33 86aa 84fd 73aa 8ed1 8baa 360f 77aa
00000310: 05ff 63aa d616 7faa cc67 0500 9d65 0500
00000320: 0958 0580 7361 0500 da6a 0500 2458 0580
00000330: 1480 0500 7f73 0500 535a 0580 8432 7ebb
00000340: 0d47 89bb a373 79bb 6990 70bb 9923 77bb
00000350: f1bf 5dbb ded8 8cbb e74e 8abb d320 68bb
00000360: 202e 9abb d042 b0bb 687c a2bb 9967 95bb
00000370: d9f8 a1bb 15e4 94bb ec9d b5bb c755 babb
00000380: a680 9fbb 0b4e 61bb 0320 7bbb 7403 6cbb
00000390: b371 63bb e8fc 76bb 6fa6 69bb 3528 79bb
000003a0: cb54 83bb 328e 6fbb d95f e6ba 369a dcba
000003b0: 395c c8ba 28e9 d0ba 1efa beba baba a6ba
000003c0: b5c1 ceba d0d4 b7ba 81f6 9aba 5c2c 8dbb
000003d0: 39a7 97bb e477 88bb 1910 83bb 55a4 84bb
000003e0: 007b 69bb 981b 9dbb c29d 97bb c005 77bb
000003f0: e45a 50b9 ce87 57b9 669e 59b9 48ef 53b9

encoder.2.bias f4 [32]
-4.90977e-40 -0.0007400712 0.24917659 0.04814772 0.0022426143 -0.012323568 4.91266e-40 0.03532915
0.2524179 0.26395187 0.113374054 0.0015078603 4.94525e-40 -4.93292e-40 4.9338e-40 -0.10941746
0.20535678 4.93976e-40 0.029000616 0.052924607 0.17461628 0.0065727443 -0.012535469 4.95091e-40
0.06289233 4.9314e-40 -4.9355e-40 -0.016818883 -0.02125664 -0.015401106 -0.0011682926 -0.01063287
00000000: a558 0580 5601 42ba 2628 7f3e 8b36 453d
00000010: d3f8 123b cae8 49bc 7359 0500 4cb5 103d
00000020: eb3c 813e b324 873e a830 e83d 65a3 c53a
00000030: 8962 0500 195f 0580 585f 0500 4316 e0bd
00000040: 0c49 523e 0161 0500 b392 ed3c 79c7 583d
00000050: 9cce 323e 2d60 d73b 9161 4dbc 1d64 0500
00000060: b2cd 803d ac5e 0500 d15f 0580 c1c7 89bc
00000070: 6822 aebc ec54 7cbc 6521 99ba 7d35 2ebc

encoder.4.weight f4 [64, 32, 3, 3]
5.5596e-40 5.87986e-40 4.96993e-40 5.471e-40 4.85116e-40 3.84068e-40 3.25403e-40 5.8146e-40
-6.28325e-40 1.0205452e-32 2.6827605e-31 4.9554723e-30 1.5471279e-34 -3.1309756e-32 -1.9514658e-31 1.2096474e-33
3.122408e-32 1.6683238e-31 0.032062475 0.056371894 0.07184852 0.05153138 0.07458422 0.0881265
0.04535065 0.058111887 0.07611141 -0.0019591453 0.0080122715 -0.010976616 -0.02946992 0.004192866
-0.011374861 -0.0360698 0.02568885 0.013722181 2.1114274e-37 -4.10965e-37 -2.7744232e-35 3.6983966e-38
9.3838725e-38 -1.3174358e-36 -2.6394872e-38 7.286582e-39 -4.2874674e-38 -0.01011955 -0.018114751 -0.038893856
-0.030821735 -0.044015523 -0.031051505 -0.05633552 -0.0727821 -0.020756032 4.99634e-40 3.75789e-40
5.8525e-40 -5.4611e-40 3.7321e-40 4.45113e-40 5.9544e-40 4.80655e-40 -5.35523e-40 -7.9366975e-05
0.0029279643 0.005080103 0.0021198925 0.006377549 0.006118105 0.0053640283 0.00971155 0.0063592875
-0.0036750145 0.012329445 0.023393758 0.004886798 0.023467287 0.022282252 0.013985793 0.034484807
0.024794389 -0.0007751539 0.015677935 0.029110013 0.0067853862 0.022493098 0.024990635 0.020218905
0.03596954 0.027177062 -0.0021312116 0.0046995077 0.007567684 0.00896488 0.023149168 0.014682527
0.007124431 0.02239668 0.012898555 0.004627455 0.0081563145 -0.006968675 -0.019202143 -0.009413465
-0.0047715204 -0.021156395 0.0023582298 0.014960243 -6.27874e-40 -5.49753e-40 -4.12209e-40 4.80728e-40
4.73904e-40 4.84093e-40 6.02107e-40 5.88416e-40 -5.0342e-40 5.3501e-40 -4.99377e-40 5.14628e-40
5.23997e-40 5.26605e-40 -5.23922e-40 5.1087e-40 5.98504e-40 -5.2573e-40 5.47398e-40 5.72328e-40
-5.98382e-40 -6.07078e-40 -5.05893e-40 5.71091e-40 -5.96114e-40 4.92646e-40 -5.46945e-40 -0.0008688845
-0.0019266481 -0.009800451 0.0009149931 -1.752463e-05 -0.0056647877 0.00044784485 -0.0033578149 0.00050066935
-0.0012364256 0.012217796 0.019838288 0.014762731 0.0332462 0.029165378 0.012524279 0.026162757
0.02166171 -5.10129e-40 -6.00982e-40 -5.31536e-40 -5.2568e-40 -5.87372e-40 -5.52711e-40 -6.10191e-40
2.93463e-40 -5.65424e-40 0.017562805 0.03634541 0.012961515 0.0005349505 0.049505334 0.038033806
-0.037050307 0.035482395 0.05424974 0.0089882715 -0.00030147622 0.016288431 0.029894542 -0.0226402
0.027631205 0.036703732 -0.060181186 0.00947306 -0.000500589 0.010294586 0.016998809 0.0117938295
0.02624099 0.02344093 0.022116933 0.031948946 0.021374403 0.019818403 0.025942922 0.032576453
0.019701451 0.026372949 0.044944584 0.0046981634 0.007732799 0.037661802 0.020534173 0.0068860017
0.013819074 0.00559755 -0.045766722 0.028701276 -0.018079037 -0.104339324 0.014504048 -3.04104e-40
-1.41746e-40 -2.90083e-40 -6.1646e-41 3.09924e-40 -4.1833e-40 -9.4558e-41 -5.01219e-40 2.75305e-40
-0.0052284137 0.0059601767 -0.0083425725 -0.018358152 0.019885346 -0.008797344 -0.029485375 0.03338134
0.0054335957 -5.23559e-40 -5.10801e-40 5.51932e-40 -6.05812e-40 -5.17202e-40 5.15641e-40 -6.02553e-40
5.30691e-40 -5.13544e-40 -5.84728e-40 -5.51663e-40 -5.27799e-40 5.77739e-40 5.52015e-40 -5.23951e-40
5.11363e-40 5.09848e-40 5.72757e-40 0.013809482 0.009658482 0.0012816396 -0.014214431 -0.029983738
0.026110688 -0.07401472 -0.10975824 0.01373286 0.0036961008 -0.0011432514 -0.015159523 -0.008361665
00000000: ca0d 0600 1167 0600 6a69 0500 18f5 0500
00000010: 4e48 0500 a02e 0400 178b 0300 e054 0600
00000020: 84d7 0680 7df5 530a 011f ae0c 9104 c90e
00000030: 09a6 4d07 ce91 228b 9350 7d8c b6fc c808
00000040: ec1f 220b 918f 580c f153 033d 37e6 663d
00000050: 5125 933d 9112 533d 9dbf 983d ab7b b43d
00000060: 9ac1 393d bb06 6e3d 4de0 9b3d 0165 00bb
00000070: e745 033c 44d7 33bc e76a f1bc 4f64 893b
00000080: a05d 3abc edbd 13bd 6c71 d23c 00d3 603c
00000090: 41b2 8f02 1ad8 0b83 7e83 1386 205c 4901
000000a0: 0c74 ff01 6c26 e083 15b5 0f81 0758 4f00
000000b0: 936e 6981 78cc 25bc 6365 94bc 2a4f 1fbd
000000c0: dd7d fcbc 9f49 34bd ba5f febc 13c0 66bd
000000d0: c80e 95bd 8e08 aabc c770 0500 8c17 0400
000000e0: 705f 0600 55f2 0580 5c10 0400 cbd8 0400
000000f0: d87b 0600 df3b 0500 d2d4 0580 d271 a6b8
00000100: 17e3 3f3b fe76 a63b e5ed 0a3b c2fa d03b
00000110: 627a c83b bbc4 af3b 311d 1f3c 9261 d03b
00000120: 83d8 70bb 7101 4a3c 44a4 bf3c 6f21 a03b
00000130: 783e c03c 4589 b63c ab24 653c f13f 0d3d
00000140: 9a1d cb3c b333 4bba 036f 803c 1f78 ee3c
00000150: f257 de3b 7243 b83c 29b9 cc3c 1ea2 a53c
00000160: cc54 133d 6ea2 de3c ccab 0bbb 54fe 993b
00000170: 56fa f73b 6fe1 123c 53a3 bd3c fb8e 703c
00000180: 0f74 e93b 3e79 b73c 7654 533c e8a1 973b
00000190: 10a2 053c 7c59 e4bb d04d 9dbc ef3a 1abc
000001a0: 6a5a 9cbb 2d50 adbc 888c 1a3b cf1b 753c
000001b0: 42d6 0680 7dfc 0580 127d 0480 133c 0500
000001c0: 0d29 0500 7445 0500 6e8e 0600 4468 0600
000001d0: 557b 0580 64d3 0500 0f70 0580 939a 0500
000001e0: b1b4 0500 f6bb 0500 7bb4 0580 1990 0500
000001f0: 6384 0600 85b9 0580 ecf5 0500 6b3b 0600
00000200: 0c84 0680 499c 0680 3982 0580 f837 0600
00000210: b97d 0680 4c5d 0500 a9f4 0580 dac5 63ba
00000220: 9587 fcba 1292 20bc 26dc 6f3a db01 93b7
00000230: af9f b9bb b8cc ea39 c90e 5cbb 5a3f 033a
00000240: 8f0f a2ba 272d 483c e883 a23c 62df 713c
00000250: 2b2d 083d 3bec ee3c a232 4d3c 4753 d63c
00000260: e673 b13c 088e 0580 4b8b 0680 b5c9 0580
00000270: 62b9 0580 5b65 0680 bc04 0680 f7a4 0680
00000280: 0e32 0300 2c28 0680 dfdf 8f3c edde 143d
00000290: 895c 543c ec3b 0c3a 1bc6 4a3d 56c9 1b3d
000002a0: 10c2 17bd fd55 113d fa34 5e3d 8b43 133c
000002b0: 740f 9eb9 516f 853c 66e5 f43c f177 b9bc
000002c0: d65a e23c a756 163d 8c80 76bd e534 1b3c
000002d0: f639 03ba a0aa 283c 1641 8b3c e83a 413c
000002e0: 58f7 d63c 3107 c03c 922e b53c e6dc 023d
000002f0: 5f19 af3c 345a a23c 4086 d43c e36e 053d
00000300: f064 a13c 150c d83c d017 383d 0df3 993b
00000310: 6b63 fd3b 4343 1a3d 4837 a83c f8a3 e13b
00000320: 6669 623c a76b b73b e375 3bbd f01e eb3c
00000330: 7d1a 94bc dbaf d5bd 63a2 6d3c b84f 0380
00000340: 218b 0180 a228 0380 d8ab 0080 f15f 0300
00000350: 228e 0480 9707 0180 3275 0580 70ff 0200
00000360: 1d53 abbb 964d c33b 49af 08bc d663 96bc
00000370: 98e6 a23c bc22 10bc 508b f1bc dfba 083d
00000380: 4e0c b23b 78b3 0580 e88f 0580 9002 0600
00000390: c298 0680 c0a1 0580 669d 0500 ac8f 0680
000003a0: 5ac7 0500 8d97 0580 fc5d 0680 d001 0680
000003b0: 4abf 0580 804a 0600 cb02 0600 90b4 0580
000003c0: 7991 0500 408d 0500 9d3c 0600 2a41 623c
000003d0: 9c3e 1e3c b0fc a73a a5e3 68bc 75a0 f5bc
000003e0: 15e6 d53c 0895 97bd eec8 e0bd caff 603c
000003f0: 483a 723b 27d9 95ba a65f 78bc 5dff 08bc

encoder.4.bias f4 [64]
0.013917402 -2.5680898e-20 0.0052975095 0.034571406 -4.96259e-40 0.00999453 0.0025341732 0.006927651
-0.010056188 -0.08147493 0.011498646 0.018515503 4.067249e-09 0.0062554376 -0.0010903861 -0.00039663975
0.00669978 0.0038068672 -1.7513141e-06 0.0005489213 0.0034886096 -0.0040197126 -0.046404522 2.968844e-38
0.008985208 2.371992e-34 0.002405373 0.014288052 -2.0034313e-05 -0.001052159 0.0008523621 0.0036043392
0.0073101153 0.026280437 0.008199242 0.0013699414 0.04647006 0.004261044 0.0012989768 -0.046249386
0.0051862164 4.232118e-10 0.04383353 -0.0003687914 0.016001912 0.0008545081 0.008997176 0.002479284
0.014757521 0.009906677 0.015126053 2.0405766e-06 2.7398475e-05 0.0016495124 0.00877619 0.020619549
0.00016768715 0.0009767344 -1.4094817e-07 0.013515729 0.0021244374 0.0019339962 -4.027547e-27 0.008936046
00000000: d105 643c 9a8c f29e bb96 ad3b bf9a 0d3d
00000010: 5e67 0580 19c0 233c 5f14 263b 5901 e33b
00000020: b6c2 24bc 54dc a6bd d164 3c3c d3ad 973c
00000030: e7bf 8b31 6afa cc3b 49eb 8eba 16f4 cfb9
00000040: d489 db3b a27c 793b b20e ebb5 7ce5 0f3a
00000050: 28a1 643b cbb7 83bb ab12 3ebd a5a3 2101
00000060: b236 133c 5aa5 9d07 76a3 1d3b 6f18 6a3c
00000070: 5c0f a8b7 99e8 89ba 0d71 5f3a c736 6c3b
00000080: b189 ef3b 124a d73c 1d56 063c 9b8f b33a
00000090: 6457 3e3d 3aa0 8b3b 6e42 aa3a ff6f 3dbd
000000a0: 23f1 a93b c4a9 e82f ca8a 333d 585a c1b9
000000b0: 7116 833c 1101 603a e468 133c 7c7b 223b
000000c0: 88c9 713c 9d4f 223c 44d3 773c d7f0 0836
000000d0: c7d5 e537 7434 d83a 02ca 0f3c 54ea a83c
000000e0: 2dd5 2f39 c505 803a 8a57 17b4 1471 5d3c
000000f0: 253a 0b3b 257e fd3a 2e8c 9f93 7e68 123c

encoder.6.weight f4 [128, 64, 3, 3]
-0.0015463654 -0.004098502 0.0015025313 0.0026355193 0.00051574834 0.008118748 0.0064171758 0.00085468806
0.007752671 -3.6745265e-21 -5.0689083e-21 -4.6794552e-21 -5.2191517e-20 -5.1340105e-20 -4.7387093e-20 -3.1649328e-21
-3.926233e-21 -3.7703207e-21 0.0027769818 -0.0009053417 -0.00633038 0.0027694108 0.001744894 -0.0069964626
0.0046236077 0.0040272237 -0.003890343 -0.007695862 -0.013868893 -0.019303361 -0.013825764 -0.020206885
-0.02619952 -0.01811172 -0.024559274 -0.03126027 -4.9897e-40 -4.94189e-40 -4.92674e-40 -4.9268e-40
-5.02859e-40 -4.92349e-40 -5.0117e-40 -4.92503e-40 -5.01989e-40 -0.003537008 -0.0026899131 -0.0013918417
-0.0024970793 -0.0016756151 -0.00020299877 -0.0024334865 -0.0013773906 0.00025083087 -0.00036324532 -1.7721599e-06
-0.00026916957 -2.2674129e-05 9.142167e-05 5.864655e-05 -0.00032992748 6.7442634e-05 -0.0001501342 0.007331576
0.0040394934 0.009563417 0.017920759 0.0206937 0.025216527 0.023951361 0.028941693 0.026534323
-0.004563859 -0.0048605944 -0.003158651 -0.0027759846 -0.004358512 0.00012316719 0.0052031586 0.004463783
0.008225074 0.00948922 0.0055750837 0.0075484337 0.015447073 0.014605405 0.01306115 0.021561036
0.021715023 0.030053766 0.0075875707 0.009155921 0.008478183 0.01034661 0.011412206 0.01202281
0.009570419 0.00903657 0.009193989 2.9454211e-05 -0.0029188395 -0.0042232787 -0.006876528 -0.012516332
-0.012491422 -0.0026261895 -0.00785379 -0.010833181 6.461246e-10 4.4320553e-10 -1.9211557e-10 -8.0414253e-10
7.9301976e-10 7.834222e-10 -5.1779508e-11 -4.886386e-10 -3.334041e-11 0.00555274 0.003964914 0.0019772195
0.003287977 0.0019272907 0.0005306529 0.0032349047 0.0015995844 0.00011732473 5.41344e-40 -5.7306e-40
-5.33665e-40 -5.08816e-40 5.92256e-40 6.22932e-40 -6.1264e-40 5.51201e-40 -2.60494e-40 0.01006342
0.009329014 0.017959196 0.0104704825 -0.009170833 0.001568269 -0.0022849059 0.00066077214 0.0019080396
0.0033240793 0.0051130126 0.0052970527 0.0031417042 0.0038555353 0.0063503464 0.00082066417 0.0009796921
0.0027448582 -0.002153411 -0.0034739026 -0.00010233612 -0.0016158501 -0.003422461 0.00048348145 -0.0013359807
-0.002849169 0.00018278653 -6.2037104e-09 -2.8627603e-08 -2.4874886e-08 -4.0145085e-08 -6.6388644e-08 -3.8791057e-08
-5.355596e-08 -7.615652e-08 -3.416586e-09 -3.980544e-05 3.4286037e-05 -4.1322004e-05 -2.7909628e-05 -1.6928865e-05
-5.351362e-05 5.0810618e-06 0.00013838828 5.616541e-05 -0.0015571724 -0.0021195218 -0.0011434642 -0.0011150362
-0.0016228767 -0.0006627313 -0.0007656846 -0.0011796965 -0.0010582177 0.0047138645 -0.00015529006 -0.0059619523
0.007338458 0.0039099813 -0.0007797676 0.0058054863 0.0063214796 0.0053780107 0.012912282 0.0253773
0.020495953 0.012161691 0.02333582 0.021390673 0.042298187 0.0465346 0.05418791 2.886326e-39
7.445722e-39 7.49025e-40 5.109688e-39 7.976911e-39 -2.422971e-39 5.488166e-39 6.542328e-39 -4.63042e-39
0.0030893877 0.0041434965 0.00555419 -0.0026248924 -0.0010011502 0.0018350976 -0.0013505128 0.00043634675
0.001516411 -3.4925803e-30 -2.149245e-30 1.5506774e-30 -3.5587485e-31 -1.6953534e-31 1.2182437e-30 7.4627754e-31
3.123147e-31 4.070307e-31 -0.0008836904 -0.00079147524 -0.0005898559 -0.00020955272 -0.00012974784 7.2963e-05
-0.00046902406 -0.00028538326 -0.0004490709 0.004327818 0.004961859 0.0019139162 0.0024075815 0.00398816
-0.00024128299 -0.0011932527 0.0012598352 0.002665807 0.0011103837 -0.0054653576 0.00898288 -0.0005119346
00000000: 6aaf caba ba4c 86bb 96f0 c43a adb8 2c3b
00000010: 4933 073a 7f04 053c 2c47 d23b 250d 603a
00000020: 1e0a fe3b d7d1 8a9d 797f bf9d eac8 b09d
00000030: ac77 769f 6172 729f 7bc7 5f9f b422 6f9d
00000040: 3254 949d 4e70 8e9d 06fe 353b 7454 6dba
00000050: 146f cfbb 017f 353b edb4 e43a 9542 e5bb
00000060: a281 973b cdf6 833b 20f5 7ebb 922d fcbb
00000070: 5a3a 63bc 1522 9ebc 7585 62bc e988 a5bc
00000080: 60a0 d6bc 085f 94bc 8830 c9bc c50a 00bd
00000090: ed6e 0580 9961 0580 605d 0580 645d 0580
000000a0: c479 0580 785c 0580 0f75 0580 e65c 0580
000000b0: 5777 0580 26cd 67bb 4149 30bb 756e b6ba
000000c0: 0aa6 23bb 50a0 dbba 11dc 54b9 217b 1fbb
000000d0: 8f89 b4ba f381 8339 f671 beb9 f3da edb5
000000e0: 541f 8db9 5234 beb7 a3b9 bf38 41fb 7538
000000f0: 1efa acb9 fd6f 8d38 586d 1db9 b83d f03b
00000100: ba5d 843b e1af 1c3c 8ece 923c d685 a93c
00000110: e492 ce3c a535 c43c 2117 ed3c 825e d93c
00000120: 6d8c 95bb 9f45 9fbb 5f01 4fbb 4bed 35bb
00000130: d9d1 8ebb 7126 0139 427f aa3b ed44 923b
00000140: 76c2 063c ac78 1b3c 31af b63b da58 f73b
00000150: b815 7d3c 824b 6f3c 6ffe 553c c5a0 b03c
00000160: b4e3 b13c 5133 f63c 28a1 f83b b702 163c
00000170: 14e8 0a3c d484 293c 43fa 3a3c 52fb 443c
00000180: 3fcd 1c3c 1f0e 143c 63a2 163c 7014 f737
00000190: 004a 3fbb 6e63 8abb 7f54 e1bb 4d11 4dbc
000001a0: d2a8 4cbc 261c 2cbb 2fad 00bc a87d 31bc
000001b0: fa9a 3130 a2a7 f32f ba3b 53af 800a 5db0
000001c0: cefb 5930 7058 5730 8bba 63ae e250 06b0
000001d0: f7a1 12ae c2f3 b53b 1cec 813b 3d94 013b
000001e0: 1a7b 573b 259d fc3a 831b 0b3a b200 543b
000001f0: 25a9 d13a 3c0c f638 0ce5 0500 753d 0680
00000200: a4cf 0580 5f8a 0580 f872 0600 7bc8 0600
00000210: cbab 0680 8600 0600 27d6 0280 0be1 243c
00000220: b9d8 183c 2a1f 933c 638c 2b3c 4341 16bc
00000230: 608e cd3a 5cbe 15bb ab37 2d3a 2f17 fa3a
00000240: ccd8 593b 0f8b a73b e692 ad3b 0de5 4d3b
00000250: 26ad 7c3b 9116 d03b d721 573a 0369 803a
00000260: 14e3 333b 3e20 0dbb 6aaa 63bb 499d d6b8
00000270: efca d3ba 5e4b 60bb c87b fd39 131c afba
00000280: 20b9 3abb 63aa 3f39 6a28 d5b1 c4e8 f5b2
00000290: 74ac d5b2 fd6b 2cb3 8b91 8eb3 389b 26b3
000002a0: 6705 66b3 7d8b a3b3 37c9 6ab1 c4f4 26b8
000002b0: 5ace 0f38 2a51 2db8 781f eab7 7602 8eb7
000002c0: d073 60b8 fd7d aa36 521c 1139 2693 6b38
000002d0: 091a ccba ade7 0abb 4be0 95ba 6826 92ba
000002e0: b5b6 d4ba 25bb 2dba 39b8 48ba 0ca0 9aba
000002f0: e5b3 8aba c376 9a3b 5cd5 22b9 7b5c c3bb
00000300: 7377 f03b 4d1f 803b 5169 4cba f33b be3b
00000310: 6a24 cf3b 063a b03b 098e 533c 0ee4 cf3c
00000320: 21e7 a73c d441 473c c32a bf3c 7e3b af3c
00000330: dd40 2d3d 119b 3e3d 24f4 5d3d e76d 1f00
00000340: a513 5100 fa27 0800 bba3 3700 62dc 5600
00000350: 4262 1a80 c6c2 3b00 593d 4700 ba6b 3280
00000360: 5377 4a3b 2bc6 873b ecff b53b 6306 2cbb
00000370: 0739 83ba a887 f03a b103 b1ba 78c5 e439
00000380: 4fc2 c63a 07ad 8d8e 125e 2e8e 9f9c fb0d
00000390: daf9 e68c c811 5c8c ddab c50d 502e 720d
000003a0: 2eb4 ca0c ca16 040d 75a7 67ba 017b 4fba
000003b0: 8fa0 1aba 61bb 5bb9 ec0c 08b9 b603 9938
000003c0: 58e7 f5b9 7e9f 95b9 4771 ebb9 5ed0 8d3b
000003d0: 1797 a23b 5fdc fa3a 84c8 1d3b 1caf 823b
000003e0: e900 7db9 eb66 9cba 0e21 a53a d2b4 2e3b
000003f0: 4b8a 913a be16 b3bb ee2c 133c 5933 06ba

encoder.6.bias f4 [128]
-0.014130269 -0.0003439242 -0.013786509 0.0022804008 -0.0011683849 -0.0029707253 -0.002755147 -0.0011358757
-0.0129297245 0.006648415 0.000880115 -0.0007812162 -0.00019616674 0.0071224207 -0.005382741 -0.009870637
0.0032596765 -0.0026983821 0.0038028394 -2.888871e-07 -0.0007985427 -0.003772441 -0.0041746954 -0.0021657692
0.00063721347 -0.00197195 0.0037642755 -0.0035928297 -0.043481246 -0.0058038062 -0.0074257352 0.0013253686
-0.005237291 0.004099696 -0.011382484 0.0008691705 -0.0011044468 0.0039403904 -0.0047369967 -0.00649297
0.0035809602 -0.0019166489 -0.0014252728 0.0019367816 -0.01644186 0.0037805454 0.0017364997 -0.006843415
-0.00492981 -0.0041643223 0.009782171 0.0074053127 -0.00068954955 -0.0018490603 -0.00087196 7.990851e-07
0.0037612321 -0.0009415084 0.005929829 0.000117891344 0.0051423158 3.8956463e-33 0.008954343 -0.015813073
0.0019844782 -4.799769e-05 0.0042271847 0.0032015906 -7.010636e-05 0.0016579194 -0.0018110919 -0.0068319286
0.0014139636 -0.009426927 -0.003997333 0.009821578 0.00035372746 0.0015804359 0.006792009 0.043429803
0.0035087198 -0.0038044844 0.006312516 0.008996308 -1.776384e-11 0.012680748 -0.006803306 -0.0013607688
0.000611099 0.0033713356 -0.00072275795 -0.0019972974 0.002394704 0.002046626 -0.00042843015 -0.008096752
-0.0054592276 0.007836582 2.3315189e-35 0.004764102 -0.00046134903 0.0048832847 0.008111612 0.0021863128
-0.0019410229 0.0018258061 0.0013357954 -0.00059545366 -0.0012815543 0.0005061541 -0.0014456136 -0.0016592322
-0.005894076 0.0015439421 -0.007731837 -8.028225e-05 -0.0061689364 -0.012300672 0.0043225195 0.0008930581
-0.004530537 -0.00056276674 -0.0014573997 0.0065801144 0.0009654059 -0.004135756 -0.00402101 -5.3235126e-06
00000000: a582 67bc ba50 b4b9 cfe0 61bc c772 153b
00000010: 7e24 99ba 80b0 42bb b28f 34bb aae1 94ba
00000020: 32d7 53bc f2da d93b 85b7 663a 88ca 4cba
00000030: 1cb2 4db9 3263 e93b b461 b0bb 74b8 21bc
00000040: 4ca0 553b 57d7 30bb 0f39 793b 5718 9bb4
00000050: 4b55 51ba 0f3b 77bb e2cb 88bb 94ef 0dbb
00000060: ac0a 273a d53b 01bb 10b2 763b ae75 6bbb
00000070: 6419 32bd db2d bebb 9553 f3bb feb7 ad3a
00000080: 959d abbb be56 863b 997d 3abc 0bd9 633a
00000090: 16c3 90ba 641e 813b cf38 9bbb fbc2 d4bb
000000a0: 8bae 6a3b 1138 fbba 38d0 baba 9bdb fd3a
000000b0: 14b1 86bc 07c3 773b 439b e33a ba3e e0bb
000000c0: 3e8a a1bb de74 88bb 6645 203c 44a8 f23b
000000d0: e3c2 34ba 2b5c f2ba 3f94 64ba b680 5635
000000e0: 017f 763b 8fcf 76ba 034f c23b 6f3c f738
000000f0: df80 a83b 9ed1 a109 3db5 123c 6b8a 81bc
00000100: 050e 023b 2151 49b8 3284 8a3b c7d1 513b
00000110: 1106 93b8 8b4e d93a 2962 edba 5fde dfbb
00000120: bf54 b93a 6673 1abc 0ffc 82bb afea 203c
00000130: 7f74 b939 a126 cf3a 808f de3b 73e3 313d
00000140: 8df2 653b a854 79bb 39d9 ce3b 4065 133c
00000150: 9d40 9cad e9c2 4f3c 44ee debb d35b b2ba
00000160: 2932 203a a0f1 5c3b 7777 3dba 17e5 02bb
00000170: 77f0 1c3b b020 063b ec9e e0b9 3da8 04bc
00000180: 52e3 b2bb 0265 003c fbed f705 2f1c 9c3b
00000190: 38e1 f1b9 f603 a03b 91e6 043c 3e48 0f3b
000001a0: ec69 feba e34f ef3a db15 af3a 3818 1cba
000001b0: d4f9 a7ba 6daf 043a be7a bdba 987a d9ba
000001c0: 1823 c1bb 1a5e ca3a 5a5b fdbb 345d a8b8
000001d0: ca24 cabb c288 49bc eca3 8d3b 1d1c 6a3a
000001e0: e674 94bb a386 13ba 3806 bfba 009e d73b
000001f0: 4b13 7d3a 3c85 87bb adc2 83bb a0a0 b2b6

decoder.0.weight f4 [128, 64, 3, 3]
-0.0016127054 5.5926e-40 0.005104707 -0.0066027637 0.0064228913 -0.0060527166 0.0062667793 5.79646e-40
-0.0022966624 -0.0021043527 0.010632795 0.0055117775 0.004040389 0.0024248012 0.0054869517 -0.0012713074
0.004971305 -0.00082459673 0.0020593123 0.012475208 0.0066138725 0.0035472934 0.0050460077 0.008053371
0.0017874262 0.011334869 0.0054453015 -0.022480013 -0.018706407 -0.019323856 -0.019976176 -0.012130206
-0.014708428 -0.023932828 -0.019224992 -0.022981254 -0.0028326318 0.003837656 -0.0031868978 -1.032445e-20
0.0030456039 -2.8018263e-09 -0.003365125 0.007583175 0.0007096373 0.008688089 0.0025803056 0.008256886
0.0058711595 0.012239595 0.016035942 0.009321625 0.008199187 0.023833934 0.005808333 0.007592159
0.005125896 0.009033442 0.016523458 0.018053755 0.0007737953 -0.00085007015 -0.0029311718 3.6384712e-08
0.031408634 1.1032158e-06 4.98438e-40 0.024121355 4.95743e-40 4.4010967e-06 0.03093464 3.427675e-05
-4.92918e-40 0.006115078 4.92004e-40 0.0067684357 0.02262443 0.0099996 -4.90937e-40 0.008701759
-4.9476e-40 -0.0057429965 -0.0012568161 0.004994728 0.00040537858 0.0013305837 -0.011028125 0.023607273
0.018169262 0.03256662 0.012155821 0.0138754845 0.009655682 0.00897134 0.005728957 0.01306663
0.007423548 0.0062302607 0.0023693286 0.0017353072 -0.0001919968 -0.0008796219 0.0026665912 -3.8113505e-08
0.0051234867 -0.002501156 3.5286273e-05 0.0009375311 0.0076982053 0.003683741 0.0049162386 0.010360398
0.011139084 0.022906419 0.012635933 0.007668944 0.017299531 0.007883523 0.008806777 0.012312338
0.0022035632 0.013108939 0.010672238 0.020281743 0.01347429 0.030044213 0.0031982746 0.011225205
0.007133172 0.0054848953 0.016250826 0.009070647 0.006641439 0.012525698 0.0117175765 4.94283e-40
0.005386382 4.947e-40 0.0034104346 0.0073960708 0.005484677 4.93924e-40 -0.0007912044 -5.93943e-40
-7.23821e-40 5.51452e-40 -3.457034e-39 0.0065297806 0.0043630097 0.002391899 -7.8851e-41 5.0076e-40
-1.847384e-39 0.010175447 0.0019950427 -0.0013811913 0.008902532 0.000962232 0.0021589675 0.014439989
0.014382364 0.0017663885 -0.0047048507 1.1591857e-17 -0.0059694955 1.1031372e-17 0.04624719 -3.874571e-17
0.010418897 1.545806e-17 0.01349977 -0.00056418893 -0.00017105597 -0.0013364066 -0.0018626133 1.6198424e-12
-0.0018907127 -0.00033772335 0.00030044134 -0.0021483907 6.7509e-40 -0.0006720019 1.159818e-39 0.011040741
0.00955535 0.011798827 2.10196e-40 0.0031875726 -7.85659e-40 0.009368467 0.015794288 0.010963112
0.0022367944 0.00029021443 0.00718272 0.008223013 0.016309578 0.0012552902 0.003398449 0.0038798056
0.004045846 0.0039070756 0.005037341 0.011035122 -0.0007362641 0.0011371863 0.0007363109 0.0223513
0.0053986576 0.011065243 0.0068099517 0.0031601337 0.0049556093 0.021154013 0.014139692 0.021566719
-0.002673428 0.005143173 -0.0021894332 0.00998264 0.019407645 0.0010306049 0.030038545 0.02500985
0.015587276 -0.0038597814 -0.00030309768 -0.004510074 0.0054338262 -0.009166042 -0.0015238173 0.007923929
0.0029252493 0.012188937 0.0026153708 0.012386888 0.0062440783 0.0077177235 0.010284509 -0.0066582942
0.00050228543 0.007079461 0.02543623 -0.0009834579 -6.05735e-40 -0.0004645387 0.008105414 -6.06342e-40
0.0150492815 0.0019124969 5.52128e-40 0.013716773 0.0029215065 -0.0031390307 0.006232801 0.002516839
00000000: 6a61 d3ba fd16 0600 6345 a73b ff5b d8bb
00000010: 1e77 d23b de55 c6bb 8e59 cd3b d14f 0600
00000020: 9a83 16bb 2ee9 09bb 2d35 2e3c 249c b43b
00000030: 3d65 843b 6ae9 1e3b e3cb b33b ffa1 a6ba
00000040: 54e6 a23b c029 58ba 87f5 063b d164 4c3c
00000050: 2fb9 d83b b579 683b fb58 a53b 49f2 033c
00000060: 1248 ea3a e3b5 393c 806e b23b 0128 b8bc
00000070: 2e3e 99bc 104d 9ebc 14a5 a3bc c6bd 46bc
00000080: 9efb 70bc c70e c4bc bb7d 9dbc 2f43 bcbc
00000090: ada3 39bb 2f81 7b3b 46db 50bb fa05 439e
000000a0: c198 473b 408a 40b1 6e89 5cbb 487c f83b
000000b0: f406 3a3a 7d58 0e3c 581a 293b e447 073c
000000c0: db62 c03b 9588 483c cf5d 833c bbb9 183c
000000d0: e255 063c 623f c33c d453 be3b a5c7 f83b
000000e0: 22f7 a73b 0001 143c 345c 873c 78e5 933c
000000f0: 86d8 4a3a 3ed7 5eba e718 40bb 6a45 1c33
00000100: 57a6 003d 3512 9435 716d 0500 269a c53c
00000110: ee65 0500 22ad 9336 a46a fd3c 61c4 0f38
00000120: 0e5e 0580 fe60 c83b 825b 0500 c1c9 dd3b
00000130: de56 b93c 5dd5 233c 8858 0580 d391 0e3c
00000140: 3163 0580 bf2f bcbb c0bb a4ba d1aa a33b
00000150: fe88 d439 fb66 ae3a 4faf 34bc 0a64 c13c
00000160: b4d7 943c 9364 053d 3529 473c 0056 633c
00000170: de32 1e3c 87fc 123c f9b9 bb3b 6b15 563c
00000180: 3c41 f33b 3727 cc3b bd46 1b3b 3f73 e33a
00000190: c052 49b9 6d96 66ba fac1 2e3b 3eb2 23b3
000001a0: ece2 a73b 6fea 23bb 5900 1438 a6c4 753a
000001b0: 3a41 fc3b eb6a 713b 6618 a13b a9be 293c
000001c0: b480 363c 3ea6 bb3c f206 4f3c c44b fb3b
000001d0: bfb7 8d3c e429 013c 4d4a 103c b0b9 493c
000001e0: a869 103b e0c6 563c 9cda 2e3c e625 a63c
000001f0: 45c3 5c3c 481f f63c 259a 513b ece9 373c
00000200: 62bd e93b a3ba b33b 7420 853c 0d9d 143c
00000210: 6ea0 d93b 9638 4d3c 14fb 3f3c dc61 0500
00000220: 3f80 b03b 0663 0500 9981 5f3b bd5a f23b
00000230: ceb8 b33b dc60 0500 d468 4fba ac77 0680
00000240: b8e1 0780 3901 0600 cea4 2580 c5f7 d53b
00000250: 94f7 8e3b 68c1 1c3b cedb 0080 ea73 0500
00000260: c11d 1480 ebb6 263c 43bf 023b 1709 b5ba
00000270: eddb 113c 4c3e 7c3a 777d 0d3b b495 6c3c
00000280: 02a4 6b3c 2a86 e73a 262b 9abb ffd4 5523
00000290: c29b c3bb 2e7e 4b23 b26d 3d3d dcae 32a4
000002a0: 05b4 2a3c 5093 8e23 242e 5d3c 14e6 13ba
000002b0: 7d5d 33b9 5d2a afba ee22 f4ba f9f8 e32b
000002c0: cad1 f7ba 7610 b1b9 8e84 9d39 04cc 0cbb
000002d0: e059 0700 4929 30ba 1aa1 0c00 39e4 343c
000002e0: 0b8e 1c3c de4f 413c f149 0200 98e6 503b
000002f0: 198e 0880 337e 193c 0663 813c a09e 333c
00000300: 2f97 123b ec27 9839 065d eb3b d1b9 063c
00000310: aa9b 853c 8d88 a43a 83b8 5e3b 5644 7e3b
00000320: 0493 843b ed06 803b 4710 a53b a8cc 343c
00000330: d901 41ba a40d 953a fd04 413a 131a b73c
00000340: 39e7 b03b fe4a 353c 0426 df3b 3f1a 4f3b
00000350: aa62 a23b 2e4b ad3c 2baa 673c b0ac b03c
00000360: ae34 2fbb 1088 a83b 987c 0fbb 3a8e 233c
00000370: c8fc 9e3c 5d15 873a 6513 f63c 75e1 cc3c
00000380: c661 7f3c 63f4 7cbb 15e9 9eb9 3ec9 93bb
00000390: 3d0e b23b 2b2d 16bc d3ba c7ba 5ed3 013c
000003a0: 8ab5 3f3b 1bb4 473c a466 2b3b 60f2 4a3c
000003b0: 209b cc3b f5e4 fc3b 5b80 283c d22d dabb
000003c0: ceab 033a d3fa e73b a45f d03c 5fe7 80ba
000003d0: 8b98 0680 548d f3b9 92cc 043c 3c9a 0680
000003e0: 4391 763c bfac fa3a 1c03 0600 51bc 603c
000003f0: bf76 3f3b 32b8 4dbb 863c cc3b 8df1 243b

decoder.0.bias f4 [64]
-0.009438969 -0.014969268 -0.0054203123 0.076912224 0.0071269916 -0.005175898 0.010991971 -0.034975145
-0.0047516604 -0.035111398 -0.006343179 0.0013704513 -0.0075026425 -0.049219035 -0.015615314 -0.0039524334
-0.009487248 -0.006791707 -0.0024914723 0.001750385 -0.006814878 0.007173032 -0.0044894433 -0.01821328
-0.078582354 0.009203977 0.038949072 -0.007274428 -0.0066321106 -0.006607764 -0.03586893 -0.016810704
-0.0055113235 0.028605867 -0.00035185294 -0.0021436727 -0.014605917 0.006187295 -0.003199825 0.16729529
-0.0024002944 -0.006135629 -0.004960391 0.017100224 -0.00017177031 -0.076461166 0.029217405 0.024351751
0.0065283524 -0.03024507 0.0036794913 -0.03207228 -0.0073638894 -0.00067393976 -0.0019193807 -0.023551155
0.0032630481 -0.014845215 -0.0008320101 0.016923534 0.016610308 -0.014291204 0.014204063 -0.0035322749
00000000: e8a5 1abc a941 75bc e09c b1bb 2884 9d3d
00000010: 8a89 e93b 949a a9bb ab17 343c 1942 0fbd
00000020: d1b3 9bbb f8d0 0fbd 71da cfbb b7a0 b33a
00000030: bad8 f5bb e699 49bd 60d7 7fbc 6a83 81bb
00000040: 6770 1bbc f88c debb f847 23bb 2d6d e53a
00000050: 574f dfbb c10b eb3b 2e1c 93bb 0434 95bc
00000060: c9ef a0bd 47cc 163c 1089 1f3d 535e eebb
00000070: 2d52 d9bb f185 d8bb 4deb 12bd 9ab6 89bc
00000080: 5598 b4bb da56 ea3c e778 b8b9 dc7c 0cbb
00000090: a84d 6fbc cbbe ca3b 28b4 51bb 754f 2b3e
000000a0: 424e 1dbb 630d c9bb c78a a2bb c515 8c3c
000000b0: 3e1d 34b9 ac97 9cbd 5759 ef3c 537d c73c
000000c0: caeb d53b 82c4 f7bc 9f23 713b 395e 03bd
000000d0: c84c f1bb 55ab 30ba bb93 fbba 5aee c0bc
000000e0: ddd8 553b 5839 73bc 411b 5aba 39a3 8a3c
000000f0: 5712 883c a725 6abc 29b8 683c bd7d 67bb

decoder.2.weight f4 [64, 32, 3, 3]
0.036152083 0.0045019328 -0.019252788 0.04980762 0.017635865 -0.034724936 0.030694945 0.0070354827
-0.020635018 0.026060324 -0.013301899 0.006574021 -0.0008267158 0.0065273987 0.016035 0.014679286
0.0032430207 0.0041431133 -0.021483948 -0.007023597 0.0066306195 -0.019287646 -0.021971872 0.0066745123
-0.008273175 -0.0073778653 0.0054648714 0.00902538 -0.024287723 0.0005247479 -0.0035908124 0.0023228186
0.026875185 0.0008878632 -0.0073124035 0.008323219 0.018922174 0.009908154 -0.04168991 0.034565218
0.03142476 -0.061404794 0.017571302 0.0054901093 -0.036301687 0.0057467544 0.0047563766 -0.010614734
0.014435836 0.017805627 -0.010281275 0.009785452 0.00769671 -0.005503221 0.0012313186 0.0014504374
0.014955019 0.01234703 -0.029561738 -0.009641094 0.018209098 -0.008050999 0.0006927919 0.0162803
0.0030826423 0.011140507 0.023373729 0.021337345 -0.024908734 0.034452524 0.02678277 -0.034785777
0.03690591 -0.02393362 -0.044118963 0.030095693 -0.003315812 -0.06535903 0.04303861 0.0005361344
-0.05728172 -0.028204912 0.001974934 0.039416377 -0.04272054 0.016441891 0.07348437 -0.02375745
-0.0021398566 0.040293682 0.017589789 -0.010885118 -0.025964094 0.009159648 0.0027779483 -0.048855875
0.0040584737 -0.022480546 -0.032135677 -0.024247482 0.014554309 0.054019563 -0.024368621 -0.030259382
0.07387026 -0.031035095 -0.001803555 0.052418683 0.00041083313 -0.009779497 -0.0046708644 0.06335812
0.0017375023 -0.072972335 0.035856 0.0038146898 -0.05140639 0.021821115 -0.016942643 -0.019623974
0.028581293 -0.0046511022 -0.04956518 0.016595537 -0.008054896 -0.02392879 -0.023877544 0.0066957125
0.049179908 -0.038379528 -0.026629021 0.057295382 -0.02537154 -0.022539211 0.054718353 0.006782947
0.0035437224 -0.037803892 -0.0050369957 0.003260347 -0.017716102 -0.02949462 -0.0065730466 0.020752769
-0.008666896 0.010267791 0.018814137 -0.017416073 0.010007238 0.042228896 -0.009908942 0.0086007705
0.021386106 0.0330601 -0.013567843 -0.02159448 0.058257718 0.0023763315 -0.047150947 0.033345193
-0.0065729986 -0.019737277 0.005518301 -0.005237535 -0.01059396 0.06082514 0.037222058 -0.008231713
0.0039521535 0.013136798 0.0014790246 -0.02178674 0.00039686853 0.013038195 -0.03435847 -0.023883648
0.0398634 -0.022249866 -0.011545604 0.024630375 0.0070661916 -0.02641569 -0.031110158 0.018165596
-0.0037320566 -0.053358436 0.0064640027 -0.034323167 -0.03876339 0.037613127 -0.002839394 -0.0489971
0.02831326 0.012659313 -0.070338786 0.0013782108 -0.0009918839 -0.027943984 0.012776813 0.007747755
-0.027423587 0.04205415 0.0089744115 -0.07679575 -0.0003801404 0.0018330488 -0.036299504 -0.0069077653
0.008903248 0.005801277 -0.014505107 -0.0036816343 -0.017926818 0.0044256304 0.009894764 -0.015033919
-0.025002187 0.0004707301 0.038265657 -0.033695377 4.9347e-40 0.05884317 -0.019431628 -0.01639375
0.0280854 -0.029071473 -0.0042213122 0.03159962 -0.034441672 -0.010942103 0.043127958 -0.025257546
-0.014071929 0.039523117 0.0054895706 -0.002218137 0.0071717487 -0.0043878993 0.009690729 -0.005326441
0.0056692255 -0.007058579 0.0037598084 0.018701116 0.0006080033 0.008757905 0.03018215 0.019069366
-0.012384429 0.024050495 0.00860038 -0.010952385 -0.016278582 0.009760937 0.027051281 -0.042869113
00000000: 3514 143d f384 933b 06b8 9dbc 1303 4c3d
00000010: 1779 903c bc3b 0ebd f773 fb3c e889 e63b
00000020: c50a a9bc 767c d53c 35f0 59bc e36a d73b
00000030: f5b7 58ba cae3 d53b d55b 833c 6381 703c
00000040: dc88 543b f4c2 873b 1bff afbc 3426 e6bb
00000050: ab45 d93b 2001 9ebc 5bfe b3bc deb5 da3b
00000060: 368c 07bc 05c2 f1bb aa12 b33b 30df 133c
00000070: 0cf7 c6bc 3c8f 093a d653 6bbb 6e3a 183b
00000080: 5929 dc3c 7ebf 683a e39c efbb 1c5e 083c
00000090: ad02 9b3c cf55 223c 0ac3 2abd 4294 0d3d
000000a0: 40b7 003d 9883 7bbd b1f1 8f3c 60e6 b33b
000000b0: 14b1 14bd 454f bc3b 61db 9b3b 6ce9 2dbc
000000c0: 4984 6c3c 1bdd 913c cb72 28bc 2953 203c
000000d0: af34 fc3b 5d54 b4bb 3264 a13a 9a1c be3a
000000e0: e505 753c 334b 4a3c 752b f2bc aef5 1dbc
000000f0: 3f2b 953c 56e8 03bc 7a9c 353a 445e 853c
00000100: 2806 4a3b ac86 363c 437a bf3c a8cb ae3c
00000110: 670d ccbc 171e 0d3d 8a67 db3c 887b 0ebd
00000120: a72a 173d 7010 c4bc 16b6 34bd 3e8b f63c
00000130: 184e 59bb f5da 85bd 4149 303d 5f8b 0c3a
00000140: 3da0 6abd fd0d e7bc e56d 013b 1173 213d
00000150: bcfb 2ebd 25b1 863c f97e 963d fc9e c2bc
00000160: d63c 0cbb fd0a 253d 7618 903c 7e57 32bc
00000170: a7b2 d4bc 5912 163c 3d0e 363b 191d 48bd
00000180: f2fc 843b 1f29 b8bc b3a0 03bd a8a2 c6bc
00000190: 3275 6e3c 9e43 5d3d b4a0 c7bc 86e2 f7bc
000001a0: 4a49 973d 503d febc 4365 ecba f9b4 563d
000001b0: 1765 d739 2f3a 20bc 0d0e 99bb e7c1 813d
000001c0: e7bc e33a 8572 95bd bedd 123d e0ff 793b
000001d0: 828f 52bd 32c2 b23c 4ccb 8abc 75c2 a0bc
000001e0: 5123 ea3c 4668 98bb dc04 4bbd 5df3 873c
000001f0: aff8 03bc 4f06 c4bc d79a c3bc b567 db3b
00000200: df70 493d da33 1dbd 1b25 dabc 90ae 6a3d
00000210: fad7 cfbc 27a4 b8bc 5a20 603d 7c43 de3b
00000220: cc3d 683b 41d8 1abd 620d a5bb 8cab 553b
00000230: 5c21 91bc b49e f1bc b662 d7bb b601 aa3c
00000240: 99ff 0dbc 3d3a 283c 1b20 9a3c 27ac 8ebc
00000250: 66f5 233c 35f8 2c3d 1d59 22bc 3fea 0c3c
00000260: ea31 af3c 076a 073d a84b 5ebc e8e6 b0bc
00000270: a59f 6e3d 3abc 1b3b 5a21 41bd f894 083d
00000280: 4f62 d7bb 12b0 a1bc ddd2 b43b a19f abbb
00000290: 4a92 2dbc c823 793d 2876 183d 4fde 06bc
000002a0: 1181 813b b93b 573c d5db c13a 1b7a b2bc
000002b0: cb12 d039 279e 553c 78bb 0cbd a4a7 c3bc
000002c0: ce47 233d 5a45 b6bc c629 3dbc a4c5 c93c
000002d0: 838b e73b b865 d8bc bbda febc 04d0 943c
000002e0: 8595 74bb 608e 5abd fccf d33b 7396 0cbd
000002f0: 5cc6 1ebd 3910 1a3d 2015 3abb 2fb1 48bd
00000300: 36f1 e73c 0269 4f3c c80d 90bd 15a5 b43a
00000310: 1a02 82ba c8ea e4bc d655 513c e1e0 fd3b
00000320: 6ea7 e0bc f940 2c3d 6909 133c 1747 9dbd
00000330: 954d c7b9 e942 f03a caae 14bd 895a e2bb
00000340: eede 113c a318 be3b d4a6 6dbc 9347 71bb
00000350: 43db 92bc e104 913b a61d 223c d450 76bc
00000360: 63d1 ccbc 53cc f639 73bc 1c3d 2a04 0abd
00000370: 985f 0500 8905 713d 142f 9fbc 304c 86bc
00000380: 5a13 e63c 4c27 eebc ef52 8abb 9a6e 013d
00000390: b612 0dbd 8246 33bc f1a6 303d eae8 cebc
000003a0: f38d 66bc fee2 213d dbe1 b33b 2a5e 11bb
000003b0: fd00 eb3b 5ec8 8fbb ddc5 1e3c 6d89 aebb
000003c0: e9c4 b93b a74b e7bb 1e67 763b 1533 993c
000003d0: 6962 1f3a 517d 0f3c 8e40 f73c 5c37 9c3c
000003e0: 0fe8 4abc 8b05 c53c 9ce8 0c3c a271 33bc
000003f0: a95a 85bc 56ec 1f3c a69a dd3c 8697 2fbd

decoder.2.bias f4 [32]
0.19689393 -0.029539965 -0.02170494 -0.011812186 0.030281344 0.09189311 0.01682011 0.10048185
0.09245008 -0.05724198 -0.005105231 -0.052315503 0.11849367 0.036107887 -0.057802226 0.08453841
0.05340628 0.037673153 0.095765084 -0.073766455 0.021140043 0.06891518 0.004494906 0.020444471
-0.0817733 -0.025156356 -0.020324927 0.14301048 -0.11773655 0.0049334685 0.124675326 -0.010127742
00000000: 909e 493e ccfd f1bc 8fce b1bc e687 41bc
00000010: 9510 f83c 7432 bc3d 54ca 893c 6ec9 cd3d
00000020: 7856 bd3d 9176 6abd c849 a7bb c848 56bd
00000030: cfac f23d dde5 133d 07c2 6cbd 7922 ad3d
00000040: 8bc0 5a3d 2a4f 1a3d 7c20 c43d de12 97bd
00000050: e22d ad3c 6723 8d3d 014a 933b 2a7b a73c
00000060: c378 a7bd b414 cebc 7680 a6bc 5771 123e
00000070: dc1f f1bd efa8 a13b c755 ff3d d4ee 25bc
