Autoencoder GoPro Dataset/autoencoder_model.pth (torch, 785070 bytes, 16 tensors)

encoder.0.weight f4 [16, 3, 3, 3]
00000000: 6758 0500 c566 0500 be5d 0500 0a5b 0500
00000010: 915a 0500 4058 0500 6e59 0500 325c 0500
00000020: b45d 0500 2960 0500 b86e 0580 b35d 0580
00000030: 8067 0500 8968 0580 8357 0580 c06d 0500
00000040: 5968 0580 6e5d 0580 106d 0500 b657 0580
00000050: f063 0580 1d70 0500 c85f 0580 cc68 0580
00000060: 676d 0500 7863 0580 f159 0580 50ee a23d
00000070: d812 9f3d 0bcb be3d 0dd3 af3d 4a15 a93d
00000080: 3af0 d83d 44a6 153d 6074 033e b4e7 df3d
00000090: e951 a2bc e511 5fbd 07c0 de3c ee83 a1bd
000000a0: 1fac 8f3c d4af 51bd d906 7dbd 43c1 4abc
000000b0: 7380 8ebc cccb 2a3e eabd 453e 5d7f 673e
000000c0: 5952 223e 6233 3e3e fb0b 653e 8244 013e
000000d0: 5428 3f3e ac9d 6f3e 9463 0500 1b6e 0500
000000e0: 8661 0500 5062 0500 215c 0500 bb5b 0500
000000f0: 1466 0500 7969 0500 015c 0500 5758 0580
00000100: ba59 0580 ed6e 0580 1c58 0580 5875 0580
00000110: 0d6e 0580 8776 0580 3e76 0580 4e67 0580
00000120: 555c 0500 cd72 0500 2d6f 0500 107e 0580
00000130: 4578 0500 1e59 0500 2276 0580 2c77 0500
00000140: 9b62 0500 ecab a53e 504f bd3e ca0b bb3e
00000150: 9986 c53e 3e5e d93e 00fc d63e fdc9 c03e
00000160: b455 db3e 72eb d83e a237 c23d a802 fb3d
00000170: befc f03d 14d1 013e 721d 203e fc70 143e
00000180: acb0 133e 2fd1 293e 922c 253e 7fb7 d4bd
00000190: 1c38 ccbd f4de c9bd bdf5 bdbd 8e7f b1bd
000001a0: 371e b3bd bfa6 9cbd bfec 8cbd 1153 8fbd
000001b0: 0c83 a2bc 5f47 c5bd f5d1 573d 9c21 bc3d
000001c0: 3373 9fbb 83e9 92bd 6bb7 8f3a eed0 b3bd
000001d0: 86ab 573d ac7d 0e3d 0941 423e 4be0 fc3c
000001e0: f931 dc3d 88e3 3f3d 97df bb3d 3f91 3a3e
000001f0: a485 e33d 3928 0d3e ea41 3c3c c9da 2cbe
00000200: ead6 10be 038e 93bd ca39 12be d134 10be
00000210: 41d5 09be d66b f8bd 81eb c5bd 1208 2c3d
00000220: a396 e83d a11a bf3d 63e9 643d 7a92 9d3d
00000230: 971a c83d a91b a83d faee c33d abef ae3d
00000240: 05da 70bc 5c07 47bc 4a4b 9b3c 9b12 63bd
00000250: 92e6 1d3d 7bed 193c 14be ed3b 54a4 df3c
00000260: faa7 803d 9be8 5ebc daad 193d c711 553c
00000270: e9af 45bd 3a86 0cbd 4ebf 2e3d 57b3 603c
00000280: 50de 203d c4ab 29bd 8560 0580 9863 0580
00000290: cb60 0580 f15c 0580 365c 0580 2c60 0580
000002a0: cb5b 0580 c960 0580 3f57 0580 fb60 0580
000002b0: 1263 0580 925e 0580 7e5f 0580 eb58 0580
000002c0: 2a5d 0580 4464 0580 b558 0580 1959 0580
000002d0: 8057 0580 bd58 0580 255b 0580 695c 0580
000002e0: 6358 0580 8760 0580 6961 0580 cb5b 0580
000002f0: 0a62 0580 703c d63c 68af 073d d953 a43d
00000300: 2b3b 92bc ace9 333d 5aa4 153d ec9d 273d
00000310: 0315 a63d 527c 7a3d f640 153e fbd7 3c3e
00000320: 5840 303e cae0 263e 1b02 173e 0bcb 563e
00000330: c57a 1e3e 21e8 723e 09cb 363e 0507 1a3e
00000340: 5ee2 4a3e 58ec 533e a858 043e 49a2 543e
00000350: 9dbc 5e3e f069 2e3e 1657 823e 0f96 713e
00000360: 5ea2 7b3e 486b 9c3e 5b3d 993e 4237 a63e
00000370: e3cd cd3e 4ecd c43e ba16 ac3e b491 ce3e
00000380: 6efb c93e 28cb b33e 67df da3e df4a d13e
00000390: 2ee6 e13e 5ce0 fe3e f745 f93e 86b1 e53e
000003a0: c009 043f 367e 013f f525 013e 4ee5 3e3e
000003b0: 0eda 303e dcc8 403e da7e 733e 2803 703e
000003c0: 264e 4c3e 0cbb 833e 8b4e 813e 9770 9a3e
000003d0: 9553 b03e b5cf aa3e 0724 a23e f9d2 bf3e
000003e0: 5b9c ab3e c81e 983e 46a7 bc3e 7f2c b43e
000003f0: 7d1e 21be 7443 fabd 6684 fdbd 7a5e 13be
4.9089e-40 4.96044e-40 4.92806e-40 4.91836e-40 4.91667e-40 4.90836e-40 4.91259e-40 4.92251e-40
4.92792e-40 4.93673e-40 -4.98896e-40 -4.9279e-40 4.96306e-40 -4.96678e-40 -4.90571e-40 4.98548e-40
-4.9661e-40 -4.92694e-40 4.98302e-40 -4.90642e-40 -4.95028e-40 4.99396e-40 -4.93537e-40 -4.96772e-40
4.98424e-40 -4.9486e-40 -4.91442e-40 0.07955611 0.07767266 0.09316071 0.085851766 0.08256014
0.105926946 0.036535516 0.12837362 0.10932866 -0.019814448 -0.054460425 0.027191175 -0.07886492
0.017538128 -0.051193073 -0.06177411 -0.012375179 -0.017395234 0.16679305 0.19310728 0.22607179
0.15851726 0.18574288 0.22367851 0.1262379 0.18667728 0.23399991 4.949e-40 4.98676e-40
4.94162e-40 4.94445e-40 4.92227e-40 4.92084e-40 4.95796e-40 4.97014e-40 4.92182e-40 -4.90868e-40
-4.91365e-40 -4.9897e-40 -4.90785e-40 -5.01272e-40 -4.98656e-40 -5.01697e-40 -5.01595e-40 -4.96236e-40
4.923e-40 5.0036e-40 4.9906e-40 -5.044e-40 5.02322e-40 4.91147e-40 -5.01556e-40 5.01928e-40
4.9455e-40 0.32357728 0.36974573 0.36532432 0.38579252 0.42454714 0.41989136 0.37654105
0.42838824 0.4236713 0.09483267 0.12256366 0.11766957 0.12677413 0.15636232 0.14496225
0.14422864 0.16583703 0.16130283 -0.103865616 -0.099716395 -0.09856978 -0.092753865 -0.08666907
-0.087459974 -0.07648992 -0.06881093 -0.069982655 -0.019837879 -0.096327536 0.052690465 0.09186098
-0.0048660277 -0.07173445 0.0010964697 -0.087800846 0.052653812 0.03478782 0.18970121 0.03086867
0.10751719 0.04684785 0.09173506 0.1821947 0.11109474 0.13784875 0.0114903245 -0.16880335
-0.14144483 -0.07204821 -0.14279857 -0.14082648 -0.13460256 -0.12129943 -0.096640594 0.041999884
0.11356857 0.09331251 0.055886637 0.07693954 0.097706966 0.08208401 0.095670655 0.08541807
-0.014700417 -0.012147751 0.018956799 -0.055437665 0.038549967 0.009394999 0.007255325 0.027300037
0.06282039 -0.013605262 0.037519313 0.013004727 -0.048263464 -0.034307696 0.04266291 0.013714633
0.039274514 -0.041423574 -4.93802e-40 -4.94905e-40 -4.939e-40 -4.92519e-40 -4.92257e-40 -4.93677e-40
-4.92107e-40 -4.93897e-40 -4.90475e-40 -4.93968e-40 -4.94717e-40 -4.93103e-40 -4.93434e-40 -4.91075e-40
-4.92598e-40 -4.95146e-40 -4.91e-40 -4.9114e-40 -4.90567e-40 -4.91011e-40 -4.91874e-40 -4.92328e-40
-4.90885e-40 -4.93805e-40 -4.94122e-40 -4.92107e-40 -4.94347e-40 0.026151866 0.033126265 0.08023805
-0.01785048 0.04392402 0.03653369 0.04092209 0.081094764 0.061153717 0.14575562 0.18441765
0.17212045 0.16296688 0.14746897 0.20975892 0.1547652 0.23721363 0.1785089 0.1504174
0.19812915 0.20695627 0.12924445 0.20765032 0.21751638 0.170326 0.25457066 0.23592399
0.24573657 0.305506 0.29929623 0.32464033 0.40196142 0.38437885 0.3361109 0.40345538
0.39449638 0.35115933 0.42748567 0.40877435 0.44120926 0.49780548 0.4868619 0.44862002
0.5157738 0.5058321 0.12612136 0.1864216 0.17270681 0.18826622 0.23778859 0.23438704
0.19951686 0.25728643 0.25255236 0.30164024 0.34438768 0.33361593 0.31668112 0.37465647
0.33517727 0.29710984 0.3684637 0.35190198 -0.15734287 -0.12219897 -0.123787686 -0.14391509

encoder.0.bias f4 [16]
00000000: 105f 0500 c814 fabd 265c 0500 1d96 953d
00000010: ca7e 1d3f b121 02bf 1559 0500 6241 94bd
00000020: f17d d5bd 66e1 1a3e 1da2 253f b4e8 90bd
00000030: 2679 0220 19a3 133f c437 253f 950f 813e
4.9328e-40 -0.12210995 4.92234e-40 0.073040225 0.6152159 -0.5083266 4.91134e-40 -0.07239033
-0.10424412 0.15125045 0.6470049 -0.070756346 1.1051513e-19 0.5767074 0.64538217 0.252072

encoder.2.weight f4 [32, 16, 3, 3]
00000000: 445a 0500 d8b4 0680 ef6d 0500 cccc 0580
00000010: c27d 0580 5694 0500 d563 0500 1d64 0580
00000020: 5e70 0580 0e18 0600 fb81 0500 f392 0500
00000030: ab5b 0500 5071 0500 5a81 0500 8792 0500
00000040: 337a 0500 076b 0500 b37d 0600 6045 0680
00000050: 0096 0680 fd68 0600 ffee 0580 f273 0580
00000060: 9eda 0580 4fc0 0680 c0a1 0600 7757 0580
00000070: 6a64 0580 524b 0600 6367 0500 776a 0500
00000080: 3268 0500 086c 0500 326a 0500 4761 0500
00000090: e691 0580 b465 0580 0f85 0580 117e 0500
000000a0: 73b0 0500 7d6a 0500 e2aa 0500 636e 0500
000000b0: 7bb5 0580 76ad 0580 13bd 0500 12b3 0500
000000c0: 750f 0680 970d 0600 999e 0500 18cc 0600
000000d0: 73b2 0500 17ed 0500 4c92 0600 5967 0600
000000e0: 1e4d 0600 de78 0600 0230 0680 2ed5 0500
000000f0: 60b3 0600 ab29 0680 1646 0680 2a5f 0580
00000100: 4e69 0580 9c61 0580 d462 0580 f96d 0580
00000110: e34b 0600 5a67 0500 2e58 0500 e85e 0500
00000120: 8263 0500 415e 0500 d664 0500 005c 0500
00000130: c957 0500 b561 0500 ae63 0500 d95d 0500
00000140: 5161 0500 d75d 0580 7460 0580 4175 0580
00000150: a774 0580 326d 0580 0d7a 0580 b862 0580
00000160: 706c 0580 aa60 0580 e479 0500 086d 0500
00000170: c16a 0500 407e 0500 a2cb 0580 abd0 0680
00000180: b563 0580 c65f 0580 6f74 0580 3860 0500
00000190: 7c5b 0500 0a60 0500 8a67 0680 82b7 0580
000001a0: 6265 0580 865b 0580 9a61 0580 bc5a 0580
000001b0: c9de 0580 8f2d 0680 1615 0680 e22b 0680
000001c0: e099 0680 a595 0680 d0ac 0500 f9c9 0580
000001d0: 0c21 0680 2998 0580 9910 0600 0e91 0500
000001e0: 7872 0500 e56f 0500 0862 0500 1485 0500
000001f0: 995c 0500 ac81 0500 f9b4 0580 b341 0680
00000200: 07fe 0580 406b 0580 1f7a 0580 4adc 0680
00000210: 18c7 0580 055e 0580 7dae 0580 fafe 0500
00000220: aa96 0600 6f77 0680 856f 0500 5687 0680
00000230: 8689 0600 a18c 0500 0d69 0680 763a 0600
00000240: 21d4 0500 fce2 0500 3760 0500 0dc1 0500
00000250: c004 0600 d297 0500 cdcc 0680 b61e 0680
00000260: 9ab8 0500 53da 2836 ac30 a335 9b13 f533
00000270: f464 0036 a0e7 2535 bc2f ecb4 95dd 3335
00000280: e21d e6b4 4c4b aab5 3d25 0680 b8c1 0580
00000290: 42fd 0500 db4c 0600 91fc 0580 5178 0680
000002a0: 94f3 0500 89db 0600 6dfc 0500 4c55 ba36
000002b0: 4076 1536 7cb1 72b5 4a2f a336 6ebd ba35
000002c0: 7b4e ffb5 4a26 9b36 de53 bd35 0168 d3b5
000002d0: 5973 0e37 756a 1a37 d1e1 1a37 6100 d536
000002e0: cf5f f036 1079 f136 cafa db36 b044 f636
000002f0: 78dc f636 deda cf32 62ac 1332 adc2 ad21
00000300: 814f 0ab2 d8eb 9f31 ef0b 6221 b54b 5cb2
00000310: c46f c331 9204 4421 cc67 0500 9d65 0500
00000320: 0958 0580 7361 0500 da6a 0500 2458 0580
00000330: 1480 0500 7f73 0500 535a 0580 95c9 8fb4
00000340: 38f6 26b6 7d26 87b6 4296 dfb5 e29b 84b6
00000350: 9d3f b9b6 a45d 32b6 2f0e a0b6 5fc5 cdb6
00000360: b743 b538 5489 32b8 36fd 54b9 8a49 cf38
00000370: a465 34b8 9f4a 68b9 22f5 dc38 3d19 f3b7
00000380: aad9 54b9 380f f136 f3e4 bc36 54f6 9036
00000390: 3040 d236 71ff 9e36 3e9a 6836 fe00 bc36
000003a0: bf39 8e36 4c3b 5536 180b 6337 edf1 6637
000003b0: 0e33 6037 96a9 4937 c688 4e37 d3c4 4737
000003c0: 9073 4037 7e1b 4637 c83f 4037 5d85 b1b6
000003d0: 74a8 33b7 d475 81b7 5176 e7b6 64c6 56b7
000003e0: 9163 97b7 7093 efb6 26cd 54b7 2932 93b7
000003f0: 6023 6418 b28e 7b18 9bc2 0318 53ac 0c19
4.91559e-40 -6.15887e-40 4.98614e-40 -5.32645e-40 -5.04291e-40 5.1239e-40 4.9499e-40 -4.95091e-40
-4.99487e-40 5.59642e-40 5.05806e-40 5.11893e-40 4.92062e-40 4.99826e-40 5.0558e-40 5.11742e-40
5.03014e-40 4.97572e-40 5.96105e-40 -5.759e-40 -6.04823e-40 5.88676e-40 -5.44913e-40 -5.00771e-40
-5.37603e-40 -6.2e-40 6.09038e-40 -4.90554e-40 -4.95199e-40 5.78033e-40 4.96266e-40 4.9737e-40
4.96556e-40 4.97932e-40 4.97273e-40 4.94074e-40 -5.11516e-40 -4.95662e-40 -5.0691e-40 5.04402e-40
5.22476e-40 4.97378e-40 5.20479e-40 4.98777e-40 -5.2428e-40 -5.21404e-40 5.27005e-40 5.23416e-40
-5.56558e-40 5.55888e-40 5.16072e-40 6.24228e-40 5.23193e-40 5.44229e-40 6.03494e-40 5.88087e-40
5.78677e-40 5.94372e-40 -5.68235e-40 5.35652e-40 6.1536e-40 -5.6596e-40 -5.76155e-40 -4.93316e-40
-4.96954e-40 -4.94193e-40 -4.9463e-40 -4.98628e-40 5.78236e-40 4.96253e-40 4.9081e-40 4.93223e-40
4.94874e-40 4.9299e-40 4.9535e-40 4.92181e-40 4.90669e-40 4.94228e-40 4.94936e-40 4.92844e-40
4.94088e-40 -4.92841e-40 -4.93778e-40 -5.0124e-40 -5.01024e-40 -4.9835e-40 -5.02961e-40 -4.94591e-40
-4.98078e-40 -4.93854e-40 5.02904e-40 4.9829e-40 4.97474e-40 5.04467e-40 -5.32227e-40 -6.25869e-40
-4.94946e-40 -4.93535e-40 -5.00946e-40 4.93694e-40 4.91996e-40 4.9363e-40 -5.88156e-40 -5.25008e-40
-4.95547e-40 -4.9201e-40 -4.9419e-40 -4.91727e-40 -5.39098e-40 -5.67356e-40 -5.58577e-40 -5.66755e-40
-6.06213e-40 -6.04695e-40 5.21171e-40 -5.31632e-40 -5.62868e-40 -5.13762e-40 5.56967e-40 5.11213e-40
5.00241e-40 4.99318e-40 4.94344e-40 5.06917e-40 4.92395e-40 5.05695e-40 -5.24098e-40 -5.74581e-40
-5.50305e-40 -4.97652e-40 -5.02986e-40 -6.30038e-40 -5.30599e-40 -4.92905e-40 -5.21772e-40 5.50646e-40
6.05061e-40 -5.93858e-40 4.99183e-40 -5.99562e-40 6.00347e-40 5.09626e-40 -5.88698e-40 5.71985e-40
5.35275e-40 5.40604e-40 4.93693e-40 5.28431e-40 5.52717e-40 5.1364e-40 -6.24482e-40 -5.6203e-40
5.254e-40 2.5161032e-06 1.2158612e-06 1.1412268e-07 1.9132249e-06 6.180435e-07 -4.3993157e-07 6.700514e-07
-4.286258e-07 -1.2687901e-06 -5.64372e-40 -5.2867e-40 5.50029e-40 5.78584e-40 -5.49781e-40 -5.94174e-40
5.46557e-40 6.29767e-40 5.49731e-40 5.553162e-06 2.227156e-06 -9.04103e-07 4.8632837e-06 1.3913211e-06
-1.9021821e-06 4.6238174e-06 1.4106006e-06 -1.5750994e-06 8.490716e-06 9.203902e-06 9.231692e-06 6.347939e-06
7.163711e-06 7.196453e-06 6.5559043e-06 7.3393676e-06 7.3570372e-06 2.4197501e-08 8.5957215e-09 1.1774466e-18
-8.050734e-09 4.6543214e-09 7.658757e-19 -1.2822899e-08 5.687953e-09 6.641343e-19 4.96413e-40 4.9563e-40
-4.90759e-40 4.94136e-40 4.97509e-40 -4.90796e-40 5.05123e-40 5.0061e-40 -4.9158e-40 -2.6782496e-07
-2.4879246e-06 -4.027794e-06 -1.6658526e-06 -3.9520537e-06 -5.520835e-06 -2.6578573e-06 -4.7700228e-06 -6.132453e-06
8.6433654e-05 -4.2566404e-05 -0.00020312224 9.884227e-05 -4.3010004e-05 -0.00022153043 0.00010536077 -2.897961e-05
-0.00020298982 7.1841314e-06 5.62949e-06 4.320211e-06 6.26596e-06 4.7385042e-06 3.4660475e-06 5.602952e-06
4.2386523e-06 3.1773989e-06 1.3532837e-05 1.3765396e-05 1.33633275e-05 1.2020018e-05 1.2310402e-05 1.1907151e-05
1.1470998e-05 1.1808121e-05 1.1458942e-05 -5.2905366e-06 -1.07084525e-05 -1.5432866e-05 -6.8981103e-06 -1.2801585e-05
-1.8046967e-05 -7.139919e-06 -1.26839495e-05 -1.7547123e-05 2.948617e-24 3.2513032e-24 1.7029604e-24 7.272631e-24

encoder.2.bias f4 [32]
00000000: a558 0580 9e1f ab37 be9a 7e3e e694 d3bb
00000010: 47f8 0a36 375d f4bb 7359 0500 ab46 a23b
00000020: 5421 7d3e 79f2 843e 4567 1a3e ec45 5fbc
00000030: 8962 0500 195f 0580 585f 0500 1b25 03be
00000040: 64d8 5b3e 0161 0500 8b85 e73b 7302 8f3c
00000050: 4890 4d3e 38ae 59bc e44c 7cbc 1d64 0500
00000060: 001b 943c ac5e 0500 d15f 0580 ad36 98bc
00000070: 206a b7bc 3ee9 86bc 1074 4bbc e36e 48bc
-4.90977e-40 2.0399511e-05 0.24863717 -0.006456959 2.070812e-06 -0.007457401 4.91266e-40 0.004952272
0.24719745 0.25966242 0.15078457 -0.0136275105 4.94525e-40 -4.93292e-40 4.9338e-40 -0.12807123
0.21469265 4.93976e-40 0.00706548 0.017457223 0.2007457 -0.013286166 -0.0153991915 4.95091e-40
0.01807928 4.9314e-40 -4.9355e-40 -0.018580759 -0.022389472 -0.01646864 -0.012417808 -0.012233469

encoder.4.weight f4 [64, 32, 3, 3]
00000000: 9401 0000 3006 0380 6a05 0580 5f28 0100
00000010: 1b48 0600 a7b4 0f00 178b 0300 6885 0380
00000020: d4f0 0400 a3f6 0137 25f9 9a36 359a 5936
00000030: 4102 2537 853f d536 5a09 3436 8725 6937
00000040: 0d7b 1637 e41f 8a36 20bc 653d 8a30 993d
00000050: ccd7 a83d e84b 813d 3f81 a83d 65fc b23d
00000060: 5ab3 883d 2f71 ad3d 7b87 b93d 47a0 f7bb
00000070: e95a 03bb 8661 f3ba cd38 5dbc f5ff bebb
00000080: 6d5e f6ba b720 91bc 4781 00bc 7212 42bb
00000090: 6faa 0936 9044 1136 faa5 fd35 fd3e 2036
000000a0: 91f2 1536 995f a535 af96 2e36 96e7 db35
000000b0: 825b 1835 0423 d3bc ab6d e7bc 2274 94bc
000000c0: 25e6 57bd 523b 61bd 12f6 e6bc ed91 a5bd
000000d0: 4f03 afbd b23b 40bd 2424 0780 d6a2 0580
000000e0: f94f 0c00 4ca6 0180 11e4 0380 a6a4 0700
000000f0: 0017 0080 478a 0680 3e4b 0b00 c211 543a
00000100: 4674 f03a 6e9e b53a 98aa 9e3a b3d9 193b
00000110: 6f8f e83a 8d6f d73a 09a4 423b fe7a 0e3b
00000120: 179d 503c e299 f43c 6c4b 153d a6d7 753c
00000130: 4f1f 083d 2839 1c3d abe0 8d3c 5170 133d
00000140: 8855 233d b095 6a3c d4ed fc3c af46 1d3d
00000150: 5574 8d3c 1706 0d3d fae3 233d ab37 a73c
00000160: 0981 1a3d 2a71 2a3d 35fd 3a3c 7a34 b53c
00000170: 8197 d43c ad43 653c 02b7 d03c 2366 e03c
00000180: 63ac 773c 469f db3c 7b43 ef3c cc57 bab9
00000190: 97de e13a 3cc1 c33b 2bd6 5cbc b243 2dbc
000001a0: 4a79 343b 386b c0bc 1123 a4bc 3d4b 7cbb
000001b0: b95a 0000 f7e8 0680 9e19 0080 0415 0100
000001c0: aa03 0080 424a 0500 5927 0480 7e3d 0400
000001d0: 97fe 0400 64d3 0500 0f70 0580 939a 0500
000001e0: b1b4 0500 f6bb 0500 7bb4 0580 1990 0500
000001f0: 6384 0600 85b9 0580 ecf5 0500 6b3b 0600
00000200: 0c84 0680 499c 0680 3982 0580 f837 0600
00000210: b97d 0680 4c5d 0500 a9f4 0580 8cd3 013a
00000220: c29d 003b 4a22 9539 c55e 2939 2d0f f33a
00000230: 235e c139 d78f 0600 23ea 3c3a edf9 3e3a
00000240: b09c 9d3c 8f1c 0d3d ca0c 233d b958 bb3c
00000250: 7f31 203d 073e 2b3d 39b1 cd3c cf17 283d
00000260: f0f2 333d 088e 0580 759c 0200 4b6b 0600
00000270: 62b9 0580 a5cf 0500 bc04 0680 0990 0500
00000280: 0e32 0300 d40c 0600 4de5 ba3c 0276 153d
00000290: 5a63 063d fd51 863c 6621 123d 8994 1a3d
000002a0: 9303 073c 7729 073d 5bbc 263d 3270 9fb8
000002b0: c15c 90ba 0b7a 2139 c072 e039 a141 1ebb
000002c0: 4c44 ceba 2f39 583a d4e1 71bb 1647 64bb
000002d0: 406a a13c 04e2 083d e8d7 1e3d deba bc3c
000002e0: 170d 1a3d 8660 273d 87e2 d73c 35f9 243d
000002f0: f7c9 2d3d de4e eb3c 68ee 073d ca13 033d
00000300: c55c 013d 8bc7 103d 594f 083d cb5f 0c3d
00000310: c59e 1c3d a95b 133d 619e 5a3c 2249 843b
00000320: b76c dc3c 82ee 84bc 1bf6 0bbd d37c ea3b
00000330: e7ba 39bd 1ec2 96bd dc08 b9bc b45c 1700
00000340: 414c 1500 03c8 2f00 c9f4 0100 263f 0200
00000350: d656 3000 ce20 0480 d595 0600 4ba0 2b00
00000360: d014 1abb 9686 df3a d015 cb3a 52c9 8bbb
00000370: 8e8a a03a 97ba 0e3b cb52 c7bb 193e 063a
00000380: 3c49 0f3b 78b3 0580 e88f 0580 9002 0600
00000390: c298 0680 c0a1 0580 669d 0500 ac8f 0680
000003a0: 5ac7 0500 8d97 0580 fc5d 0680 d001 0680
000003b0: 4abf 0580 804a 0600 cb02 0600 90b4 0580
000003c0: 7991 0500 408d 0500 9d3c 0600 2687 253c
000003d0: dc5e 263c 1d8a f93c 82f3 fabc b51b 0bbd
000003e0: f5ef 313c 7279 9bbd 45b4 afbd df95 b0bc
000003f0: ba88 283a b361 0eba 466f 283c a45f b6bc
5.66e-43 -2.77726e-40 -4.6112e-40 1.06318e-40 5.7688e-40 1.442338e-39 3.25403e-40 -3.23364e-40
4.53735e-40 7.746424e-06 4.618562e-06 3.242528e-06 9.835291e-06 6.3552893e-06 2.6827533e-06 1.389662e-05
8.969347e-06 4.116433e-06 0.056087613 0.07479961 0.08244285 0.06313306 0.08227777 0.08739547
0.066748336 0.08468854 0.09059044 -0.0075569483 -0.00200432 -0.0018568493 -0.013502312 -0.0058288523
-0.0018796452 -0.017715795 -0.007843322 -0.0029613045 2.0513796e-06 2.1646592e-06 1.8898274e-06 2.3878522e-06
2.2343922e-06 1.232128e-06 2.601573e-06 1.6384172e-06 5.6757574e-07 -0.025773533 -0.028250536 -0.018121783
-0.052709717 -0.054988213 -0.028193507 -0.08084474 -0.08545553 -0.04693193 -6.55813e-40 -5.17592e-40
1.130715e-39 -1.51492e-40 -3.57321e-40 7.01913e-40 -8.251e-42 -6.00618e-40 1.037182e-39 0.00080898043
0.0018345199 0.001385642 0.0012105284 0.0023475706 0.0017742942 0.0016436443 0.0029699823 0.002174079
0.012732766 0.029858533 0.03644888 0.015005028 0.033232983 0.038140446 0.017319044 0.035995785
0.03987649 0.014317915 0.030875124 0.038397487 0.017267385 0.034429636 0.040012337 0.020412287
0.037720714 0.041611828 0.011412908 0.02211975 0.025951149 0.013993186 0.02547789 0.027392453
0.015116784 0.026809346 0.029206982 -0.00035542098 0.0017232475 0.005973963 -0.013478796 -0.010575222
0.0027538114 -0.023488626 -0.020036252 -0.0038496994 3.2545e-41 -6.34585e-40 -9.19e-42 9.9374e-41
-1.314e-42 4.85816e-40 -3.81457e-40 3.89401e-40 4.58672e-40 5.3501e-40 -4.99377e-40 5.14628e-40
5.23997e-40 5.26605e-40 -5.23922e-40 5.1087e-40 5.98504e-40 -5.2573e-40 5.47398e-40 5.72328e-40
-5.98382e-40 -6.07078e-40 -5.05893e-40 5.71091e-40 -5.96114e-40 4.92646e-40 -5.46945e-40 0.00049524824
0.001962528 0.00028445042 0.000161524 0.0018543951 0.00036881966 6.02613e-40 0.000720652 0.00072851666
0.019239753 0.034451064 0.03980712 0.022869455 0.039109703 0.0418072 0.02510892 0.04103833
0.043932855 -5.10129e-40 2.39797e-40 5.89502e-40 -5.2568e-40 5.33666e-40 -5.52711e-40 5.10848e-40
2.93463e-40 5.55615e-40 0.022814417 0.036489494 0.032809593 0.016396517 0.035676382 0.03773931
0.008240598 0.03299853 0.040706974 -7.602609e-05 -0.0011013971 0.00015399621 0.00042810105 -0.0024148005
-0.0015736907 0.0008248267 -0.0036908286 -0.003483241 0.019703984 0.03341867 0.038780123 0.023038324
0.03761014 0.040863536 0.026353134 0.040276725 0.042428937 0.02872413 0.033186346 0.032001294
0.031582613 0.03534655 0.033278797 0.034271043 0.038237352 0.035976086 0.013343425 0.0040370384
0.026907308 -0.01622701 -0.03417025 0.0071559935 -0.04534426 -0.07361244 -0.022587232 2.145472e-39
1.9559e-39 4.388019e-39 1.79648e-40 2.06324e-40 4.439255e-39 -3.7911e-40 6.04763e-40 4.006429e-39
-0.002351094 0.001705366 0.0015494172 -0.0042659426 0.0012248324 0.0021778697 -0.0060828677 0.00051209476
0.002186372 -5.23559e-40 -5.10801e-40 5.51932e-40 -6.05812e-40 -5.17202e-40 5.15641e-40 -6.02553e-40
5.30691e-40 -5.13544e-40 -5.84728e-40 -5.51663e-40 -5.27799e-40 5.77739e-40 5.52015e-40 -5.23951e-40
5.11363e-40 5.09848e-40 5.72757e-40 0.010103023 0.010154452 0.030461365 -0.030633692 -0.03396197
0.010860433 -0.07591523 -0.085793056 -0.02155584 0.0006429065 -0.00054314284 0.010280436 -0.022262402

encoder.4.bias f4 [64]
00000000: e29a 963c 69ea 042c 455a 403c 839e 0580
00000010: 5e67 0580 422b 3f3a dd58 0500 4ba9 093c
00000020: cc58 0580 4505 9abd 6af7 e93b 1d9f 853b
00000030: d186 e6b6 3105 d6b1 3c79 0500 eeee 283c
00000040: a299 26a4 e5a1 f5ba 842d 03b9 4c18 0592
00000050: 29b7 42b3 ae58 1e3c 5c5b 4cbd 3570 60a2
00000060: 31b5 3f3b dca8 6939 655f 0500 591b 983c
00000070: 5a23 a83b 369a 163b e94d a7ba 6c75 a63b
00000080: 4d65 0580 6d8d 113c 8516 533c eab4 e83a
00000090: 977a 453d 9b0c ae10 106c 0500 fda4 24bd
000000a0: cc5a 0500 598a 2302 f3d7 0b3d 1c36 f8ab
000000b0: f254 123c d15e dfba 03fa 4400 2462 0500
000000c0: 878a 0580 9f1c 163c e22d 353c 52b1 5bae
000000d0: 98be 89ba 7d9c f9b7 b88f 7e3c 1eff 523b
000000e0: 393b ad36 c2de 9a3b 251d 62bc 320f 303c
000000f0: 8ee6 dfa6 4c6f 0580 5c47 8191 6e4e 563b
0.0183844 1.8888452e-12 0.011740272 -5.16041e-40 -4.96259e-40 0.00072925177 4.91056e-40 0.008402179
-4.91032e-40 -0.07520536 0.0071400898 0.0040778057 -6.870229e-06 -6.22881e-09 5.02668e-40 0.0103108715
-3.6125644e-17 -0.0018740265 -0.0001251009 -4.199735e-28 -4.5335728e-08 0.009664698 -0.049891815 -3.0417063e-18
0.0029252286 0.00022283517 4.93399e-40 0.018567728 0.0051311674 0.00229801 -0.0012764308 0.0050799157
-4.95517e-40 0.008883816 0.012883787 0.0017754112 0.048212614 6.865032e-29 4.97943e-40 -0.040196408
4.91749e-40 1.2015053e-37 0.034141492 -1.7636478e-12 0.008931385 -0.0017041807 6.334501e-39 4.94384e-40
-5.08872e-40 0.009162097 0.011058303 -4.9952327e-11 -0.0010509072 -2.9755984e-05 0.015537195 0.0032195519
5.162696e-06 0.004726262 -0.013800894 0.01074581 -1.5536225e-15 -4.99103e-40 -2.039659e-28 0.0032700556

encoder.6.weight f4 [128, 64, 3, 3]
00000000: 9e02 3fbc ac60 85bc 1560 1cbc 698a dab7
00000010: 5925 12bc cbb7 733b e0c0 ce3b 5022 8b3a
00000020: 3fb9 413b 6dbc 53ac dfca ed2b 3369 a3aa
00000030: 6438 4eac 1b44 1faa c135 f9aa 9438 b1ac
00000040: d1bf 88ac aeb6 d92a c930 173c 565d a03c
00000050: a90e 1c38 c404 fe3a 06da 3d3c 2b6e 82bc
00000060: 8571 843c 79b7 c93a 030c 2abc fdc1 0200
00000070: ddbc 0580 f212 0600 295e 0500 95f7 0580
00000080: d89c 0500 c06d 0580 b32a 0600 e8a1 0500
00000090: ed6e 0580 9961 0580 605d 0580 645d 0580
000000a0: c479 0580 785c 0580 0f75 0580 e65c 0580
000000b0: 5777 0580 3048 f5b8 d4b1 86b9 f2df 3239
000000c0: 418e 2bb9 45fc 5bb9 36c3 bab8 37cc fe38
000000d0: c86e d936 439c 8338 205e 0580 515d 0500
000000e0: 765f 0500 9a5a 0580 6c65 0500 cf64 0500
000000f0: 4c62 0580 d45c 0580 c659 0580 969f 48bb
00000100: df1e c43b 9972 47bb fa3e bab9 5005 da3b
00000110: e065 e2bb fe52 763b c50b 133a fc40 fcbb
00000120: 7860 0580 9087 0580 573f 0680 624b 0600
00000130: 9bbd 0500 0cd7 0580 e9c4 0580 7482 0580
00000140: d563 0580 38e7 f4bc cbe2 88bc 27fe b0bc
00000150: 8c51 38bc 487f a7bc b47f abbc 23ff 973b
00000160: bb66 97bc 9424 803c 3f46 1e3b 0833 6f3b
00000170: fdf6 24ba 531a 323b 5be5 dc3b 7a9c 1e3a
00000180: ac30 da3b eaef 1c3c 5881 0f3b c5a7 653b
00000190: d4b3 073c 6b42 193c 49fe 8d3b c378 073c
000001a0: 23ae 143c dd71 c53b a5cb f23b 4ff4 fc3b
000001b0: a487 0500 2a7c 0580 bc8c 0680 f479 0500
000001c0: 8f97 0500 f4bb 0580 5b6b 0580 915f 0580
000001d0: a7a6 0500 263b deb1 8931 0fb1 2f67 4ab0
000001e0: 5d75 6eae 1eaa d8b1 b7a5 ceb1 a6a7 0232
000001f0: 7f07 f330 8aca e130 e85b 0580 f2b2 0500
00000200: 9158 0600 14b8 0580 41b7 0580 98d8 0580
00000210: 076d 0580 bea1 0580 890d 0680 9253 adbc
00000220: da64 01bd b8ea 193d 4427 a93b f30f a9bb
00000230: 70e9 6a3c 3faa 4d3c 5799 a53b 9ed8 f4bc
00000240: acd2 87a2 3784 3a22 0f1c 24a2 0ab6 37a3
00000250: 6fb5 46a2 161a 83a3 c905 03a3 e32a 83a2
00000260: 798e dea3 0052 0734 3c1e 27b3 0ff4 ad35
00000270: 9076 d8b3 1cfe 84b3 f3e9 3eb4 f410 45b5
00000280: 30f2 84b4 e878 47b3 15d8 c538 2d3b 1a38
00000290: 1a41 9737 1a1d 6438 0010 0438 8708 f437
000002a0: 5ae0 b737 0bb8 a2b6 9e41 1bb7 e4d8 b18e
000002b0: 60ae 030e 7158 298d fe80 6910 6e48 6090
000002c0: b9f7 2690 6a73 fc90 8b56 2a10 1eb0 8b90
000002d0: c943 c7b2 f8f1 0eb3 ba6e 0433 9e89 8fb2
000002e0: 2037 82b0 144f 2a33 15bd 93b2 c27d 32b2
000002f0: 4f64 6233 5ce5 efba 3395 4e3c 5b43 9abb
00000300: 4e46 333b 1b4b 6f3c 4d8a 6bbb a25e ba3b
00000310: 26b9 993a fe40 6dbc 52c0 30ba 64da 073b
00000320: 5b3d be3b 951f d139 b0c8 dfba 6a83 313b
00000330: 0d5f ef3b 434f 1c3c ba23 6f3c 8501 8a9f
00000340: 017a 30a0 2ca8 681e eb62 71a0 4b8b b7a0
00000350: bdd6 44a1 8968 829e 5c42 dca0 4ac0 84a1
00000360: 57b6 c6bb f546 6ebb 1b8f 84bb 880e 57bb
00000370: b406 03bb 5837 00bc 694b 9f3a e97e 6bbb
00000380: 1bc3 05bc 48e4 11b5 61e0 12b7 bc61 4cb8
00000390: 31f3 94b4 5fbb 29b6 e436 4cb8 f7ca 76b6
000003a0: 6b8a a9b5 7b4f 39b8 5c63 0500 0c76 0500
000003b0: 7766 0580 537e 0500 eba0 0580 0285 0580
000003c0: 11ae 0580 7163 0680 2e86 0500 75bc 7bbc
000003d0: e883 89bc a32a 2fbc 7074 64bc 3d8f 3dbc
000003e0: 8a58 61bc 67c2 9cbb 9c63 813b c3bb c5bb
000003f0: 0426 6a3c a6da c03a acb3 e6bc 9495 adba
-0.011658339 -0.016281448 -0.009544392 -2.6052077e-05 -0.008920037 0.0037188407 0.0063096136 0.0010615084
0.0029559878 -3.00895e-12 1.6896171e-12 -2.9027613e-13 -2.9305664e-12 -1.4145666e-13 -4.4268585e-13 -5.036924e-12
-3.8866484e-12 3.8673703e-13 0.00922794 0.019575756 3.720695e-05 0.0019380082 0.011587625 -0.015921673
0.016167412 0.0015389762 -0.01037884 2.53261e-40 -5.26929e-40 5.57809e-40 4.92956e-40 -5.47993e-40
5.15442e-40 -4.98548e-40 5.6633e-40 5.17258e-40 -4.9897e-40 -4.94189e-40 -4.92674e-40 -4.9268e-40
-5.02859e-40 -4.92349e-40 -5.0117e-40 -4.92503e-40 -5.01989e-40 -0.00011695956 -0.00025690964 0.00017058829
-0.00016360825 -0.00020979445 -8.905532e-05 0.00012149702 6.4800006e-06 6.275673e-05 -4.92943e-40 4.92653e-40
4.93422e-40 -4.91679e-40 4.95561e-40 4.95341e-40 -4.9444e-40 -4.92478e-40 -4.91382e-40 -0.0030612699
0.0059851254 -0.0030433296 -0.00035523606 0.0066534653 -0.006909117 0.0037586088 0.0005609359 -0.0076981764
-4.93784e-40 -5.07808e-40 -5.73735e-40 5.78055e-40 5.27195e-40 -5.36322e-40 -5.29816e-40 -5.05975e-40
-4.9499e-40 -0.02989541 -0.016709706 -0.021605564 -0.011249911 -0.020446435 -0.020934917 0.004638569
-0.018481603 0.015642442 0.0024150757 0.0036498923 -0.00062929076 0.0027176335 0.0067412085 0.00060505385
0.006658634 0.009578684 0.0021897163 0.0035042625 0.00828262 0.009354214 0.0043332917 0.008268538
0.009074721 0.0060255365 0.00740953 0.0077195535 5.07836e-40 -5.03719e-40 -6.01499e-40 5.02926e-40
5.13546e-40 -5.26602e-40 -4.9769e-40 -4.9346e-40 5.18961e-40 -6.4677748e-09 -2.0837396e-09 -7.3633805e-10
-5.4219174e-11 -6.3057675e-09 -6.0142287e-09 7.605115e-09 1.7682708e-09 1.642847e-09 -4.92147e-40 5.23371e-40
5.82785e-40 -5.25212e-40 -5.24917e-40 -5.36877e-40 -4.98289e-40 -5.172e-40 -5.55868e-40 -0.021158013
-0.03159032 0.03757736 0.0051621515 -0.005159372 0.014337882 0.012552797 0.00505368 -0.029888447
-3.681488e-18 2.5277694e-18 -2.2240999e-18 -9.958998e-18 -2.6930054e-18 -1.4214096e-17 -7.102749e-18 -3.555303e-18
-2.4129628e-17 1.2602686e-07 -3.8910215e-08 1.2960535e-06 -1.007985e-07 -6.192951e-08 -1.7780239e-07 -7.341289e-07
-2.476313e-07 -4.644326e-08 9.4339404e-05 3.6771573e-05 1.8030918e-05 5.438654e-05 3.1486154e-05 2.9091038e-05
2.1919772e-05 -4.8494016e-06 -9.253998e-06 -4.3842727e-30 1.6230955e-30 -5.2183603e-31 4.605052e-29 -4.4232008e-29
-3.2928566e-29 -9.95743e-29 3.359326e-29 -5.5097184e-29 -2.3197474e-08 -3.328202e-08 3.083435e-08 -1.6709972e-08
-9.474412e-10 3.965313e-08 -1.7199037e-08 -1.0389558e-08 5.2710956e-08 -0.0018302607 0.012608814 -0.0047077364
0.0027355137 0.014605309 -0.0035940588 0.0056875506 0.0011728152 -0.014480827 -0.0006742525 0.0020729536
0.005805654 0.00039887117 -0.0017073359 0.0027086386 0.007305032 0.009540382 0.01459592 -5.844779e-20
-1.4948148e-19 1.2316755e-20 -2.0446223e-19 -3.1093582e-19 -6.6691587e-19 -1.380752e-20 -3.7313363e-19 -8.995566e-19
-0.006064217 -0.0036358212 -0.00404538 -0.0032815058 -0.001999301 -0.007825695 0.0012153211 -0.0035933799
-0.008164193 -5.43489e-07 -8.75452e-06 -4.8728412e-05 -2.7744093e-07 -2.5292027e-06 -4.868851e-05 -3.6774998e-06
-1.2631766e-06 -4.418146e-05 4.94821e-40 5.01525e-40 -4.95935e-40 5.04494e-40 -5.16904e-40 -5.06892e-40
-5.21621e-40 -5.86686e-40 5.07312e-40 -0.015364756 -0.01678653 -0.010691318 -0.0139437765 -0.011569795
-0.0137540195 -0.0047839168 0.003948642 -0.006034346 0.01429129 0.00147136 -0.028161846 -0.001324343

encoder.6.bias f4 [128]
00000000: a60e 9fbb 3912 a8b9 6757 91bc b5ce fdbb
00000010: f745 2fb8 710c 5ebb 9b4f 1b3c afc6 92bb
00000020: 85a1 38bc cda7 11bb 3ff5 169c be12 08b0
00000030: ab94 8dbb 0565 86bb a564 3f3a 757f 58bc
00000040: 11e4 233b f34f 8ebb ac01 7939 f358 c926
00000050: 46b5 e728 ae97 b8bb c87e 788d d058 9dbb
00000060: 592c 303b cb17 823b 73b9 7aba 33a7 e6b9
00000070: 9ef4 16bd 4ffd 3abc e3ab eeba 849d fc3a
00000080: fbc4 3602 9fb6 3839 b05b 0fbb 4783 94b2
00000090: b9ac 0d3b 621c ac3a 6779 453a f029 87bb
000000a0: ce1f a53b 834d 3fbb cf50 e0bb 4da1 b427
000000b0: 1986 8fbc d544 3aba d4f4 a2bb ae7f 9ebb
000000c0: 0e58 ff39 6a3d e9bb 6697 b93a 9db9 1b3a
000000d0: 624a f6bb 2879 a38c 3c13 82bb 9659 0500
000000e0: 7fa1 14bb 23e2 68bb 0992 5f3b 2f62 683b
000000f0: 215f 0500 1364 0580 8f2c c539 48d8 dabb
00000100: 5e40 233c 3323 83ba ce99 f8ba 2add a63a
00000110: caf0 10bb 911e 65bb 1063 723a 6d19 58bc
00000120: ed1f acba 3a73 4ebc 9e89 d2bb 6bce 4b3a
00000130: 9bbf 29bb 7786 573b 09dc 30bb ee31 123d
00000140: 831a 83bb 0343 9b3a 00f7 bbb9 91f8 5bbb
00000150: 986c 0580 ba31 f0ba d5cb f9bb 71c6 a9b7
00000160: 049d 3bbb 596b 61bc 81d1 84bb 9f81 bdbb
00000170: ddc9 b6bb dc6e 38bb 96be fdbb deca 6ebb
00000180: aa6e 2a3a 1867 bebb c51f 0523 477b 83bb
00000190: 5514 11bb bee6 26bb 2a4d 0eba 0c43 07ba
000001a0: d67f a73a 4022 2c3c d821 52bb cf25 103c
000001b0: 0f35 8c3b 4265 8a3b de46 5abb 6b89 e1bb
000001c0: 6342 f739 2a38 71bb 9205 ddba d16e deba
000001d0: d013 05ba a036 a4bb ffe9 44bb 2949 8dbb
000001e0: 4bf0 40bc c2a7 cdbb 0d31 8cbb 15ac d7ba
000001f0: 479c 83bb c742 81bb 346f 87bb 2f11 379d
-0.004854041 -0.00032057034 -0.017741872 -0.0077455887 -4.178841e-05 -0.0033881927 0.009479429 -0.0044792513
-0.011268978 -0.0022225261 -4.994781e-22 -4.9503146e-10 -0.004320701 -0.004101398 0.0007301069 -0.013213982
0.0025007764 -0.004343027 0.00023747113 1.3971286e-15 2.5724767e-14 -0.005633316 -7.6573508e-31 -0.004801847
0.0026881902 0.0039701215 -0.0009564377 -0.00043993592 -0.03685438 -0.011412933 -0.0018209185 0.0019273018
1.3427779e-37 0.00017615639 -0.0021874718 -1.7289166e-08 0.0021617843 0.0013131017 0.0007533044 -0.0041248724
0.005039192 -0.0029190488 -0.0068455706 5.013492e-15 -0.017519997 -0.00071055937 -0.0049730334 -0.004836998
0.00048702996 -0.007117917 0.00141595 0.00059404393 -0.0075161913 -2.5187045e-31 -0.003969578 4.91315e-40
-0.0022679267 -0.0035535179 0.0034114143 0.0035458913 4.93303e-40 -4.95077e-40 0.00037607967 -0.0066786148
0.009964077 -0.0010004997 -0.0018966736 0.0012730707 -0.0022116178 -0.0034960846 0.0009246329 -0.013189656
-0.0013132073 -0.012600714 -0.0064250967 0.0007774594 -0.002590156 0.0032886544 -0.002698662 0.035692148
-0.004000963 0.0011845533 -0.0003585145 -0.0033564905 -4.98134e-40 -0.0018325367 -0.0076231756 -2.0238776e-05
-0.0028627524 -0.013758504 -0.004053295 -0.0057832743 -0.005578263 -0.002814225 -0.007743667 -0.0036436836
0.00065014756 -0.0058106296 7.216672e-18 -0.0040124985 -0.0022137363 -0.0025467123 -0.00054283685 -0.0005159832
0.0012779187 0.010506213 -0.003206363 0.008798077 0.004278786 0.0042234967 -0.00333064 -0.0068828366
0.00047160973 -0.0036807158 -0.0016862622 -0.0016970282 -0.00050764997 -0.0050113946 -0.00300467 -0.0043117
-0.01177604 -0.006276102 -0.0042783082 -0.0016454483 -0.0040164324 -0.003944728 -0.0041331295 -2.4228732e-21

decoder.0.weight f4 [128, 64, 3, 3]
00000000: 8b57 2239 d107 6fba e212 67bb cbe8 cc3c
00000010: da9d 483b f5fa 1dbc bb0e 993c 05d3 4cbc
00000020: 3bc0 473c 3a33 773c 0248 3fbc 64c8 be3a
00000030: 5127 b63a c5b8 20bc 79b6 9fbc 989e 4f3c
00000040: a6d1 703c 7c05 9abb 1788 4dbc bb6a 01bd
00000050: 944f 1cbc 304f 3dbd 8802 18bb 8c2c 5bbc
00000060: 72cf dd3b 7e48 3abc 287f 283c f235 203c
00000070: 89c8 203d 9573 db3b a2fd 3fbc 6754 593d
00000080: 7b6d f33b a99d 14bb d4d6 e83b 647c 13bc
00000090: 63e3 e8bb ec5e 0500 0f90 b33a 40df 053c
000000a0: a3aa 693b a825 45bc 3f79 873c 4d5b 0500
000000b0: acf7 8bba 376f fdbb be0d db21 a445 3cbd
000000c0: a675 0cbc b6da 2dbb 4be5 dfbc 2416 be39
000000d0: 1b18 26af 6f86 01bd acd0 85ba 0f8f 57bb
000000e0: 4506 04bb 589d 3abc 2409 c0ba d37e 773b
000000f0: c4c0 edbb 3719 773a 4c12 9a3a 20ea f1bc
00000100: ea2e 9c3c 86bd 883c 716d 0500 17a4 693c
00000110: ee65 0500 aca7 84bb e487 e93b 2b16 a7bb
00000120: 0e5e 0580 d478 86bc 825b 0500 3d2a da3b
00000130: 20d6 cbbc db2d 38bb 8858 0580 e601 85bb
00000140: 3163 0580 3762 acbb 19df e8bb 999a 21bc
00000150: d3f3 933c 4425 06bd 3c5e 93bc dbb1 1dbc
00000160: facb 59bc 9e65 58bb b6e4 a0bc 99b0 23bb
00000170: 9980 a1bc 8781 c3aa 361b b73c 8c5a 21ac
00000180: ec9a 27bb 02a9 2cbb 11e3 78bc 4e62 0500
00000190: 37b4 99bc 2359 0500 6b57 c3bc bd44 febb
000001a0: 53a4 8bbc 8c39 2c28 57b8 17bc 158c e628
000001b0: 7333 263a c3a1 9ebc 5d17 bdbb 13f6 efbb
000001c0: c078 a4ba 2557 5e3c 7a0b 2e3c 2d11 d5bc
000001d0: 6521 c13c 45b4 223c 96d9 cd3b 700f f9bc
000001e0: dcf1 113c b0db a9bc 2878 9dbc 59e5 a6bc
000001f0: 1079 103c e327 db3b 8694 813c 4c37 39bc
00000200: 8c5c 0bbc 37b8 b53c 3398 9dbc 8f6c 3cba
00000210: 1ac9 37bc d327 cbbb 8c4f 5bbc dc61 0500
00000220: 6c2c 23bc 0663 0500 f00a b6bb db73 49bc
00000230: 1b21 7a3b dc60 0500 a2f1 65bb ac77 0680
00000240: ac1d a63b b2e3 263c dedc 9b39 0dd9 5abb
00000250: bbc2 493c 84a5 9b3a 0b17 9bba ed3c 143c
00000260: 9314 e43a 7ab2 a3bb 392c 3dba d11c d5ba
00000270: ec12 1bbc 1fef c83a 31cd 4aba 08fd a2bb
00000280: 08c8 983b fde7 333b 2110 6a3b dc5d 0580
00000290: 6224 d73a 9e44 b1bb 19dd 5fbb 6b7d 84ba
000002a0: ff15 413b 3461 0580 5bfe 403c 21e9 f5bc
000002b0: 55bd d3bc 97d8 39bd b3cb 9ebc 70ea 65bd
000002c0: c324 82bd 9297 bfbc 6b45 3fbd 50bc 18bd
000002d0: be61 0500 a465 8c3c 6463 0580 dcdc 7fbc
000002e0: fcf3 9fbc 4f23 f5bb a45a 0580 f48e 9a3c
000002f0: da5c 0580 7cc1 87bc f033 ccbb cf61 4e3b
00000300: 1dd3 b4bc c968 48bb 4160 1cba cc44 a939
00000310: 701c 30bb 34b6 93bb 0c8d 19bc fb61 6dbc
00000320: 81aa e0bb 3687 1ebc a6c4 25bc 319c 81bb
00000330: eb16 383b 9130 783c 7dac 32bc 6e9f a6bc
00000340: bc85 223c 4f0f 5ebc 365b 70bb 04ca 66bc
00000350: 6914 d23b e445 c9bc e4c9 75bc 3396 8abc
00000360: 8576 28bc b074 3a3c 37c0 5c3c 2a0b cd3b
00000370: 5725 093d 4f15 23bb 17c1 1c3d 6c4f b2ba
00000380: a7d2 debb 4858 513a 9cba 0580 5d6f 613b
00000390: bd64 0500 fd6f 0500 835b 0580 8cfe 2fbc
000003a0: c38e 0580 abfe 6cbc 8e0c baba c3e0 5987
000003b0: 69ea 833a cc46 debb 07e7 72bb 41ae 73bc
000003c0: c559 25bb 28b2 a38a e271 2abc a64c 1e29
000003d0: e75b 8ba5 1c65 5d28 88bb cd39 796c b0a5
000003e0: ab89 c2ba c353 30aa 7946 74a5 bc17 8029
000003f0: 3ca5 023b eb5f 80bc 0e6f 26bb afa0 a0bb
0.00015482136 -0.0009118291 -0.0035259058 0.025013348 0.0030611665 -0.009642352 0.018683782 -0.012501483
0.012191827 0.015087897 -0.011674883 0.0014555571 0.0013897215 -0.0098096775 -0.01949619 0.012672089
0.014698422 -0.004700361 -0.012544653 -0.031595927 -0.009540457 -0.046218097 -0.0023194868 -0.01337732
0.006769114 -0.011369823 0.010284223 0.009778487 0.039253745 0.006697128 -0.011718186 0.053059008
0.0074288226 -0.002267698 0.0071056876 -0.009001825 -0.0071071847 4.93229e-40 0.0013699549 0.008170903
0.0035654686 -0.012032904 0.016537307 4.9193e-40 -0.001067867 -0.007734205 1.4843655e-18 -0.045964852
-0.008572971 -0.0026528067 -0.027331015 0.0003625612 -1.5106176e-10 -0.031622346 -0.0010209284 -0.0032891666
-0.0020145338 -0.011390053 -0.0014651162 0.0037764802 -0.0072556455 0.00094260596 0.001175472 -0.029530585
0.01906534 0.016691934 4.98438e-40 0.0142603135 4.95743e-40 -0.0040483084 0.007126795 -0.005099078
-4.92918e-40 -0.016415037 4.92004e-40 0.006657867 -0.024882376 -0.0028103504 -4.90937e-40 -0.004059064
-4.9476e-40 -0.0052607316 -0.0071066734 -0.009863519 0.0180606 -0.032750383 -0.01798927 -0.009624924
-0.013293261 -0.0033019553 -0.019640308 -0.0024977087 -0.01971464 -3.4728836e-13 0.022351842 -2.292974e-12
-0.0025574518 -0.0026345854 -0.015190856 4.94443e-40 -0.018762691 4.91154e-40 -0.023845395 -0.007759659
-0.01704613 9.5603965e-15 -0.009260259 2.559588e-14 0.0006340064 -0.019364243 -0.0057706074 -0.0073230355
-0.0012548193 0.013570582 0.010622853 -0.026009167 0.023575494 0.009930675 0.006282042 -0.030402869
0.008907761 -0.020734638 -0.019222334 -0.020373033 0.008817926 0.0066881045 0.015817892 -0.011304688
-0.008505952 0.022182567 -0.019237613 -0.00071878074 -0.01121738 -0.006199816 -0.013385665 4.94283e-40
-0.0099593215 4.947e-40 -0.005555503 -0.0122956885 0.0038166705 4.93924e-40 -0.0035086651 -5.93943e-40
0.005069455 0.010186123 0.00029728463 -0.0033393533 0.012314494 0.0011874889 -0.0011832429 0.009047729
0.0017401151 -0.0049956413 -0.00072163675 -0.0016259198 -0.009464961 0.0015330053 -0.00077362644 -0.0049740113
0.0046625175 0.0027451508 0.003571518 -4.92848e-40 0.0016414041 -0.005409791 -0.0034158884 -0.0010108178
0.0029462574 -4.94047e-40 0.011779393 -0.030018391 -0.025847116 -0.04537257 -0.01938424 -0.05613178
-0.06354668 -0.023387704 -0.04669706 -0.037288964 4.94241e-40 0.01713831 -4.94832e-40 -0.015616622
-0.01952552 -0.0074810158 -4.91693e-40 0.018866993 -4.92486e-40 -0.016571753 -0.0062317774 0.0031491404
-0.022073323 -0.0030580035 -0.00059652707 0.0003228545 -0.0026872419 -0.0045078043 -0.009372007 -0.014488692
-0.006856263 -0.0096757915 -0.010117685 -0.003955387 0.0028089832 0.015148298 -0.010905382 -0.020339694
0.00991958 -0.013553455 -0.003667546 -0.01408625 0.0064111245 -0.02456946 -0.015001748 -0.016917324
-0.0102821635 0.0113803595 0.013473562 0.0062574344 0.033482876 -0.0024884527 0.038270082 -0.0013603992
-0.006800014 0.0007985872 -5.2612e-40 0.0034398653 4.95316e-40 4.99351e-40 -4.92006e-40 -0.010741841
-5.10391e-40 -0.014465014 -0.0014194415 -1.6391317e-34 0.0010064367 -0.006783342 -0.0037063973 -0.014873088
-0.0025230509 -1.5763344e-32 -0.010403128 3.514953e-14 -2.4174932e-16 1.2289889e-14 0.0003924037 -3.0604637e-16
-0.0014842054 -1.5661001e-13 -2.1187503e-16 5.688459e-14 0.0019934913 -0.015670737 -0.0025395784 -0.0049019675

decoder.0.bias f4 [64]
00000000: 227b 93bc e628 44bd 86f2 66bc bc64 753d
00000010: 7fce febb 3834 073d ca44 db3c 2c21 46bd
00000020: 40a7 c0bc c4a9 90bc 903d d13b 7312 503c
00000030: dca3 6c3d 81ba 32bd af7d bdbb d989 0ebd
00000040: 0e34 053b 8620 52bc f26a 99bb ccfa b4bc
00000050: 15d3 b6bc 977d ff3c c9e3 3cbc 2a02 3e3c
00000060: 1f19 8bbd f374 9aba 0799 cc3c 65b7 52bb
00000070: 6040 ca3b d2bd 10bb cc66 f4bc 6810 4ebc
00000080: 30da 83b8 701f e73c def8 b53c 8586 5dba
00000090: 5e8e f0bc 06bb 27b3 0f75 d3bb 92b3 213e
000000a0: b2be dbbb 46ec 833c 72b8 6cbc b59e 8e3c
000000b0: e6ce 383b b26a 9dbd 27dc 123d e040 2eba
000000c0: 9934 853b 0807 03bd 70f0 6bbb ecc1 1ebd
000000d0: aeaa ecbc 03e8 3dbb 5c75 453d 0559 f8bc
000000e0: fccb b6bc 3de9 05bd b9ec a2bc fb11 cd3a
000000f0: c19d 293d 46a6 4abc 21fc 6dbb 3b05 c7bc
-0.01800305 -0.047890566 -0.014095908 0.05991052 -0.007776081 0.033008784 0.0267662 -0.04837148
-0.023517251 -0.017659076 0.0063855127 0.012699711 0.057773456 -0.043634895 -0.005782805 -0.03479943
0.0020325216 -0.012825137 -0.0046819383 -0.022092246 -0.022317449 0.031187816 -0.011528918 0.011597196
-0.06791901 -0.0011784121 0.024975313 -0.0032152769 0.006172225 -0.0022085798 -0.029834174 -0.012577154
-6.287207e-05 0.028213233 0.022213396 -0.0008450526 -0.029364761 -3.9052814e-08 -0.0064531635 0.15791157
-0.0067060823 0.016103875 -0.014448272 0.017409662 0.0028199493 -0.07686366 0.035854485 -0.00066472404
0.004065108 -0.031989127 -0.0036001466 -0.038759157 -0.02888998 -0.00289774 0.048207626 -0.030315885
-0.022314064 -0.032693136 -0.019888269 0.0015645617 0.04141021 -0.012368744 -0.003631361 -0.024294486

decoder.2.weight f4 [64, 32, 3, 3]
00000000: f5e0 e13c c093 b7bb 424f aabc 8b30 453d
00000010: da3c 0cbb 3690 05bd b2d8 2e3d 26ce 9d3b
00000020: c158 0dbd 9fb1 fbba 4dfd e4ba b874 213c
00000030: 0015 46ba 2e26 88b2 4475 5c3c ad9a 033b
00000040: 0bdc e73a 7d89 403c d189 51bc b090 91bb
00000050: f33e a0b7 6336 a1bc b653 a9bb eaa0 1a3b
00000060: 20e4 72bc 58a7 9dbb e38f 233a dec0 1abb
00000070: b0bb ebba b207 063c 1143 7b3b 0200 983a
00000080: 67d2 173c 3941 0abb 8f46 92ba ddd0 f53b
00000090: 1908 93bc 3407 bc3b f16e be3b c2fe 90bc
000000a0: d2be 183c 7b98 a33b 10e3 8fbc df64 153c
000000b0: f28b 093c 4464 eabb 6cb6 43ba 52ff 87bb
000000c0: a7a9 bebb 8b01 cfb9 6feb 13bc 46a4 0abc
000000d0: 2425 143a ed23 93bb cbf9 99bc 9e75 f7bb
000000e0: 9fe9 c9bb aef2 e3bc bb74 12bc 569f fdbb
000000f0: 3cfb abbc aeae b0bb 4248 2fbc 33a0 a33b
00000100: 2c77 53bb 51bf 143b ac0d c53b eefa 0d3c
00000110: 914d 6a3c b607 123c 66de e73b 2937 733c
00000120: 6c91 4a3d 6640 d8bc e798 bbbd 73bf 863c
00000130: 7a68 08bd cc1c b9bd 0ae3 863d 91f6 263b
00000140: dd74 a2bd eaed 093b 1e68 4f3a 7a07 7e3c
00000150: ef0e 42bb 0a6a a53b cb79 9b3c b6ef 71bb
00000160: 32b8 a0bb 4f29 993c 2afc ff3a 953a 40ba
00000170: d97d 7abc 0de5 fbb9 055a 3dbc 0835 6dbc
00000180: b0ff 1e3b 3b32 53b9 b331 69bc 9d2d 2ebd
00000190: 0d4e 2d3a bf61 623d f33b a5bd 669e 82bc
000001a0: 2da6 a73d e597 98bd 4b0d 15bd 8f0e 5b3d
000001b0: aef8 e73b 15ef 99bc 7622 4abd 4b5e 553d
000001c0: d8cc a5bc bac9 abbd 88b5 943b 136c 92bb
000001d0: 2109 2fbd 49cd a638 6a33 853a a651 7dbb
000001e0: b3cb 13bb 9714 f8ba 98fc 61bb 3401 0b3a
000001f0: 8159 c13a bd10 c5bb 2e34 c4bc 466a 673c
00000200: 3abe b73c a9aa 39bd d935 36bb 5163 c13c
00000210: 4424 3dbd dc4b e2bb 6168 c83c 39f0 41bb
00000220: 99d0 6c3b 01a3 5bba bb1c 013a bcf9 4837
00000230: 6aae 15bc 9b37 e038 cbcd d739 8089 37bc
00000240: fba5 04bc 07d3 043c 74b5 853c c307 93bc
00000250: b2d6 f13b b7ed de3c 7c74 32bc 9464 043c
00000260: 9300 833c 343e 10b6 46fb 48bb 80ac aabb
00000270: dc66 0d3b d06b 57bc 026c 13bc 13fe aa3a
00000280: 765b b5ba d55c a0bb edca 293d 5eec a03b
00000290: 22e2 4ebc e04f 9c3d ba2f a93c 2caf 88ba
000002a0: c97f 3d3d f879 1f3c 2eac d33a ea88 1fbc
000002b0: 42c2 06bb beaf 503c dfa3 dcbc 11a6 a2bb
000002c0: 2eb6 d43c 83e6 60bc e3de 89bb 6303 733c
000002d0: d549 afb9 decb 75bb e680 aebb 0ae0 11ba
000002e0: 5123 b1bb f24d 38bc ad70 98ba e0e8 e1bb
000002f0: 1112 dabb 85a5 6d3c 86cc 07bd 9971 a1bd
00000300: 6dc9 5a3d fe49 2bbc a75a c9bd a807 c63c
00000310: c4b0 5cbc db23 53bd 3505 443c 55a7 2ebc
00000320: f044 40bd 7185 263d fc84 68bc 4f36 a0bd
00000330: eff7 8f3c 7b7a 46bb e63c 3dbd 0295 9539
00000340: 31fc 5eba 1fe1 26bb d529 87b7 6623 a0b9
00000350: 41c6 4b38 d6c4 d93a 5590 163a be39 c7bb
00000360: 2c4e 013b 1b2d aa3b 75aa 6a3c 233a 9eba
00000370: 985f 0500 8928 9b3c 7c1b 30bb 28bb 6b3b
00000380: b779 9e3c 4d37 80bc f2e5 f53b 9dbe c33c
00000390: d4e0 9bbc b8e8 423b d1d7 0c3d e4dc 8bbc
000003a0: f01d 10bb f1ac b73c 9ff5 cfba a835 46bb
000003b0: 6f4b c3ba 5a24 93ba 40f2 39bb 61ae 2abb
000003c0: 516e 0bbb 63bc 40bb 91bc 1cbb 34a8 983c
000003d0: ee74 7cbb 7dd5 18bb 34c8 de3c ca55 043c
000003e0: 0865 103c 56a9 d63c d6c7 f73b f51a fe3b
000003f0: 1994 13bc 8f96 4e3c 450f 233d c426 f2bc
0.027573088 -0.00560233 -0.020789746 0.048141997 -0.0021398575 -0.032608233 0.042687126 0.0048158346
-0.03450847 -0.0019202715 -0.0017470509 0.009854488 -0.000755623 -1.5849846e-08 0.013455693 0.0020081208
0.0017689479 0.01175153 -0.012789206 -0.004442297 -1.91028e-05 -0.019679254 -0.00516745 0.0023594447
-0.014824897 -0.0048112087 0.00062393973 -0.0023613493 -0.0017985012 0.008180546 0.0038339535 0.0011596682
0.009266472 -0.0021096005 -0.0011159944 0.007501705 -0.017948197 0.0057381634 0.005811565 -0.017699603
0.009322839 0.0049925423 -0.017564327 0.009118288 0.008395182 -0.007153066 -0.00074658426 -0.0041503096
-0.005818564 -0.00039483266 -0.0090283 -0.008462017 0.00056512863 -0.0044903667 -0.018795868 -0.007551863
-0.006161883 -0.02782568 -0.0089389635 -0.0077399416 -0.020993821 -0.005391917 -0.01069838 0.0049934625
-0.0032267077 0.0022697041 0.0060135927 0.008665783 0.01430072 0.008912971 0.0070760725 0.014844694
0.04945509 -0.026397895 -0.09160023 0.016448712 -0.03330276 -0.09038696 0.06586273 0.0025476555
-0.07932446 0.002104635 0.0007911938 0.015504712 -0.0029610952 0.005048041 0.018978974 -0.003691656
-0.0049047703 0.018696455 0.0019530107 -0.0007332948 -0.0152887935 -0.00048045107 -0.011557107 -0.014477976
0.0024261288 -0.0002014124 -0.014233041 -0.04252397 0.0006611057 0.055269 -0.08068075 -0.01594467
0.081859924 -0.074508466 -0.03638963 0.05348068 0.0070792055 -0.018790761 -0.04934927 0.052091878
-0.020239279 -0.08388086 0.004538242 -0.00446845 -0.042733315 7.953734e-05 0.0010162417 -0.0038653403
-0.0022551834 -0.0018927035 -0.0034482833 0.00053026085 0.0014751406 -0.0060139582 -0.023950662 0.014124459
0.022429574 -0.04532877 -0.0027803092 0.023606928 -0.046177164 -0.006906016 0.024463834 -0.0029592647
0.0036135076 -0.00083784765 0.00049252406 1.1979075e-05 -0.009135822 0.0001069151 0.00041161323 -0.011202216
-0.008096213 0.008106953 0.016321875 -0.017948037 0.00738033 0.02721296 -0.01089203 0.00808062
0.015991485 -2.149388e-06 -0.0030667349 -0.005208552 0.0021576202 -0.013148263 -0.008997919 0.0013045691
-0.0013836462 -0.004893879 0.04145329 0.0049109897 -0.012627156 0.076324224 0.02065264 -0.0010428182
0.046264444 0.009733669 0.0016149336 -0.009737233 -0.0020562564 0.012737213 -0.026933609 -0.0049636443
0.025965776 -0.013726833 -0.0042074784 0.01483235 -0.0003343361 -0.0037505548 -0.0053254245 -0.00055646955
-0.0054058214 -0.011249052 -0.001163026 -0.006894216 -0.0066549857 0.014504795 -0.033154033 -0.07882995
0.05341475 -0.010454653 -0.09831744 0.024173573 -0.013469879 -0.051547866 0.011964132 -0.010660012
-0.046940744 0.040654603 -0.014191862 -0.078228585 0.017574279 -0.0030285406 -0.046200655 0.00028530514
-0.00085062074 -0.0025463772 -1.6112734e-05 -0.00030543952 4.858361e-05 0.0016614448 0.0005743553 -0.0060798815
0.0019730432 0.0051933653 0.014322867 -0.001207177 4.9347e-40 0.018940227 -0.002687185 0.0035969708
0.019345148 -0.01565137 0.0075042183 0.023894602 -0.019028105 0.0029740762 0.034385506 -0.017073102
-0.00219905 0.022421332 -0.0015866047 -0.0030244384 -0.00148998 -0.0011226044 -0.0028373152 -0.002604388
-0.002127547 -0.0029409162 -0.0023916105 0.018634893 -0.0038521844 -0.0023320608 0.027195074 0.008077094
0.00881315 0.026203793 0.007561664 0.0077546784 -0.009007477 0.012609138 0.039809484 -0.0295595

decoder.2.bias f4 [32]
00000000: 64c7 3e3e f457 1a3c c968 f0bb 21df d2bb
00000010: 176c 1c3d dda7 e03d 5a99 073d 926e d43d
00000020: 1f45 b03d 2cfd 34bd ae11 853c 0dc3 09bd
00000030: 93b5 db3d d42a b03c 8cc9 2fbd ea6b bf3d
00000040: c813 4e3d d74d e13c da07 bb3d 5b82 80bd
00000050: c2ce e43c 60d2 823d 3338 893b ffd0 c13b
00000060: 756c 4ebd a20f a2bb c3cf 94bb ef3b 0d3e
00000070: e3fe d9bd 6baa 26b5 345d e93d 5930 81ba
0.18630749 0.009420384 -0.00733671 -0.0064352904 0.03818902 0.109695174 0.03310523 0.10372652
0.08606934 -0.044186756 0.016243782 -0.03363328 0.10727992 0.021504797 -0.04291682 0.09346755
0.050311834 0.027502937 0.09132357 -0.06274863 0.027930621 0.06387782 0.0041876077 0.005914807
-0.0503964 -0.004945711 -0.0045413687 0.13792394 -0.10644319 -6.208781e-07 0.1139473 -0.0009856328
