Autoencoder GoPro Dataset/autoencoder_model_gopro.pth (torch, 785318 bytes, 16 tensors)

encoder.0.weight f4 [16, 3, 3, 3]
000000 82 f6 3c ba 27 99 c5 ba d8 8c 2b ba bf e6 06 39
       -0.00072083634 -0.001507555 -0.00065441197 0.00012865195
000010 cc 1a 4e bb 2b 13 b1 bb 7c 48 83 bb 88 78 0b bc
       -0.0031449078 -0.0054038963 -0.0040064435 -0.008512624
000020 0a 1a ab 3b 14 b1 46 bb d9 43 9a ba ad fb 12 bb
       0.00522161 -0.003031795 -0.0011769488 -0.0022427842
000030 43 5e 76 3b ff 9c 28 bc c4 48 09 bb 14 4e b6 38
       0.0037592805 -0.010291337 -0.0020947913 8.6929795e-05
000040 f7 65 1f bc b5 2b a3 ba d6 71 6a bb 54 75 45 3a
       -0.0097289 -0.0012448939 -0.0035773418 0.0007532437
000050 6e 47 26 3c f5 7c 36 bc 1b db 6f bb ba 7e 39 bb
       0.010148866 -0.0111381905 -0.0036599103 -0.0028304295
000060 82 43 8f bb 31 ec 6e bb 0a 93 81 3c cf 3e 14 3d
       -0.004372061 -0.00364567 0.015817184 0.03619271
000070 bb 95 74 3c 52 b5 0e 3d 39 26 50 3d 06 ac f3 3c
       0.014928277 0.03484089 0.050817702 0.029745113
000080 73 34 77 bd e8 3b 87 bd c3 64 bb bd ec 0e 07 3d
       -0.060352754 -0.06603223 -0.09150078 0.032973215
000090 f1 a3 40 bd 62 45 37 3c 78 c3 27 3e 73 c2 0f bd
       -0.047031347 0.011185976 0.16383159 -0.03509755
0000a0 88 3b 9b bd 1f 87 d7 3d e3 f7 0f 3e 03 2d 29 be
       -0.07579714 0.10523819 0.14059405 -0.16521077
0000b0 75 51 aa bc a9 0f 3a be db f9 85 3d c1 b5 17 be
       -0.020790795 -0.18170036 0.06541797 -0.14815427
0000c0 9f e2 21 3d ae 4d 0c 3e c9 11 c9 3d 7a c0 5f bd
       0.039522763 0.13701507 0.098178454 -0.05462692
0000d0 b9 33 8d 3d c2 74 7c 3d 26 06 23 32 4d f4 c0 b1
       0.06894631 0.061634786 9.489247e-09 -5.6157092e-09
0000e0 4a dc 9b 32 ee cf 28 b7 ec 6d 01 32 2a d2 e0 32
       1.814455e-08 -1.0061993e-05 7.533782e-09 2.6172604e-08
0000f0 b6 3c 47 33 74 93 84 33 8b 40 aa 33 f3 bc f1 31
       4.6388514e-08 6.1735506e-08 7.927982e-08 7.035504e-09
000100 ca 30 7c 33 e1 9e 40 b2 45 78 27 33 4b a8 a8 31
       5.8717696e-08 -1.1211996e-08 3.8992102e-08 4.908576e-09
000110 2f 9d 00 b7 d1 a3 5c 31 54 4a 9d 33 53 f4 3c 32
       -7.665992e-06 3.2107332e-09 7.3244024e-08 1.0998593e-08
000120 51 43 e7 31 b0 b9 cd b7 64 37 24 37 0f ff f8 32
       6.730638e-09 -2.4524372e-05 9.788058e-06 2.8986987e-08
000130 df 57 bc b1 3c aa c4 b7 03 02 3b 33 d9 31 82 37
       -5.48151e-09 -2.3444292e-05 4.354116e-08 1.552042e-05
000140 f1 72 55 b3 8e cf 01 3e 0a 68 32 3e 96 0f c4 3d
       -4.9697466e-08 0.12676832 0.174225 0.09573285
000150 76 d8 05 be 6c 86 06 bd d0 d3 8b bd 8c 54 5b 3c
       -0.13070855 -0.03284304 -0.068275094 0.013386857
000160 00 92 5a 3d c2 c2 7f bd 4c 8f a6 3d 2a a8 ac bd
       0.053361893 -0.062441595 0.081328005 -0.08430512
000170 7f b1 1d 3e 02 77 35 3e 74 31 37 bd 02 83 3d bd
       0.1539974 0.17721179 -0.044724897 -0.046267517
000180 28 38 eb 3d a3 10 12 3e 58 e3 e7 3c 42 f4 a1 3d
       0.1148532 0.14264159 0.028306648 0.079079166
000190 a0 08 c0 3c fc c0 87 3d d2 42 31 3e ea b7 24 be
       0.023441613 0.06628606 0.17310646 -0.16085783
0001a0 22 28 80 bd c8 0f 23 3e bd b6 ab bd 6e b8 b3 bd
       -0.06257655 0.15923989 -0.08384464 -0.087754115
0001b0 e4 bb a9 ba 27 12 ae 3c 41 41 bf bd 03 46 3e 3c
       -0.0012949673 0.02124889 -0.09338618 0.011613372
0001c0 8a 00 d7 3d 62 df 01 3e a1 b4 11 3d 79 59 07 3e
       0.1049815 0.1268287 0.03557265 0.13217725
0001d0 f2 cd fd bc c4 97 78 3a 4a e7 f2 bd 28 ee cf bc
       -0.030981991 0.0009483064 -0.11860521 -0.025382116
0001e0 63 25 24 3d 0c 13 d8 bc 44 ca c2 bd 7f ed 37 be
       0.040074717 -0.02637627 -0.09511235 -0.17961691
0001f0 b9 4d e8 3d e4 03 0a be d8 13 fd 3b f2 9f a9 bd
       0.113429494 -0.13478047 0.007723313 -0.0828246
000200 36 f4 84 3d 31 ec 7e bd b8 48 43 bd 4a 44 dc 3d
       0.06491892 -0.06223697 -0.047676772 0.107552126
000210 b4 07 08 be 6f f7 64 bd dc 91 2f be 56 65 ee bd
       -0.13284189 -0.055900034 -0.17145485 -0.11640422
000220 90 51 12 be fe eb 1d be 1a 95 c2 3d 33 cf 71 3d
       -0.14288926 -0.15422055 0.09501095 0.05903549
000230 2f cb 32 3d 1a f9 43 3d 76 79 42 3d b9 ad 17 3d
       0.043650802 0.047844984 0.047479115 0.03703091
000240 6b 0a fb bd 8b 23 0a be 5b bc 17 be d1 06 a7 3d
       -0.122578464 -0.13490121 -0.14817946 0.08155597
000250 23 7d 68 3d 9a 07 1c 3d 35 f1 4d 3d 6a a7 0e 3d
       0.056759965 0.038093187 0.05027886 0.034827627
000260 35 d4 12 3c 07 41 dc bd 32 10 fc bd 44 bc 13 be
       0.008961727 -0.107545905 -0.123077765 -0.14427286
000270 bf 40 57 3d f5 2c 4a 3d 70 86 e0 3c 59 68 27 3d
       0.05255198 0.04935928 0.027407855 0.040870998
000280 3f 87 09 3d ab d9 a2 3c 8e 41 0c be a9 94 11 3e
       0.033576246 0.019879183 -0.13696882 0.14216866
000290 3a 29 00 3b b7 1e 1a 3e b4 50 20 bd 0b 64 05 3e
       0.0019555823 0.1505078 -0.039139464 0.13026445
0002a0 a5 ae 84 3d 98 98 ee 3d ce 59 9f bc 88 52 34 be
       0.06478623 0.11650199 -0.019452002 -0.17609608
0002b0 6d 98 cb 3d 08 86 39 bb 28 2a c1 bd 60 cd 2d be
       0.09941182 -0.0028308649 -0.09431869 -0.16972876
0002c0 6c 3f c9 bd 30 54 b4 bc bf 3e ef bc a4 57 d1 3d
       -0.0982655 -0.0220128 -0.029204724 0.10221794
0002d0 bc da fb 3d 1c c8 1a be ed 5f 56 bd fe 9b 2a be
       0.1229758 -0.15115398 -0.052337576 -0.16661069
0002e0 74 a8 29 be f4 5b 15 3e 91 fa 65 bd 52 13 6c 3d
       -0.16568166 0.14585859 -0.056147162 0.057635613
0002f0 5e cf 17 3d 8b 29 b0 bb 12 d1 77 bd 59 d1 7c ba
       0.037062995 -0.005376046 -0.06050212 -0.00096442323
000300 ce c7 03 3d 06 b0 b4 3b e7 4b 39 bb 30 05 38 bd
       0.03217297 0.0055141477 -0.0028274 -0.044926822
000310 c3 c3 84 3a 20 75 b2 3a bd ef 2e bd ec c7 e2 3b
       0.0010129142 0.0013615228 -0.0427091 0.006920805
000320 4e cd ac bb 96 38 08 3d 04 5a 15 3d fd fc 89 3a
       -0.0052734977 0.03325709 0.0364628 0.0010527667
000330 f7 d7 a2 3c df 80 8f 3b 1d b1 34 3b 46 35 74 bd
       0.01987837 0.0043793763 0.0027571388 -0.059621118
000340 5e 83 b4 bc 3c 66 a7 bd c9 80 0b bd 9d 65 23 bd
       -0.022035297 -0.081737965 -0.034058366 -0.039891828
000350 f7 25 a6 bc 10 b3 9d bc 93 2f 4f 3c dd c2 3a bd
       -0.020281775 -0.019250423 0.01264562 -0.045595992
000360 14 63 21 b8 4a 6f 29 3e c8 35 ac 3d d4 3d 13 3e
       -3.8477665e-05 0.1654636 0.084086955 0.14379054
000370 50 98 dc bd 39 57 b6 3d 8d a8 08 3e 7b 09 23 3e
       -0.10771239 0.08903355 0.13345547 0.15921585
000380 fd d4 3a 3d fa 53 c6 3b 06 a3 16 bd 2b bf 0d be
       0.045613278 0.0060524913 -0.036776565 -0.13842456
000390 52 bd 83 bd 0a d6 ab bc f4 7e a1 3c db ce 33 3e
       -0.06432594 -0.020976085 0.019713856 0.17559378
0003a0 59 c1 36 3e f3 db 3b 3c ac 5c 65 3d 0c ab 1d bd
       0.17847194 0.011466014 0.055996582 -0.0384932
0003b0 94 f4 49 be d5 d8 ba bd b0 0d a9 bd 25 9a cb bc
       -0.19722205 -0.09123389 -0.08254564 -0.024853775
0003c0 7c 42 38 be 71 dc 10 bd f4 f3 d0 bd 3b 5e db bd
       -0.17994112 -0.03536648 -0.1020278 -0.107113324
0003d0 f9 6b 14 be 46 fc 9e bb b5 1d e4 3d 07 fc 25 3c
       -0.14494313 -0.0048518507 0.11138479 0.010130889
0003e0 22 40 4e 3d a0 79 11 3e bd a4 2e 3e ec 61 b5 bd
       0.05035413 0.14206553 0.1705503 -0.08856568
0003f0 29 a5 cb 3c c3 2a c6 bc 9d 8d ce 3d 4d 1b ff bd
       0.024859028 -0.024190312 0.10085604 -0.12456379

encoder.0.bias f4 [16]
000000 2e 7d 50 bc 8e be 54 3e 66 b6 bc b3 75 41 6f bd
       -0.012725158 0.20775816 -8.78761e-08 -0.058412034
000010 72 1e 3a 3e b2 09 94 3a 13 0a 30 3e ad dd 95 3d
       0.18175676 0.0011294393 0.17191343 0.07317672
000020 20 3f b7 bc a2 ac 59 3e 0e 69 02 bd 34 e8 25 3e
       -0.022368968 0.2125726 -0.03183847 0.1620186
000030 e4 9a 2b 3e 62 94 b6 bb d8 15 32 be d5 61 b5 bd
       0.16758305 -0.005571888 -0.17391145 -0.088565506

encoder.2.weight f4 [32, 16, 3, 3]
000000 50 b2 f3 a8 5d 98 8d a8 59 7d 6e 29 39 48 80 a6
       -2.705575e-14 -1.5720222e-14 5.2955338e-14 -8.90136e-16
000010 03 78 b9 a8 e1 37 77 29 60 ba 90 27 4f ac 9d 28
       -2.0591173e-14 5.4893485e-14 4.0170097e-15 1.7505228e-14
000020 7b 7a 12 a8 cf 0d 56 3c 1d 15 a1 bc 30 2c 53 3d
       -8.131187e-15 0.013064816 -0.019663388 0.051555812
000030 c6 f0 87 3c eb 40 d6 ba 42 98 50 bc 52 8f 63 bd
       0.016594302 -0.0016346251 -0.012731614 -0.055556603
000040 e2 1b ff 3c fa a5 7e 3c 2d ce 8d b2 92 b0 b3 b2
       0.031141225 0.015542502 -1.6508318e-08 -2.0918637e-08
000050 42 e5 45 b3 b3 10 ad b1 81 04 99 31 e2 42 3a b2
       -4.6076146e-08 -5.036861e-09 4.453398e-09 -1.0841832e-08
000060 76 1d 1f 32 8e f5 f6 31 f1 79 09 32 5b 0e e5 3c
       9.261717e-09 7.1874586e-09 8.002176e-09 0.027960947
000070 a8 66 cb bc 4a 2e 19 bd fd 10 29 3d 3e 9c 4a bd
       -0.024829224 -0.03739766 0.041275967 -0.04946541
000080 e0 3d b9 bc 6c 09 2d 3d 42 9e 34 3d 31 fa 0e 3d
       -0.022612512 0.042245314 0.04409624 0.03490657
000090 2e 5e 11 bd bc 78 81 3d f8 e0 c9 3d c5 5c 04 bd
       -0.035490207 0.063218564 0.098573625 -0.032315034
0000a0 21 e4 86 3d d2 09 0f 3d a7 21 4c bd 07 c1 2e bd
       0.06586481 0.034921475 -0.04983678 -0.042664554
0000b0 d7 71 4d 3a 5a 50 de ba c4 f0 de bc e2 0b 5e bd
       0.0007837093 -0.0016961202 -0.027214415 -0.05421055
0000c0 39 a9 ed 3c 8c 49 cf bc fd 72 69 bd 87 a6 09 3d
       0.029011356 -0.025303625 -0.056994427 0.03360608
0000d0 09 2a 23 3d 9b 83 b2 3c 31 ca 59 bb 47 05 07 3d
       0.03983501 0.02179127 -0.0033232088 0.032964017
0000e0 15 34 0c 3d a9 83 54 bd 8b e2 39 bd e6 b8 80 bc
       0.034229357 -0.051883373 -0.045382064 -0.015713166
0000f0 4b f8 49 bc 3f 17 f4 bc d4 10 44 3d 86 a7 e9 3b
       -0.012327264 -0.02979624 0.04786761 0.007130566
000100 d5 e5 5e 3d 10 1e 8b 3d 2d de b1 3c 8d 1e 9c 3d
       0.054418404 0.06792843 0.021712387 0.076230146
000110 64 bd c8 3d ae 34 5f bc 6d 2a e8 3c 14 66 56 3d
       0.098017484 -0.0136234 0.028340543 0.052343443
000120 43 90 9f 3d dd d3 10 3d da 5d 8e 3d fb a9 c1 3d
       0.077911876 0.0353583 0.069514945 0.09456249
000130 d6 72 de 3d 02 dc ad 3d f3 44 cd 3d f2 1b ae 3d
       0.10861747 0.08489229 0.10022917 0.08501424
000140 fb 7c a4 3d 8a 73 19 3d ec 3e 51 3c df c6 29 3d
       0.08031651 0.037463702 0.012771349 0.041449424
000150 6f af 17 3d 73 ad e1 3d 9c b1 55 3d c9 19 62 3d
       0.03703254 0.11019411 0.052171335 0.055200372
000160 2c dd ef 3d 8b 3d 08 3d 82 a3 86 3c d4 34 3a 3e
       0.11712107 0.033261817 0.016435388 0.18184215
000170 45 41 c6 bc 28 87 62 bc 5e 79 0a 3e 63 0a 2a bd
       -0.024201045 -0.013826169 0.1352286 -0.04151381
000180 4c 65 09 3d a5 c3 5f 3e 66 02 6c bb 67 1e 33 3d
       0.03354387 0.21851976 -0.0036012172 0.043730166
000190 91 60 0d 3d 87 64 a6 3d 99 09 07 3d 7f 10 6c 3c
       0.03451592 0.08124643 0.032968137 0.01440823
0001a0 e0 ab 26 bc 8c b7 11 bd e0 df 04 bc fd 7c 0a 3d
       -0.010172814 -0.035575435 -0.008110017 0.033810604
0001b0 ba e9 da 39 00 d9 69 3d 2d 43 d7 3d a6 b9 05 bc
       0.0004175434 0.057091713 0.1051086 -0.008161938
0001c0 07 a5 e4 3c ef de c5 3d 0d b8 02 bd d9 e2 7a bc
       0.027910722 0.09661662 -0.031913806 -0.015312874
0001d0 b0 ce 37 3d cb 36 74 2e 38 f7 80 2e d2 46 8b 2e
       0.044874847 5.5527843e-11 5.864681e-11 6.3335684e-11
0001e0 f3 c6 4e ae b8 51 74 ae 0c b7 cb ad d7 8c de 2d
       -4.701568e-11 -5.5551758e-11 -2.3159717e-11 2.5301023e-11
0001f0 7b c3 61 ae 3a 9a dc 2d 0f 8e 35 bd 5d 92 2c bd
       -5.13327e-11 2.5079595e-11 -0.04432493 -0.04213177
000200 f4 e9 91 bd c0 ce b2 3b 42 c4 53 bc 63 20 d1 bd
       -0.07124701 0.0054567754 -0.0129252095 -0.102112554
000210 94 21 b3 3d 4c 6e 42 3c c4 66 84 bd 1d cd 50 bc
       0.08746639 0.011867117 -0.064649135 -0.012744215
000220 a6 e6 78 3c fe b7 92 bb ce 57 ac 3c 91 1b 03 3c
       0.01519171 -0.0044775 0.021037962 0.008002178
000230 af d2 ab bd ff 3f 8d 3d 13 88 73 3d a0 c3 28 3d
       -0.08389794 0.06896972 0.059455942 0.041202188
000240 3d be 1f 2d 5d 94 b9 ad d2 60 1f ab 4f d7 f4 2c
       9.080345e-12 -2.1097952e-11 -5.662251e-13 6.958801e-12
000250 de bc 7f 2c 4c a0 eb ab 82 ee 03 2d 9c f7 9c 2c
       3.6342522e-12 -1.6742246e-12 7.499447e-12 4.461277e-12
000260 d3 40 97 2c 50 58 ed bc c3 7d f4 3c 18 2e 24 bd
       4.298875e-12 -0.028972775 0.029845124 -0.04008302
000270 26 47 82 bd 49 b4 90 3d d2 02 3d 3d 9a 06 50 3d
       -0.06361227 0.07065637 0.046145268 0.050787546
000280 6e d5 55 3d 45 4e 4f 3c 69 83 8a 33 20 b8 87 32
       0.052205496 0.012652938 6.450029e-08 1.5799799e-08
000290 38 aa 56 b2 03 43 54 33 62 e7 a4 32 7a 1e b6 32
       -1.2495143e-08 4.9421043e-08 1.9197334e-08 2.1201448e-08
0002a0 8d ac 2c b3 55 cf c5 b2 72 49 28 33 fa 85 c6 bc
       -4.0203805e-08 -2.3028102e-08 3.9182346e-08 -0.024233807
0002b0 dc e9 28 3d fa e6 5f 3d 0e 79 08 bd f3 33 59 bd
       0.04123865 0.054663636 -0.03331857 -0.05302806
0002c0 96 98 a9 3d f0 6d 54 3d 3d d0 a3 3d 4b 31 35 3d
       0.082810566 0.051862657 0.07998703 0.044236463
0002d0 c6 90 72 bc 94 56 80 bb 3d 49 f0 bc 85 af 88 3b
       -0.0148050245 -0.003916571 -0.029331798 0.004171314
0002e0 d7 0e b9 3c ea f1 85 3d 97 72 31 bc 1a 7c b1 bc
       0.022590084 0.06540282 -0.010830543 -0.021665622
0002f0 ae 67 6e 3d 4c 4e 8e 3c e8 b4 13 3d f6 89 15 3d
       0.058204345 0.01737132 0.036061198 0.036508523
000300 85 55 08 3d 8d ee 5b 3d dd 97 4f 3d 77 41 43 bc
       0.033284683 0.053694297 0.050681937 -0.0119174635
000310 36 56 93 bb 11 c5 86 3b 53 f3 67 3c bb 76 11 bd
       -0.004496361 0.0041128476 0.014157134 -0.03551362
000320 12 58 0f bb 21 48 a7 3d a6 1f 1e bd a8 ef 23 3c
       -0.0021872562 0.08168054 -0.0386044 0.010005869
000330 d8 ae 92 3d 95 8a 4a 3d fc 2e e0 3c ec bb 47 3c
       0.07162255 0.04944857 0.027366154 0.0121908
000340 35 bb be ba e1 e3 14 bc 43 a3 f7 bb 84 35 bb bc
       -0.0014551642 -0.009087534 -0.007557304 -0.022852667
000350 2e d4 de bc 2b fc 6c ba bc 33 98 bc 92 44 d1 bc
       -0.027200785 -0.00090402615 -0.018579356 -0.025545392
000360 1b 06 0c bd 46 79 70 3c db 21 8c 3d 6f 2d 09 3d
       -0.03418551 0.014677351 0.06842395 0.033490594
000370 f4 a4 4b 3d 33 6a 30 bd 13 2e 1c bd 16 ca 80 3c
       0.04971786 -0.04307003 -0.038129877 0.015721362
000380 89 79 97 b8 06 62 4e bd 83 10 f1 3c 15 ce 9f bd
       -7.222879e-05 -0.05038645 0.029426819 -0.07802979
000390 c3 ac 28 bd 92 42 54 3c 2c 07 d3 bc bc 90 e6 bc
       -0.041180383 0.012955325 -0.025760256 -0.028145187
0003a0 04 ae a4 bd f2 9f 71 bd 9d b3 df 3b fa 61 92 3d
       -0.08041003 -0.058990426 0.0068268315 0.07147594
0003b0 23 e6 f3 38 26 ef 38 3d 75 f9 d5 3d 8c db 02 3d
       0.00011630009 0.045149945 0.10447971 0.031947657
0003c0 6e b8 0f bc 5a c6 8e 3d dd 0f 86 bc ec d0 23 3c
       -0.008771999 0.06971426 -0.016364986 0.009998541
0003d0 c4 cb e4 3c 45 52 d8 3c f2 a2 4d 3d 78 0a 14 bc
       0.027929194 0.026406417 0.050204225 -0.009035699
0003e0 3d 2b b5 bc a0 b3 46 3d c0 e2 b7 3d a4 30 94 bc
       -0.022115344 0.048511147 0.08978796 -0.0180896
0003f0 94 86 4e 3d 8d 64 f2 bb a4 8b d9 bc ce 30 14 3c
       0.050421312 -0.0073972405 -0.026555844 0.009044839

encoder.2.bias f4 [32]
000000 94 7c 93 ba cb 59 56 bc 8d 74 c2 3d a3 8d 52 3d
       -0.0011252337 -0.013082932 0.094948865 0.051404607
000010 13 2d 3f ba 3c 5f 50 bd b0 1a b8 bc 5f 58 98 3d
       -0.00072927884 -0.050872073 -0.022473663 0.074387304
000020 b9 c8 45 3d ff 1b 82 3d 2a 1c 53 bc a5 a3 80 bd
       0.048287127 0.06352996 -0.012885133 -0.06281213
000030 c5 d1 bc bc 3c a3 73 3d 9b ea a2 3c 10 3d 5e bd
       -0.023049245 0.059481844 0.01988726 -0.054257452
000040 21 05 3d bd cb a5 d3 bc ca 27 56 bc 86 57 a8 bb
       -0.04614747 -0.025835892 -0.01307101 -0.0051373867
000050 e8 4f b7 3c 36 37 53 3d 73 8a a6 3c b3 e5 6d bb
       0.02237697 0.051566325 0.02032969 -0.0036300241
000060 2b ef 93 3d b1 1c 4d b9 a3 0b 2a bc ef b9 5f 3d
       0.07223352 -0.00019561012 -0.010378751 0.05462068
000070 91 b1 7d 3d 7c 0a 9f 3c d2 ce 80 3d 20 41 6d 3d
       0.06193692 0.019414179 0.06289448 0.057923436

encoder.4.weight f4 [64, 32, 3, 3]
000000 d6 d2 40 3c d9 39 19 bc 75 ba b5 3c 18 bc 14 3c
       0.011769017 -0.009352171 0.022183636 0.009078048
000010 62 4a 76 3a fe e8 08 3d 33 a0 03 3c bb 12 11 3d
       0.0009395239 0.033425324 0.0080338 0.035418253
000020 37 2c c5 bc eb 11 4f 3d 24 f3 d2 3c ca f0 59 3d
       -0.024068935 0.050554197 0.025750704 0.05320815
000030 31 eb 90 3c 5b aa 43 3d 19 86 90 3d 30 ef 71 3d
       0.017690273 0.047769886 0.07056827 0.059065998
000040 90 b1 fd 3c 58 be 83 3d 8d 0d 29 bc 01 b9 05 3d
       0.030968457 0.064327896 -0.010318172 0.032647137
000050 7a 30 2e bc b0 6f 72 3b a0 92 3a bd f7 cf d0 3c
       -0.010631675 0.003699284 -0.04554999 0.02548979
000060 36 70 09 bb a0 e0 45 3c c1 1b 2b bd 82 dd 3e 3b
       -0.0020971424 0.012077481 -0.041774515 0.0029123728
000070 91 96 74 3b 48 11 1a 39 74 6e 97 bc fa ce 33 bd
       0.003732119 0.00014693022 -0.018485285 -0.04389856
000080 67 4e 09 bc 85 0a 81 3c f5 29 04 bd 00 45 6b bc
       -0.008380509 0.015752086 -0.032266576 -0.014359713
000090 ab d7 97 b6 82 c9 0e b6 4a ad cd b5 99 ea f8 b5
       -4.5252577e-06 -2.1276942e-06 -1.5324124e-06 -1.8545717e-06
0000a0 f3 81 bd b5 5f a6 13 b5 da 45 8f b5 0d d4 14 b5
       -1.4119418e-06 -5.500387e-07 -1.067466e-06 -5.544287e-07
0000b0 5a 35 5d b4 d1 2f af 3c f9 11 bd 3c 88 3e 71 3c
       -2.0601638e-07 0.021385105 0.02307986 0.014724381
0000c0 28 c1 95 bb ef bf f3 3c 74 07 e0 3c 9e 6a 1a bc
       -0.004570145 0.029754607 0.027347304 -0.009424834
0000d0 ad d3 59 3c d7 df 9c 3c db 73 47 3d 46 4f 55 3d
       0.013295096 0.019149704 0.048694473 0.052077554
0000e0 9b 0a 22 3d f7 bd 8c 3c 2a e7 7c 3d 81 35 70 3d
       0.039560895 0.017180426 0.061743893 0.058644775
0000f0 f8 1f 58 3d 66 f9 ea 3c 05 d0 f1 bb 2a d7 43 3c
       0.052764863 0.028683376 -0.007379534 0.011953155
000100 24 05 7c bc ee a7 1d 3d e5 91 e3 3c 02 4f 5c 3d
       -0.015382085 0.03849023 0.027779529 0.053786285
000110 67 55 1d 3d d4 48 ce bb 83 e2 e9 bc 3e 7a 2d 3d
       0.038411524 -0.006295303 -0.028550392 0.042352907
000120 8e 68 4a bb 3c 1b 8e bc 64 da 4a 3b cc fc 14 bd
       -0.0030885073 -0.01734697 0.0030952925 -0.0363739
000130 0c a9 80 3c fa c1 61 bc c5 15 37 bd 73 30 25 bd
       0.015705608 -0.013779158 -0.044698495 -0.040329408
000140 09 7f 8e bc 74 a0 be ba 72 75 ea 3b 94 ee 60 3c
       -0.01739456 -0.0014543668 0.007155114 0.013728756
000150 2a a8 17 bc e0 dc 51 bc af 37 22 bb 98 c8 ac bb
       -0.009256402 -0.012809008 -0.0024752428 -0.005272936
000160 1d 96 d2 bb ad 5e 15 39 5f e9 86 bc c7 6d 85 3d
       -0.0064265863 0.00014245017 -0.016468702 0.06515079
000170 b6 a2 b2 3c ab 8d 38 3d 69 18 3f 3d be 8a f9 3b
       0.021806102 0.04505698 0.04665414 0.0076154163
000180 09 4d c8 3c 31 a7 f6 3c 17 d6 fa 3c e7 da c8 3c
       0.024450796 0.03010902 0.030619664 0.024518443
000190 c6 93 1b 3d a4 86 ad 3c 65 88 cc 3c 18 56 63 3d
       0.037982725 0.021182366 0.024967382 0.055502027
0001a0 6f 1c a0 3c 16 90 30 3d 70 16 01 bc 07 65 d0 3c
       0.019544808 0.04310616 -0.007878885 0.025438799
0001b0 32 ac 53 3c e8 31 77 3c ed 22 a0 3c 83 2f 86 3d
       0.0129194725 0.015087582 0.019547904 0.06552031
0001c0 fc 80 15 3d 54 f3 73 3d 5f 9b 9f 3b 89 92 36 3d
       0.036499962 0.059558228 0.0048708166 0.04457334
0001d0 00 5a 80 3d 9a 3c a8 bc 78 fe 10 bd 39 b3 08 bd
       0.06267166 -0.02053671 -0.03539893 -0.033374045
0001e0 20 62 92 bc 40 df c9 bc e9 e8 cf 3c 2f 90 2e 3d
       -0.017869055 -0.024642587 0.025379615 0.042617973
0001f0 8a 64 05 bc d0 f2 4a bc e6 33 bb bc bf e0 3d 3b
       -0.008141646 -0.012386993 -0.022851896 0.002897307
000200 e9 e1 ba bc e3 59 3f 3c 0c 9e 36 bd 52 0c af bc
       -0.0228128 0.0116791455 -0.04458432 -0.02136818
000210 9e 9a b4 bc ae 8e cb bc 54 ee 60 bd 6c 6c b4 3c
       -0.022046383 -0.024848308 -0.054914787 0.022024356
000220 4d a8 c0 3b 42 0c 14 3d 92 15 ae 3c e9 d2 f8 3c
       0.005879438 0.036144502 0.02125052 0.030374007
000230 11 e7 35 3c c6 74 8b 3c 96 e7 d2 3c 6f 93 c7 3c
       0.011102454 0.017023455 0.025745194 0.024362294
000240 ac 01 52 3d c8 d2 2f 3c 46 69 6d bb 81 56 e9 3c
       0.051271126 0.0107314065 -0.0036226078 0.028483631
000250 f7 36 5a 3d 5e d0 28 3d a2 42 70 3d 58 ef 90 3d
       0.053275075 0.04121434 0.058657296 0.07076901
000260 ee 33 f7 3b 8d 66 6e bb a7 04 08 3c b4 81 4b bc
       0.0075440323 -0.0036377043 0.00830189 -0.01242106
000270 48 fb a8 3b d4 08 a2 3c 03 0c 93 bb 64 88 60 3b
       0.005156908 0.0197796 -0.004487516 0.0034260983
000280 f2 69 b0 3c d1 74 dc ba 2d af 93 bc 37 27 51 3c
       0.021534894 -0.0016819482 -0.018027866 0.012765697
000290 b7 c4 30 bc 5e 1b 05 bc c0 08 35 3c 40 f4 28 3b
       -0.010789088 -0.008124201 0.011049449 0.002578035
0002a0 fa 35 60 3c e1 d1 8e ba b6 48 48 3a 3c 36 99 b4
       0.013684744 -0.0010896289 0.00076402293 -2.8537931e-07
0002b0 e4 b8 5c 34 cc 5a 49 b4 41 48 61 b4 4b 92 9c b3
       2.055636e-07 -1.8752615e-07 -2.0981044e-07 -7.2909266e-08
0002c0 6f 86 c1 b4 dd 20 83 b4 21 04 ce b3 cc 80 e4 b3
       -3.6046865e-07 -2.4424563e-07 -9.5933736e-08 -1.06405054e-07
0002d0 d1 d3 81 ba 3a fa 81 bc 6f 37 27 3c 93 77 24 bd
       -0.0009905045 -0.015866388 0.0102060875 -0.040153097
0002e0 1b e7 49 bd 73 6a 44 bd 37 0c a9 ba 1f 6e 31 bc
       -0.049292665 -0.04795308 -0.0012897317 -0.010829478
0002f0 d3 8d 68 bd 8a ba ca 3a cc 94 3e 3c dc 39 89 3c
       -0.05677588 0.001546697 0.011632156 0.016751222
000300 92 e8 c8 bc 51 57 7c bc ae 64 c2 3b a6 8e 23 3d
       -0.02452496 -0.015401677 0.005932412 0.039930962
000310 03 7d d1 bc c9 f5 86 3b f6 5d db 3c eb 42 8c 3c
       -0.025572306 0.0041186553 0.026778203 0.017121753
000320 c5 b4 cc bb 84 66 64 3b 16 3c 51 bc a8 b1 8e 3b
       -0.0062471353 0.0034851143 -0.012770673 0.0043546744
000330 90 11 54 3b 29 12 9e bc dc d0 92 3c 2f 48 a3 bc
       0.00323591 -0.019295769 0.017921858 -0.01993188
000340 3a 83 ac 3c 18 ee bc 3c 16 d3 66 3d d7 18 4d 3d
       0.021058667 0.02306275 0.05635365 0.050072517
000350 d9 50 ca 3c 4e 06 b5 3c e5 e1 75 3d 18 44 fb 3c
       0.024696754 0.022097733 0.060029883 0.030672118
000360 46 63 44 bc 9d 29 59 bc b6 ea 19 3d 70 f1 af bb
       -0.011986559 -0.01325455 0.037577353 -0.0053693578
000370 8f 05 29 3d 58 96 21 3d 33 b4 2d 3d 9c e6 17 bd
       0.041265067 0.03945002 0.04240818 -0.03708516
000380 63 c5 33 bb 8c 9d 0b a8 67 65 fe a7 f8 75 fe 26
       -0.0027430884 -7.7502126e-15 -7.0609103e-15 1.7656766e-15
000390 4b a3 f1 a7 bc a1 4e a8 14 01 4f a8 6b 9d 40 a8
       -6.706798e-15 -1.1470368e-14 -1.1491042e-14 -1.0692276e-14
0003a0 62 5d 43 a7 cd 08 37 a8 fe 10 8f 3c ba c0 53 3c
       -2.711231e-15 -1.0160449e-14 0.017464157 0.012924368
0003b0 e0 0c 88 3c 60 3c 55 3c 10 8a 05 3d 42 45 e6 3c
       0.016607702 0.013014883 0.03260237 0.028109197
0003c0 e3 29 a5 bc 84 e3 0b 3d f0 20 de 3c 01 ce 88 bb
       -0.020161575 0.034152523 0.027115315 -0.004174948
0003d0 ae 4d 65 3d b6 0a 80 3d 02 ae 0e 3d d1 1f 67 3c
       0.055982284 0.06252043 0.034833916 0.014106707
0003e0 f0 0b 89 3c 08 b0 83 3d 6c af 9b 3c b0 d5 5a 3d
       0.016729325 0.0643006 0.019004546 0.053426445
0003f0 05 12 f8 bc 99 f3 ad 3c ef c0 6b 3c 81 9a a9 3c
       -0.03028203 0.02123432 0.014389261 0.020703556

encoder.4.bias f4 [64]
000000 3e 1a 84 bc 64 4b 59 3d 52 fe c9 bc 70 f2 14 3d
       -0.016125795 0.053050414 -0.024657402 0.03636402
000010 a7 d4 a0 b6 db 10 6e 3d 0d 44 a0 bc 5f 73 44 3d
       -4.7931276e-06 0.058121543 -0.0195637 0.04796159
000020 71 35 65 3d b7 8c 41 3d 52 93 41 bb a7 b8 0c bc
       0.05595917 0.047253337 -0.0029537273 -0.008588946
000030 3a ec 88 bb 5f 50 af 3c 69 3d 2f 3d 48 2f 22 bd
       -0.004178551 0.021400629 0.042783175 -0.039595872
000040 76 de 77 bc e8 28 f1 bc ad d3 d9 bc 25 e1 87 3d
       -0.015128722 -0.029438451 -0.026590193 0.0663474
000050 9a 2b a1 ba 7c 94 31 bd 97 69 58 b9 bd 86 c3 3b
       -0.001229632 -0.043354496 -0.000206387 0.00596699
000060 47 9a 07 bd 1c 57 6a 3d 62 94 c2 bc 35 7c ac 3b
       -0.033106115 0.05721198 -0.023752395 0.00526383
000070 b3 8d 73 bc 9f d0 36 3c 2f 7b 29 3d 7c c1 fb 3c
       -0.014865327 0.011158138 0.041377243 0.030731909
000080 14 fb 05 bc 6c 07 00 bd 6b 98 08 3d f4 e8 cf 3c
       -0.0081775375 -0.031257078 0.033348482 0.025379635
000090 dc e6 e6 3c 0e 4e 5e 3d ce ba 00 bd b6 b8 4d 3d
       0.028186254 0.054273658 -0.03142815 0.050224982
0000a0 a6 f6 14 bc f1 a7 d1 bc a4 c0 99 af 46 d6 76 3d
       -0.009092009 -0.025592776 -2.7967417e-10 0.06026294
0000b0 f1 b2 10 3d 73 22 20 3d 24 52 35 3d 9e d5 71 3d
       0.0353269 0.039095353 0.04426779 0.05904161
0000c0 1a 2d 27 b4 bf 57 3c 3d f4 9c 93 3d 4c d2 5b 3d
       -1.5569495e-07 0.04598212 0.07207671 0.05366735
0000d0 64 2c 43 bc bd 00 bd bc a0 6b 0c bc ff 5a 95 b7
       -0.011912439 -0.023071641 -0.008570582 -1.7804558e-05
0000e0 20 9f 57 3d 5d b0 aa bb da 19 a3 3b ab 3e 0d bd
       0.052641988 -0.0052090124 0.004977447 -0.034483593
0000f0 93 f8 c5 3c e9 84 02 b2 98 ca 29 bc 41 8b e3 3c
       0.024166381 -7.597216e-09 -0.0103632435 0.027776362

encoder.6.weight f4 [128, 64, 3, 3]
000000 83 9c 0c 3c 15 ec d5 3c 72 56 4c 3c 9f 01 83 3c
       0.008582237 0.02611355 0.012471782 0.015991984
000010 ca ee 2c 3d 5a f6 fc 3c df 4b 25 3d bb 5b 91 3d
       0.042219914 0.030879188 0.04035556 0.07097574
000020 fe ab 28 3d 5b 23 98 bc 72 89 d9 3a ca ca ad 3b
       0.04117965 -0.018571546 0.0016596748 0.0053037154
000030 92 0c 9b bb 28 5b c9 bc cf eb 0b 3c 3a 77 1c bb
       -0.004731723 -0.0245796 0.008540108 -0.0023874776
000040 9b 16 c5 bc 12 66 f0 3a d6 23 88 bb 4b 75 d9 3a
       -0.02405863 0.0018340966 -0.0041546626 0.0016590742
000050 59 23 2b 3b 38 fd 34 ba 69 c1 ac 3a a9 cf 98 3a
       0.0026113598 -0.00069041876 0.0013180199 0.0011658567
000060 34 2e b0 3b a3 9e 92 bb c2 10 e1 3b c1 fe 85 bb
       0.0053766016 -0.0044744774 0.0068684528 -0.004089207
000070 23 94 41 ba 55 03 85 3c 6b 55 b0 bb 96 10 a1 bc
       -0.000738444 0.01623694 -0.0053812764 -0.01966123
000080 63 4f e7 3b 86 35 41 bb bd 2a 82 bc da aa 85 ba
       0.007059024 -0.0029481365 -0.01588952 -0.0010198012
000090 23 da 58 b7 18 9c 32 b7 b5 76 19 b7 22 0b 04 b7
       -1.2925392e-05 -1.064597e-05 -9.147149e-06 -7.870405e-06
0000a0 07 83 1c b7 78 63 6f b7 f7 a4 8e b7 29 bf 6e b7
       -9.328832e-06 -1.42686695e-05 -1.7004537e-05 -1.4230413e-05
0000b0 c4 b5 ab b7 4f cb 6a bc 0f 65 b9 bb b1 2f 82 3b
       -2.046943e-05 -0.014330699 -0.005657799 0.0039729704
0000c0 7a ad 81 bc 11 94 d3 bc 38 49 ce 3a 46 9d d0 bb
       -0.01582979 -0.02582744 0.0015738374 -0.0063664047
0000d0 6c ea d9 bc 55 c2 3f bb 3e e9 84 3b 1c 45 92 3b
       -0.026601039 -0.0029260118 0.004056125 0.004463805
0000e0 4e c3 97 3b bf 50 9a 3b e3 76 a6 3b bd 64 aa 3b
       0.0046314364 0.0047093327 0.0050800904 0.005199997
0000f0 1e d3 9b 3b 4b 30 a5 3b 4d b9 ac 3b 96 4c 21 bc
       0.0047553917 0.0050411574 0.005271113 -0.00984492
000100 4b 99 1c 3c 19 a3 6b 3c 0e cf f4 3b 9e 4a c3 3b
       0.009558032 0.014382147 0.007470972 0.005959823
000110 05 cc f3 3c 39 d6 14 3c c5 c9 31 bc aa bc 51 3c
       0.02976037 0.009084278 -0.010851328 0.012801329
000120 69 a8 e6 bb e6 f5 08 bb 0e 4b b4 3a af c3 fe bb
       -0.007039119 -0.002089852 0.0013755278 -0.007774792
000130 97 95 63 bc 3f 0e de 3b e0 28 5f bb a8 44 e7 bc
       -0.0138906455 0.0067766006 -0.0034051463 -0.02823098
000140 0a 4a 78 bb de 35 f2 bb cc ad 26 bb bc e6 8f 3b
       -0.0037885928 -0.0073916754 -0.002543318 0.0043915194
000150 8d e8 a6 bb dc 86 9d bb 62 d1 fb 3b 67 9c 6b bb
       -0.00509364 -0.0048073363 0.0076848725 -0.0035951377
000160 bb 6f 0c bc ca d6 d5 3b 0a 88 e5 25 e6 5b a8 25
       -0.0085715605 0.006525849 3.981735e-16 2.9205627e-16
000170 66 e6 0f 24 be 9d 1c a6 01 20 cf 24 f3 51 2d a4
       3.1203337e-17 -5.4337153e-16 8.9826157e-17 -3.758281e-17
000180 9b 8c f0 22 33 fd df 25 e5 08 9e a5 09 05 75 3b
       6.5201002e-18 3.8855908e-16 -2.7414658e-16 0.0037387034
000190 d4 1d f0 3b ad 29 25 3c a1 e0 aa 3c 6a 82 ee 3c
       0.0073277745 0.010080737 0.020859065 0.02911492
0001a0 5d a0 c1 3c 52 22 c0 3c 1f 54 2a 3d 49 bd f9 3c
       0.023636037 0.023453865 0.04158413 0.030485766
0001b0 2e 3c 7f 2c 1d c7 06 2d 1a 91 d7 2c b4 e8 f8 2c
       3.6271086e-12 7.66123e-12 6.126777e-12 7.074419e-12
0001c0 f6 7e 2f 2c 1c 4e 88 ac bb 65 c7 2c a0 e7 b7 ac
       2.4939473e-12 -3.8740244e-12 5.6672145e-12 -5.2268884e-12
0001d0 34 42 a1 2c ae 29 8c bb 42 d1 90 3a 32 1a be 3b
       4.5832452e-12 -0.0042774295 0.0011048692 0.0058014626
0001e0 1d ee 45 bc 48 15 60 bc 2d 56 1b 3c 1f ed 5d bc
       -0.012080696 -0.013676949 0.009480995 -0.013545304
0001f0 e9 cc a2 bc 47 04 65 3c 65 75 ab bb 6e a0 3f 3b
       -0.0198731 0.013978071 -0.0052325004 0.002923991
000200 b0 52 11 3c 0c 66 52 ba 73 4e 2f bc b7 fa 93 3c
       0.008869812 -0.00080260704 -0.010699856 0.018063886
000210 e6 d4 26 3b b3 af a9 bc 6c 85 29 3c b5 12 6e 3c
       0.0025456487 -0.020713663 0.010346752 0.014530827
000220 73 91 d7 3c 18 21 89 3c 23 8b 5c 3c b0 bb 38 3d
       0.026314473 0.016739413 0.013460907 0.045100868
000230 19 da c1 3c b2 cf 27 3c d9 1a 09 3d f8 d7 00 3d
       0.023663567 0.0102423895 0.03347287 0.031455964
000240 69 99 94 3b 3f 13 22 3c 89 1e 3c 3c 36 0e 94 3c
       0.0045348895 0.009892284 0.0114818895 0.018073183
000250 48 dc 2a 3d ba d0 c8 3c eb d6 3c 3c 68 f9 45 3d
       0.041713983 0.024513591 0.01152585 0.048333555
000260 64 11 05 3d 7e dd 86 3a dd 66 95 3a a5 3c 81 3b
       0.032487288 0.0010289398 0.0011398453 0.003943997
000270 85 c5 4e 3b d9 f6 e0 3a 78 08 15 3c f1 f2 01 3c
       0.0031550836 0.001716341 0.009096257 0.007931457
000280 a7 9f ac 3a 08 9a f2 3b 77 01 0f 3b 05 f9 13 3b
       0.0013170139 0.007403616 0.0021820941 0.0022578847
000290 fe da 1a 3b b2 aa 25 3b 91 e6 23 3b 4e f0 33 3b
       0.0023629065 0.0025278744 0.0025009254 0.0027456465
0002a0 47 39 24 3b 29 04 26 3b fa d6 31 3b ec c0 f2 3a
       0.0025058554 0.002533207 0.0027136193 0.001852063
0002b0 c4 d2 92 3b 0b 26 f3 3a c3 90 c7 3b 21 88 1f bc
       0.0044806916 0.0018550766 0.006090255 -0.0097370455
0002c0 37 d2 90 3b d2 85 13 3c 6c 21 82 bc fd e4 a0 bb
       0.004419591 0.009004073 -0.015885077 -0.00491011
0002d0 25 46 a9 ba ee 1d ef 3b 7a a1 ea 3a 91 37 42 3b
       -0.0012914581 0.007297269 0.0017900907 0.002963517
0002e0 74 e0 07 3d a9 1e 5d 3c 4e bb c9 3a 45 61 15 3d
       0.03317304 0.0134960795 0.0015390904 0.036469717
0002f0 f4 d2 d1 3c e6 32 4c 3c b7 cf d4 3c 07 ba be 3c
       0.025613286 0.012463307 0.025977952 0.023282064
000300 ff eb 2d 3c e5 10 45 3d 11 aa 1a 3d dc b5 1c 3c
       0.010615348 0.048111815 0.037759844 0.009564843
000310 60 df 4d 3d 3d 00 16 3d 08 c7 23 25 a3 26 29 25
       0.050261855 0.03662132 1.4205431e-16 1.4671504e-16
000320 05 d8 4d a5 b0 29 3e a5 38 ed 49 a3 93 67 5d 25
       -1.7854106e-16 -1.6493997e-16 -1.0946465e-17 1.9203787e-16
000330 e0 e7 53 a5 ea 8e f9 a4 03 1f 00 a5 59 07 10 bc
       -1.8379895e-16 -1.0822864e-16 -1.1112737e-16 -0.008790814
000340 64 64 83 bb e2 28 51 3b ed 54 02 bc 25 5c 67 bc
       -0.00400977 0.0031915237 -0.007954818 -0.01412109
000350 a2 c3 5a 3b 06 fa 9a bb 98 8c 98 bc 77 47 f8 3a
       0.0033380766 -0.004729512 -0.018621728 0.0018942197
000360 00 e2 07 3c f1 c9 a2 3c 1d 1b 7a 3c eb ac ea 3c
       0.008293629 0.019871684 0.015265253 0.028646907
000370 4c f3 49 3d 6e 5d fe 3c 61 dd f5 3c 3e a1 73 3d
       0.04930429 0.03105041 0.030012788 0.059479944
000380 ac d4 21 3d 3b bc 4e bc d1 2f 00 bc 6e 1c 7d ba
       0.03950946 -0.01261812 -0.0078239 -0.00096554204
000390 bb 74 7d bc ea 23 b4 bc 8f ec df 3b 2b c4 5e bc
       -0.015469725 -0.021989781 0.00683362 -0.013596575
0003a0 cc 61 d0 bc 22 38 94 3b ec ff 5c 3a 8d 0a bf 3b
       -0.025437258 0.004523293 0.00084304693 0.005830115
0003b0 ad 6e 30 3c 34 f0 04 3c 5e 60 c5 3c ab 00 b9 3c
       0.010768575 0.0081139095 0.024093803 0.022583326
0003c0 52 64 83 3b 96 0f f6 3c 3b 32 e6 3c ba d4 45 bc
       0.004009762 0.030036729 0.028100124 -0.012074644
0003d0 c5 70 4f bb e2 ba b5 bb 8d 21 02 38 68 e3 0b 3d
       -0.003165291 -0.00554596 3.1025662e-05 0.03415242
0003e0 9c 05 81 3b 6b 92 ec 3a 40 d3 28 3d 13 2d 7d 3c
       0.0039374363 0.0018049007 0.04121709 0.015452641
0003f0 0b 17 ee 3b 74 cb 54 3c 4c 2f 27 3c 57 22 cf 3c
       0.0072659305 0.01298796 0.010204148 0.02528493

encoder.6.bias f4 [128]
000000 38 40 05 bc 3a e4 2a bc 62 f0 0b 3d f2 5a 04 bb
       -0.008132987 -0.01043039 0.034164794 -0.002019581
000010 1e 5c d9 3c fd 46 cf 3c d8 0d 05 3d 50 49 0a bc
       0.026533183 0.025302405 0.032483906 -0.008440331
000020 88 d6 1d 3d e1 07 80 3b 30 85 00 bc 4b e0 04 b6
       0.03853467 0.0039071892 -0.007844254 -1.9800088e-06
000030 59 ad a4 bb da 9d 1f bc c8 15 c8 b4 95 62 05 bb
       -0.0050255475 -0.009742225 -3.726875e-07 -0.002035295
000040 32 20 89 3c 73 ed 08 bc 02 93 5a bb 38 82 c2 bb
       0.016738985 -0.008357394 -0.0033351784 -0.0059359334
000050 4a 8a 3c 3d ed 9f 31 3c a4 d5 8b b5 37 c7 92 3c
       0.04603032 0.010841352 -1.0418485e-06 0.017917259
000060 db a9 05 3d 36 84 20 bc 21 23 1d 3d 3d 93 67 bc
       0.03263269 -0.009797147 0.03836358 -0.014134225
000070 c4 5b a7 3c b5 0d 45 3c 2b 16 c4 3c bc e6 f2 3c
       0.0204295 0.012027194 0.023936352 0.029651038
000080 9f a8 03 3d a6 38 03 3d 2f c1 35 3c e0 5a fc 3b
       0.03214323 0.032036446 0.011093422 0.007701263
000090 c1 28 57 b9 cb 19 a6 3c c6 e9 ee 3b 91 bd f5 3c
       -0.0002051918 0.02027597 0.0072910516 0.029997619
0000a0 24 2f 27 bb 11 f8 92 3c 90 ca 08 3d 62 63 d5 3c
       -0.0025510276 0.017940553 0.033396304 0.026048366
0000b0 62 13 13 3b f5 82 f1 3c f1 84 9a 3c af 1d 60 bc
       0.0022441973 0.02948139 0.01886222 -0.013678952
0000c0 64 6f b9 3c 7a ab 47 bc cb 4f a4 ba c5 39 57 3b
       0.022636123 -0.012186879 -0.0012535987 0.003284083
0000d0 b9 80 94 3c 03 9a da bb 4f f3 39 bc 76 91 23 3d
       0.018127786 -0.0066711917 -0.011349513 0.039933644
0000e0 ec 86 83 bb 4e 24 dc 3c aa 88 e8 3b 85 06 ad 3b
       -0.0040138867 0.02687278 0.0070963698 0.005280318
0000f0 32 98 d4 3c 3d f3 33 3c e6 30 a5 3c f6 3c 08 3d
       0.025951479 0.0109832855 0.020164918 0.033261262
000100 28 68 6c 3c be 96 31 3d dc 03 fa 3c e1 62 f1 3c
       0.01442913 0.04335665 0.030519418 0.029466094
000110 6e 2c 59 3c 3b f0 0f bb 59 47 1b 3d 84 c3 df bb
       0.013255222 -0.0021963257 0.03790984 -0.006828727
000120 eb aa ee 3c ec e5 06 3d b9 81 87 bb 41 35 3c bc
       0.029134234 0.032934114 -0.004135337 -0.011487306
000130 2c 19 28 3c 7f a7 da 3c ca 43 91 3b 94 87 b7 3a
       0.010259908 0.026691196 0.00443313 0.0014002197
000140 57 6f 83 3c e5 bc 4c 3b f8 8e ce 3c f4 1c d3 3c
       0.016044302 0.003124052 0.025214657 0.025770642
000150 e5 a0 50 bc 42 cf 84 3b ba 86 1b 3c 93 29 8a bc
       -0.012733673 0.0040530274 0.009492571 -0.016865527
000160 78 a1 1d 3c 83 75 ef 3c d0 14 ed 3c 9e 5d a2 3b
       0.009621017 0.029230839 0.028940588 0.0049550077
000170 d9 f7 f9 3c 66 e2 1f 3d fe 9c 17 3d 31 1c 02 3c
       0.03051369 0.03903427 0.037014954 0.007941292
000180 db e0 c8 3c 60 4d 6c bc 34 1d 1f 3d 0e 9e 23 bb
       0.024521282 -0.0144227445 0.03884621 -0.0024966034
000190 85 73 7c 3c 48 b9 a2 3c e7 43 a0 3c e9 17 1f bb
       0.015408401 0.01986374 0.019563628 -0.0024275726
0001a0 21 33 04 3d d3 d9 6b 3c 8b 0a 19 3d 3d 64 40 3d
       0.032275323 0.014395195 0.03736357 0.046970595
0001b0 87 ff af 3b 71 06 45 3b db 42 ae 3c 9a 1f 1f 3d
       0.0053710374 0.0030063654 0.021272114 0.038848497
0001c0 32 03 0d 3c a8 fa 03 3d 94 80 18 3d fb 99 a5 bc
       0.008606719 0.032221466 0.037231997 -0.020215025
0001d0 12 60 a0 38 11 f3 18 3c 6a 60 82 37 75 dc ed ba
       7.647289e-05 0.009335295 1.5542104e-05 -0.0018147366
0001e0 5d 5f 9e b9 93 8f 14 3d 0c 58 03 3c 48 15 5e 3b
       -0.0003020716 0.036269736 0.0080165975 0.0033887196
0001f0 db b4 1d bc 8d c3 ef 3c 05 b7 aa 3c dd b9 41 3d
       -0.009625639 0.02926805 0.020839224 0.047296394

decoder.0.weight f4 [128, 64, 3, 3]
000000 57 66 12 bb 91 86 a8 3c 0b 98 b4 39 da 90 2c 3c
       -0.0022338831 0.020571979 0.00034445556 0.010532582
000010 64 f8 83 3b 6e 6d a4 3c 82 85 1e bb 30 13 8e bc
       0.004027413 0.020071711 -0.0024188464 -0.017343134
000020 b4 b3 78 ba 67 70 d9 b9 7c 5c 52 bb 25 64 5e b9
       -0.0009487227 -0.00041473212 -0.0032098582 -0.00021208877
000030 ac 43 36 3c 3b 84 3e ba 70 5b fc 3b 02 9c 50 ba
       0.011124533 -0.00072676287 0.00770133 -0.0007957817
000040 af 24 84 bc 4b 1f 08 ba 6d ce 81 3c 15 68 87 3c
       -0.016130773 -0.00051926513 0.015845502 0.016529122
000050 6f e7 90 3c ba fe 98 3c 00 70 86 3d e2 c0 18 3d
       0.017688481 0.01867615 0.06564331 0.037293322
000060 9a 9b bd 3c 50 77 1d 3d e3 de 20 3d 01 64 8a 3b
       0.023145486 0.038443863 0.03927506 0.004223347
000070 4f 49 3d 3b 2a 8a 71 3c 42 09 8b 3c 30 16 92 bb
       0.0028882807 0.014742414 0.016972188 -0.0044582114
000080 a8 77 9c 3c ea 92 b2 3a e8 8e 8b bc e6 75 95 bb
       0.019100025 0.0013624106 -0.017035916 -0.0045611737
000090 77 1c cd bb 68 2e 2d 3c 31 fc 38 3c 04 94 28 3c
       -0.006259497 0.010570146 0.011290596 0.010289196
0000a0 69 1c 11 bc de 91 cd 3c 6a 3c 05 3c 19 1c aa bc
       -0.008856871 0.025093969 0.00813208 -0.020765351
0000b0 38 07 e8 3a 2e 7c 36 3c 09 cc 0d 3c 61 26 76 3c
       0.0017702347 0.011138005 0.008654603 0.015023799
0000c0 b5 6d ea 3b d4 e2 18 bc 4a fe 87 3c 19 64 ee ba
       0.0071541914 -0.009331424 0.016600747 -0.001818779
0000d0 50 81 a4 bc 2e 41 53 ba 54 a5 fc b9 be 95 b2 3b
       -0.020081192 -0.0008058724 -0.00048188365 0.0054499796
0000e0 0c a6 45 ba 9c 13 8b 3c 03 55 af a2 48 1c 79 3c
       -0.00075396965 0.016977124 -4.7523855e-18 0.015204497
0000f0 4c 09 e0 b9 e0 45 ab bc 88 dd 7f ba 2d 04 b4 ba
       -0.00042731536 -0.020907342 -0.0009760489 -0.0013734155
000100 6a 6f 4d 3c 53 ca 31 3b 2a 9e 2f 3c 0a 8b 72 a4
       0.01253877 0.0027128651 0.010718862 -5.2593156e-17
000110 f0 c3 86 3c ad 90 d9 3a a6 b9 93 bc 59 d2 01 ba
       0.016450852 0.0016598903 -0.01803286 -0.0004952304
000120 ac f4 12 bb 1f 97 eb b9 82 1f b9 bc ef 5d 12 bc
       -0.0022423668 -0.00044935287 -0.022598032 -0.008933528
000130 0b c0 c1 b9 bd 78 87 bc be f8 76 3c d2 2f d5 b9
       -0.00036954912 -0.016537065 0.015073953 -0.00040662155
000140 f7 a5 03 bb 35 5f 07 bb 9e 86 68 3c c9 48 25 bb
       -0.0020087936 -0.0020656113 0.0141922515 -0.0025220385
000150 d9 bf d4 3b 05 7d 1c ac b9 3b 00 3d 7d 0c b7 b8
       0.0064925966 -2.2238333e-12 0.031306956 -8.728446e-05
000160 52 42 bd bc 74 25 fa ba 12 26 81 3c c0 44 01 3d
       -0.023102913 -0.0019084648 0.015765224 0.031559706
000170 a3 1a 6c 3c 8d e9 9e 3c 3c e9 86 3d 10 43 0f 3d
       0.014410648 0.019398475 0.06587455 0.034976065
000180 0f ee ca 3c 66 e2 69 3d 21 83 03 3d fe 00 2a bb
       0.024771718 0.057100676 0.032107476 -0.0025940533
000190 98 89 9b 3c d6 30 2b ba 5e 33 cc a3 71 e2 d6 27
       0.018986508 -0.00065304094 -2.2139479e-17 5.964244e-15
0001a0 f7 1c cf 23 c3 a9 17 3b 67 1d dd bb 78 b7 07 ba
       2.2455252e-17 0.0023141957 -0.00674789 -0.000517718
0001b0 a4 f5 eb 3b 55 eb be 3b bf a4 8d 3c e6 50 01 3c
       0.0072009135 0.0058263936 0.017290471 0.007892823
0001c0 dd 93 30 bc 29 00 e6 3c aa 8c 22 bb cc 3f c5 bc
       -0.010777441 0.028076248 -0.002480308 -0.024078272
0001d0 5d 63 fd bb 42 40 1d 3c 54 45 69 3c c9 cb de 3c
       -0.0077327923 0.00959784 0.0142377205 0.027196782
0001e0 9c 4c d0 3b e6 68 cb 3b a6 1a 6c 3c 34 7e dd ba
       0.006356789 0.006207573 0.01441065 -0.0016898573
0001f0 45 c5 b3 bc 83 d8 22 ba 9f 7e 99 3b 38 67 09 3c
       -0.021944651 -0.00062120723 0.004684284 0.008386426
000200 65 7e 66 3c f0 59 c9 3b 78 d5 09 bc 9c 88 17 3c
       0.014068221 0.0061447546 -0.008412711 0.009248879
000210 c8 84 6f 3c 39 4d 8a bc 35 a4 19 bb 7e fc c4 bb
       0.01461906 -0.016882526 -0.0023443822 -0.0060115447
000220 55 d6 91 b8 09 10 9f bc a6 9c 05 39 8a 68 d9 3d
       -6.954061e-05 -0.019416826 0.00012742224 0.10615642
000230 a9 9a af 3c 88 75 30 3b 8d 8c a2 3d 09 da 4a 3d
       0.021436052 0.0026925523 0.07936964 0.04952434
000240 d5 61 27 3c 4e 7e dd 3c 32 10 91 3c f1 08 52 3c
       0.010216196 0.027037766 0.017707918 0.012819515
000250 7d e9 9d 3d 5b a2 e5 3c 15 82 dc 3c d6 6b 83 3d
       0.0771055 0.028031519 0.026917497 0.064170524
000260 a7 7d 32 3d 19 93 9e 3c fd b7 4d 3c e8 1b cd 3c
       0.043576863 0.019357251 0.012556073 0.02503772
000270 80 fd bf 3b 54 bd 64 3b 6d 69 8d 3c 92 a4 a3 3b
       0.005859077 0.0034902887 0.017262185 0.0049939835
000280 65 29 02 bd 53 55 4c 3a 72 db 8f 39 d6 da e9 3c
       -0.03177776 0.0007794697 0.00027438585 0.028546732
000290 04 29 09 3b 2e fa b7 3c b4 39 60 3c 77 c6 0f 3d
       0.0020928988 0.022458162 0.0136856325 0.03510138
0002a0 09 c1 10 3c 73 12 82 3d 34 a5 de 3c 6c 24 c7 3c
       0.008835086 0.06351175 0.027178384 0.02430936
0002b0 5b 93 29 3c 04 30 91 3c 62 9e 6f 3b d2 bf 8a bb
       0.010350074 0.017723091 0.003656291 -0.0042342925
0002c0 6d 9c 92 3c 2b 22 dd ba 41 3f f8 bc 14 02 43 bc
       0.017896855 -0.0016871145 -0.0303036 -0.011902351
0002d0 4f aa 1e 3c 37 31 7c 3c c6 60 7e 3c 3b 93 3c bb
       0.009684159 0.015392593 0.015526002 -0.002877428
0002e0 b1 44 56 bb bf f1 1c bb ee bd 6d 3a 3f b3 9c bc
       -0.0032694752 -0.0023947803 0.0009069134 -0.01912844
0002f0 e0 db 83 39 d4 ff 4c bc 1d 3d 82 3c a1 2f 7a 3c
       0.00025150087 -0.012512166 0.015898282 0.015270145
000300 b0 f9 2e 3c 18 c0 b1 3b 7a 28 cf 3c 1c 38 29 3c
       0.010679647 0.0054245107 0.025287855 0.010328319
000310 22 f7 96 bc 0e b8 db 3b 6e ad 6c bc 32 47 ed 39
       -0.018428389 0.0067052906 -0.014445646 0.00045257207
000320 89 2f 0d bc a1 11 3e 3b c1 59 01 3d a0 9b 60 3c
       -0.00861729 0.0029002207 0.031579737 0.013708979
000330 25 9d fe ba 89 bd 1a 3d 9c 81 91 3c 11 64 10 bc
       -0.0019425495 0.03777841 0.017761998 -0.00881292
000340 00 d8 9e bc 97 51 6d bc 6a b5 6f bb c3 e1 bb b9
       -0.019390106 -0.014484785 -0.0036576637 -0.00035835625
000350 d6 95 59 bc 98 b7 2c bc 8c c9 1c 3c dd 1b 94 3c
       -0.013280353 -0.010541819 0.009569537 0.018079692
000360 3e fb 3b ba 2b 74 cd 3b ed f2 ff b9 f3 2c da 3c
       -0.0007170922 0.006269952 -0.00048818384 0.026632762
000370 7a e5 17 bc ee 45 f6 3c f4 be 2b ba 34 00 37 3b
       -0.00927102 0.030062642 -0.00065515866 0.0027923705
000380 46 96 38 ba 5b bb ee 3b 7e ed c1 3c 49 cd 93 3c
       -0.00070414355 0.007285518 0.023672815 0.018042224
000390 26 24 1b 3c c6 2e 0c 3d c3 6c 9b 3c ed b4 07 3d
       0.009469068 0.034224294 0.01897276 0.03313153
0003a0 b1 f6 77 3d 30 7b 1a 3d 06 6d 26 3c 73 18 92 3c
       0.060537998 0.037715137 0.010157829 0.017833924
0003b0 0d 47 ae 3c dd bf f6 3b 30 b2 35 bc 11 c8 96 3c
       0.021274114 0.007530196 -0.0110898465 0.018405946
0003c0 57 fe c6 3a ff d7 e6 bc 26 02 ca bb 9e fe 3a 28
       0.0015182 -0.028179167 -0.006164807 1.03802854e-14
0003d0 90 87 38 22 71 58 80 27 81 3f 69 3b 69 da 88 ba
       2.5008416e-18 3.5623025e-15 0.003559083 -0.0010441068
0003e0 ae a5 c0 3c 32 a4 9b 2b 4f 56 ee a2 29 cd 1a ae
       0.023516502 1.1058986e-12 -6.460141e-18 -3.5197765e-11
0003f0 d0 9e 85 3a fe 62 17 3c 64 d3 a6 bb b3 53 cf 3b
       0.0010194425 0.00923991 -0.0050911177 0.0063271164

decoder.0.bias f4 [64]
000000 52 c6 ad 3a dc 51 56 bc cd a5 63 3c d5 6f de 3b
       0.0013257957 -0.01308104 0.01389451 0.0067882338
000010 c8 90 8d 3c 2f e7 21 3d 71 77 a5 bc cc 61 c8 bb
       0.017280951 0.039527114 -0.020198556 -0.006115174
000020 98 8c 96 3b bd e4 a2 bc 53 cd 2a 3d 1c 88 8b bc
       0.004594397 -0.019884462 0.04169972 -0.017032675
000030 f3 97 17 3d 2b a6 f3 3c a9 2b 2c 3d 9b e5 72 be
       0.037010144 0.029742321 0.042033825 -0.237204
000040 b1 61 74 3c 57 f2 8c 3c 9c af 5b 3c b0 b0 76 3c
       0.01491587 0.0172054 0.013408568 0.015056774
000050 52 26 0a 3b 12 1e 2f ba 70 4b 85 3c 9e 2e 9e 3b
       0.002107997 -0.0006680201 0.016271323 0.0048273345
000060 88 9b 9d 3c 95 7f 48 3c 99 36 9d 3c bc ac 41 bc
       0.019239202 0.012237449 0.019191073 -0.011820968
000070 d2 64 13 bd d7 a4 c7 bc 03 93 d2 ba 4c eb 79 bc
       -0.03598482 -0.024370594 -0.0016065541 -0.015253853
000080 7a 38 87 bb d7 46 57 3c de 63 3f bb 59 15 d9 3b
       -0.0041266056 0.013139448 -0.0029203813 0.0066248593
000090 8a e2 16 3d 47 ad fe 3c 6a 59 00 b8 14 f6 0b 3c
       0.03683714 0.031088484 -3.060085e-05 0.008542556
0000a0 b8 00 6d bd 36 3a 31 3c eb f5 9e 3c a4 8f a4 bb
       -0.057862014 0.010817101 0.019404372 -0.005022006
0000b0 1a e5 15 3d 64 d1 1d 3d 4f fb c5 3c e4 8f 91 bc
       0.03659544 0.03852977 0.024167685 -0.017768808
0000c0 94 b8 13 bc 28 e7 3b bb 89 92 74 3c 01 61 8e 3c
       -0.009016175 -0.0028671715 0.014927515 0.01738024
0000d0 8c 3b fd 3c 67 a6 9a bc 07 38 4d bb 3e 66 0a bc
       0.030912183 -0.018878175 -0.0031313912 -0.008447228
0000e0 e3 1c ab bc d7 18 73 3c 15 93 38 bd 3a da fe 3c
       -0.020887798 0.014837465 -0.045062143 0.031109918
0000f0 52 75 1f 3d 8b ba 16 3d cf ed 51 ba 3b e0 9c 3b
       0.038930245 0.036798995 -0.00080081535 0.0047874725
